…
 image_dir='/mnt/strokeapp/Datasets/Seg_ctmri_2d'
 input='fake_mri'
 lr=0.001
 mask_dir='/mnt/strokeapp/Datasets/Seg_mask_2d'
 model_name='swinunetr'
 name='swinunetr_resvit'
 output_dir='output/swinunetr_resvit'
 roi=(128
 128)
 seed=123
 spatial_size=(96
 96
 96)
 sw_batch=4
 synthesize_model='resvit'
 test_batch_size=4
 train_batch_size=16
 weight_decay=0.0001)
2024-03-26 01:50:47,121 Brain Segmentation INFO: ----------------------------------------------------------------------------------------------------
SwinUNETR(
  (swinViT): SwinTransformer(
    (patch_embed): PatchEmbed(
      (proj): Conv2d(1, 24, kernel_size=(2, 2), stride=(2, 2))
    )
    (pos_drop): Dropout(p=0.0, inplace=False)
    (layers1): ModuleList(
      (0): BasicLayer(
        (blocks): ModuleList(
          (0): SwinTransformerBlock(
            (norm1): LayerNorm((24,), eps=1e-05, elementwise_affine=True)
            (attn): WindowAttention(
              (qkv): Linear(in_features=24, out_features=72, bias=True)
              (attn_drop): Dropout(p=0.0, inplace=False)
              (proj): Linear(in_features=24, out_features=24, bias=True)
              (proj_drop): Dropout(p=0.0, inplace=False)
              (softmax): Softmax(dim=-1)
            )
            (drop_path): Identity()
            (norm2): LayerNorm((24,), eps=1e-05, elementwise_affine=True)
            (mlp): MLPBlock(
              (linear1): Linear(in_features=24, out_features=96, bias=True)
              (linear2): Linear(in_features=96, out_features=24, bias=True)
              (fn): GELU(approximate='none')
              (drop1): Dropout(p=0.0, inplace=False)
              (drop2): Dropout(p=0.0, inplace=False)
            )
          )
          (1): SwinTransformerBlock(
            (norm1): LayerNorm((24,), eps=1e-05, elementwise_affine=True)
            (attn): WindowAttention(
              (qkv): Linear(in_features=24, out_features=72, bias=True)
              (attn_drop): Dropout(p=0.0, inplace=False)
              (proj): Linear(in_features=24, out_features=24, bias=True)
              (proj_drop): Dropout(p=0.0, inplace=False)
              (softmax): Softmax(dim=-1)
            )
            (drop_path): Identity()
            (norm2): LayerNorm((24,), eps=1e-05, elementwise_affine=True)
            (mlp): MLPBlock(
              (linear1): Linear(in_features=24, out_features=96, bias=True)
              (linear2): Linear(in_features=96, out_features=24, bias=True)
              (fn): GELU(approximate='none')
              (drop1): Dropout(p=0.0, inplace=False)
              (drop2): Dropout(p=0.0, inplace=False)
            )
          )
        )
        (downsample): PatchMerging(
          (reduction): Linear(in_features=96, out_features=48, bias=False)
          (norm): LayerNorm((96,), eps=1e-05, elementwise_affine=True)
        )
      )
    )
    (layers2): ModuleList(
      (0): BasicLayer(
        (blocks): ModuleList(
          (0): SwinTransformerBlock(
            (norm1): LayerNorm((48,), eps=1e-05, elementwise_affine=True)
            (attn): WindowAttention(
              (qkv): Linear(in_features=48, out_features=144, bias=True)
              (attn_drop): Dropout(p=0.0, inplace=False)
              (proj): Linear(in_features=48, out_features=48, bias=True)
              (proj_drop): Dropout(p=0.0, inplace=False)
              (softmax): Softmax(dim=-1)
            )
            (drop_path): Identity()
            (norm2): LayerNorm((48,), eps=1e-05, elementwise_affine=True)
            (mlp): MLPBlock(
              (linear1): Linear(in_features=48, out_features=192, bias=True)
              (linear2): Linear(in_features=192, out_features=48, bias=True)
              (fn): GELU(approximate='none')
              (drop1): Dropout(p=0.0, inplace=False)
              (drop2): Dropout(p=0.0, inplace=False)
            )
          )
          (1): SwinTransformerBlock(
            (norm1): LayerNorm((48,), eps=1e-05, elementwise_affine=True)
            (attn): WindowAttention(
              (qkv): Linear(in_features=48, out_features=144, bias=True)
              (attn_drop): Dropout(p=0.0, inplace=False)
              (proj): Linear(in_features=48, out_features=48, bias=True)
              (proj_drop): Dropout(p=0.0, inplace=False)
              (softmax): Softmax(dim=-1)
            )
            (drop_path): Identity()
            (norm2): LayerNorm((48,), eps=1e-05, elementwise_affine=True)
            (mlp): MLPBlock(
              (linear1): Linear(in_features=48, out_features=192, bias=True)
              (linear2): Linear(in_features=192, out_features=48, bias=True)
              (fn): GELU(approximate='none')
              (drop1): Dropout(p=0.0, inplace=False)
              (drop2): Dropout(p=0.0, inplace=False)
            )
          )
        )
        (downsample): PatchMerging(
          (reduction): Linear(in_features=192, out_features=96, bias=False)
          (norm): LayerNorm((192,), eps=1e-05, elementwise_affine=True)
        )
      )
    )
    (layers3): ModuleList(
      (0): BasicLayer(
        (blocks): ModuleList(
          (0): SwinTransformerBlock(
            (norm1): LayerNorm((96,), eps=1e-05, elementwise_affine=True)
            (attn): WindowAttention(
              (qkv): Linear(in_features=96, out_features=288, bias=True)
              (attn_drop): Dropout(p=0.0, inplace=False)
              (proj): Linear(in_features=96, out_features=96, bias=True)
              (proj_drop): Dropout(p=0.0, inplace=False)
              (softmax): Softmax(dim=-1)
            )
            (drop_path): Identity()
            (norm2): LayerNorm((96,), eps=1e-05, elementwise_affine=True)
            (mlp): MLPBlock(
              (linear1): Linear(in_features=96, out_features=384, bias=True)
              (linear2): Linear(in_features=384, out_features=96, bias=True)
              (fn): GELU(approximate='none')
              (drop1): Dropout(p=0.0, inplace=False)
              (drop2): Dropout(p=0.0, inplace=False)
            )
          )
          (1): SwinTransformerBlock(
            (norm1): LayerNorm((96,), eps=1e-05, elementwise_affine=True)
            (attn): WindowAttention(
              (qkv): Linear(in_features=96, out_features=288, bias=True)
              (attn_drop): Dropout(p=0.0, inplace=False)
              (proj): Linear(in_features=96, out_features=96, bias=True)
              (proj_drop): Dropout(p=0.0, inplace=False)
              (softmax): Softmax(dim=-1)
            )
            (drop_path): Identity()
            (norm2): LayerNorm((96,), eps=1e-05, elementwise_affine=True)
            (mlp): MLPBlock(
              (linear1): Linear(in_features=96, out_features=384, bias=True)
              (linear2): Linear(in_features=384, out_features=96, bias=True)
              (fn): GELU(approximate='none')
              (drop1): Dropout(p=0.0, inplace=False)
              (drop2): Dropout(p=0.0, inplace=False)
            )
          )
        )
        (downsample): PatchMerging(
          (reduction): Linear(in_features=384, out_features=192, bias=False)
          (norm): LayerNorm((384,), eps=1e-05, elementwise_affine=True)
        )
      )
    )
    (layers4): ModuleList(
      (0): BasicLayer(
        (blocks): ModuleList(
          (0): SwinTransformerBlock(
            (norm1): LayerNorm((192,), eps=1e-05, elementwise_affine=True)
            (attn): WindowAttention(
              (qkv): Linear(in_features=192, out_features=576, bias=True)
              (attn_drop): Dropout(p=0.0, inplace=False)
              (proj): Linear(in_features=192, out_features=192, bias=True)
              (proj_drop): Dropout(p=0.0, inplace=False)
              (softmax): Softmax(dim=-1)
            )
            (drop_path): Identity()
            (norm2): LayerNorm((192,), eps=1e-05, elementwise_affine=True)
            (mlp): MLPBlock(
              (linear1): Linear(in_features=192, out_features=768, bias=True)
              (linear2): Linear(in_features=768, out_features=192, bias=True)
              (fn): GELU(approximate='none')
              (drop1): Dropout(p=0.0, inplace=False)
              (drop2): Dropout(p=0.0, inplace=False)
            )
          )
          (1): SwinTransformerBlock(
            (norm1): LayerNorm((192,), eps=1e-05, elementwise_affine=True)
            (attn): WindowAttention(
              (qkv): Linear(in_features=192, out_features=576, bias=True)
              (attn_drop): Dropout(p=0.0, inplace=False)
              (proj): Linear(in_features=192, out_features=192, bias=True)
              (proj_drop): Dropout(p=0.0, inplace=False)
              (softmax): Softmax(dim=-1)
            )
            (drop_path): Identity()
            (norm2): LayerNorm((192,), eps=1e-05, elementwise_affine=True)
            (mlp): MLPBlock(
              (linear1): Linear(in_features=192, out_features=768, bias=True)
              (linear2): Linear(in_features=768, out_features=192, bias=True)
              (fn): GELU(approximate='none')
              (drop1): Dropout(p=0.0, inplace=False)
              (drop2): Dropout(p=0.0, inplace=False)
            )
          )
        )
        (downsample): PatchMerging(
          (reduction): Linear(in_features=768, out_features=384, bias=False)
          (norm): LayerNorm((768,), eps=1e-05, elementwise_affine=True)
        )
      )
    )
  )
  (encoder1): UnetrBasicBlock(
    (layer): UnetResBlock(
      (conv1): Convolution(
        (conv): Conv2d(1, 24, kernel_size=(3, 3), stride=(1, 1), padding=(1, 1), bias=False)
      )
      (conv2): Convolution(
        (conv): Conv2d(24, 24, kernel_size=(3, 3), stride=(1, 1), padding=(1, 1), bias=False)
      )
      (lrelu): LeakyReLU(negative_slope=0.01, inplace=True)
      (norm1): InstanceNorm2d(24, eps=1e-05, momentum=0.1, affine=False, track_running_stats=False)
      (norm2): InstanceNorm2d(24, eps=1e-05, momentum=0.1, affine=False, track_running_stats=False)
      (conv3): Convolution(
        (conv): Conv2d(1, 24, kernel_size=(1, 1), stride=(1, 1), bias=False)
      )
      (norm3): InstanceNorm2d(24, eps=1e-05, momentum=0.1, affine=False, track_running_stats=False)
    )
  )
  (encoder2): UnetrBasicBlock(
    (layer): UnetResBlock(
      (conv1): Convolution(
        (conv): Conv2d(24, 24, kernel_size=(3, 3), stride=(1, 1), padding=(1, 1), bias=False)
      )
      (conv2): Convolution(
        (conv): Conv2d(24, 24, kernel_size=(3, 3), stride=(1, 1), padding=(1, 1), bias=False)
      )
      (lrelu): LeakyReLU(negative_slope=0.01, inplace=True)
      (norm1): InstanceNorm2d(24, eps=1e-05, momentum=0.1, affine=False, track_running_stats=False)
      (norm2): InstanceNorm2d(24, eps=1e-05, momentum=0.1, affine=False, track_running_stats=False)
    )
  )
  (encoder3): UnetrBasicBlock(
    (layer): UnetResBlock(
      (conv1): Convolution(
        (conv): Conv2d(48, 48, kernel_size=(3, 3), stride=(1, 1), padding=(1, 1), bias=False)
      )
      (conv2): Convolution(
        (conv): Conv2d(48, 48, kernel_size=(3, 3), stride=(1, 1), padding=(1, 1), bias=False)
      )
      (lrelu): LeakyReLU(negative_slope=0.01, inplace=True)
      (norm1): InstanceNorm2d(48, eps=1e-05, momentum=0.1, affine=False, track_running_stats=False)
      (norm2): InstanceNorm2d(48, eps=1e-05, momentum=0.1, affine=False, track_running_stats=False)
    )
  )
  (encoder4): UnetrBasicBlock(
    (layer): UnetResBlock(
      (conv1): Convolution(
        (conv): Conv2d(96, 96, kernel_size=(3, 3), stride=(1, 1), padding=(1, 1), bias=False)
      )
      (conv2): Convolution(
        (conv): Conv2d(96, 96, kernel_size=(3, 3), stride=(1, 1), padding=(1, 1), bias=False)
      )
      (lrelu): LeakyReLU(negative_slope=0.01, inplace=True)
      (norm1): InstanceNorm2d(96, eps=1e-05, momentum=0.1, affine=False, track_running_stats=False)
      (norm2): InstanceNorm2d(96, eps=1e-05, momentum=0.1, affine=False, track_running_stats=False)
    )
  )
  (encoder10): UnetrBasicBlock(
    (layer): UnetResBlock(
      (conv1): Convolution(
        (conv): Conv2d(384, 384, kernel_size=(3, 3), stride=(1, 1), padding=(1, 1), bias=False)
      )
      (conv2): Convolution(
        (conv): Conv2d(384, 384, kernel_size=(3, 3), stride=(1, 1), padding=(1, 1), bias=False)
      )
      (lrelu): LeakyReLU(negative_slope=0.01, inplace=True)
      (norm1): InstanceNorm2d(384, eps=1e-05, momentum=0.1, affine=False, track_running_stats=False)
      (norm2): InstanceNorm2d(384, eps=1e-05, momentum=0.1, affine=False, track_running_stats=False)
    )
  )
  (decoder5): UnetrUpBlock(
    (transp_conv): Convolution(
      (conv): ConvTranspose2d(384, 192, kernel_size=(2, 2), stride=(2, 2), bias=False)
    )
    (conv_block): UnetResBlock(
      (conv1): Convolution(
        (conv): Conv2d(384, 192, kernel_size=(3, 3), stride=(1, 1), padding=(1, 1), bias=False)
      )
      (conv2): Convolution(
        (conv): Conv2d(192, 192, kernel_size=(3, 3), stride=(1, 1), padding=(1, 1), bias=False)
      )
      (lrelu): LeakyReLU(negative_slope=0.01, inplace=True)
      (norm1): InstanceNorm2d(192, eps=1e-05, momentum=0.1, affine=False, track_running_stats=False)
      (norm2): InstanceNorm2d(192, eps=1e-05, momentum=0.1, affine=False, track_running_stats=False)
      (conv3): Convolution(
        (conv): Conv2d(384, 192, kernel_size=(1, 1), stride=(1, 1), bias=False)
      )
      (norm3): InstanceNorm2d(192, eps=1e-05, momentum=0.1, affine=False, track_running_stats=False)
    )
  )
  (decoder4): UnetrUpBlock(
    (transp_conv): Convolution(
      (conv): ConvTranspose2d(192, 96, kernel_size=(2, 2), stride=(2, 2), bias=False)
    )
    (conv_block): UnetResBlock(
      (conv1): Convolution(
        (conv): Conv2d(192, 96, kernel_size=(3, 3), stride=(1, 1), padding=(1, 1), bias=False)
      )
      (conv2): Convolution(
        (conv): Conv2d(96, 96, kernel_size=(3, 3), stride=(1, 1), padding=(1, 1), bias=False)
      )
      (lrelu): LeakyReLU(negative_slope=0.01, inplace=True)
      (norm1): InstanceNorm2d(96, eps=1e-05, momentum=0.1, affine=False, track_running_stats=False)
      (norm2): InstanceNorm2d(96, eps=1e-05, momentum=0.1, affine=False, track_running_stats=False)
      (conv3): Convolution(
        (conv): Conv2d(192, 96, kernel_size=(1, 1), stride=(1, 1), bias=False)
      )
      (norm3): InstanceNorm2d(96, eps=1e-05, momentum=0.1, affine=False, track_running_stats=False)
    )
  )
  (decoder3): UnetrUpBlock(
    (transp_conv): Convolution(
      (conv): ConvTranspose2d(96, 48, kernel_size=(2, 2), stride=(2, 2), bias=False)
    )
    (conv_block): UnetResBlock(
      (conv1): Convolution(
        (conv): Conv2d(96, 48, kernel_size=(3, 3), stride=(1, 1), padding=(1, 1), bias=False)
      )
      (conv2): Convolution(
        (conv): Conv2d(48, 48, kernel_size=(3, 3), stride=(1, 1), padding=(1, 1), bias=False)
      )
      (lrelu): LeakyReLU(negative_slope=0.01, inplace=True)
      (norm1): InstanceNorm2d(48, eps=1e-05, momentum=0.1, affine=False, track_running_stats=False)
      (norm2): InstanceNorm2d(48, eps=1e-05, momentum=0.1, affine=False, track_running_stats=False)
      (conv3): Convolution(
        (conv): Conv2d(96, 48, kernel_size=(1, 1), stride=(1, 1), bias=False)
      )
      (norm3): InstanceNorm2d(48, eps=1e-05, momentum=0.1, affine=False, track_running_stats=False)
    )
  )
  (decoder2): UnetrUpBlock(
    (transp_conv): Convolution(
      (conv): ConvTranspose2d(48, 24, kernel_size=(2, 2), stride=(2, 2), bias=False)
    )
    (conv_block): UnetResBlock(
      (conv1): Convolution(
        (conv): Conv2d(48, 24, kernel_size=(3, 3), stride=(1, 1), padding=(1, 1), bias=False)
      )
      (conv2): Convolution(
        (conv): Conv2d(24, 24, kernel_size=(3, 3), stride=(1, 1), padding=(1, 1), bias=False)
      )
      (lrelu): LeakyReLU(negative_slope=0.01, inplace=True)
      (norm1): InstanceNorm2d(24, eps=1e-05, momentum=0.1, affine=False, track_running_stats=False)
      (norm2): InstanceNorm2d(24, eps=1e-05, momentum=0.1, affine=False, track_running_stats=False)
      (conv3): Convolution(
        (conv): Conv2d(48, 24, kernel_size=(1, 1), stride=(1, 1), bias=False)
      )
      (norm3): InstanceNorm2d(24, eps=1e-05, momentum=0.1, affine=False, track_running_stats=False)
    )
  )
  (decoder1): UnetrUpBlock(
    (transp_conv): Convolution(
      (conv): ConvTranspose2d(24, 24, kernel_size=(2, 2), stride=(2, 2), bias=False)
    )
    (conv_block): UnetResBlock(
      (conv1): Convolution(
        (conv): Conv2d(48, 24, kernel_size=(3, 3), stride=(1, 1), padding=(1, 1), bias=False)
      )
      (conv2): Convolution(
        (conv): Conv2d(24, 24, kernel_size=(3, 3), stride=(1, 1), padding=(1, 1), bias=False)
      )
      (lrelu): LeakyReLU(negative_slope=0.01, inplace=True)
      (norm1): InstanceNorm2d(24, eps=1e-05, momentum=0.1, affine=False, track_running_stats=False)
      (norm2): InstanceNorm2d(24, eps=1e-05, momentum=0.1, affine=False, track_running_stats=False)
      (conv3): Convolution(
        (conv): Conv2d(48, 24, kernel_size=(1, 1), stride=(1, 1), bias=False)
      )
      (norm3): InstanceNorm2d(24, eps=1e-05, momentum=0.1, affine=False, track_running_stats=False)
    )
  )
  (out): UnetOutBlock(
    (conv): Convolution(
      (conv): Conv2d(24, 1, kernel_size=(1, 1), stride=(1, 1))
    )
  )
)
----------------------------------------------------------------------------------------------------

2024-03-26 01:50:47,122 Brain Segmentation INFO: SwinUNETR(
  (swinViT): SwinTransformer(
    (patch_embed): PatchEmbed(
      (proj): Conv2d(1, 24, kernel_size=(2, 2), stride=(2, 2))
    )
    (pos_drop): Dropout(p=0.0, inplace=False)
    (layers1): ModuleList(
      (0): BasicLayer(
        (blocks): ModuleList(
          (0): SwinTransformerBlock(
            (norm1): LayerNorm((24,), eps=1e-05, elementwise_affine=True)
            (attn): WindowAttention(
              (qkv): Linear(in_features=24, out_features=72, bias=True)
              (attn_drop): Dropout(p=0.0, inplace=False)
              (proj): Linear(in_features=24, out_features=24, bias=True)
              (proj_drop): Dropout(p=0.0, inplace=False)
              (softmax): Softmax(dim=-1)
            )
            (drop_path): Identity()
            (norm2): LayerNorm((24,), eps=1e-05, elementwise_affine=True)
            (mlp): MLPBlock(
              (linear1): Linear(in_features=24, out_features=96, bias=True)
              (linear2): Linear(in_features=96, out_features=24, bias=True)
              (fn): GELU(approximate='none')
              (drop1): Dropout(p=0.0, inplace=False)
              (drop2): Dropout(p=0.0, inplace=False)
            )
          )
          (1): SwinTransformerBlock(
            (norm1): LayerNorm((24,), eps=1e-05, elementwise_affine=True)
            (attn): WindowAttention(
              (qkv): Linear(in_features=24, out_features=72, bias=True)
              (attn_drop): Dropout(p=0.0, inplace=False)
              (proj): Linear(in_features=24, out_features=24, bias=True)
              (proj_drop): Dropout(p=0.0, inplace=False)
              (softmax): Softmax(dim=-1)
            )
            (drop_path): Identity()
            (norm2): LayerNorm((24,), eps=1e-05, elementwise_affine=True)
            (mlp): MLPBlock(
              (linear1): Linear(in_features=24, out_features=96, bias=True)
              (linear2): Linear(in_features=96, out_features=24, bias=True)
              (fn): GELU(approximate='none')
              (drop1): Dropout(p=0.0, inplace=False)
              (drop2): Dropout(p=0.0, inplace=False)
            )
          )
        )
        (downsample): PatchMerging(
          (reduction): Linear(in_features=96, out_features=48, bias=False)
          (norm): LayerNorm((96,), eps=1e-05, elementwise_affine=True)
        )
      )
    )
    (layers2): ModuleList(
      (0): BasicLayer(
        (blocks): ModuleList(
          (0): SwinTransformerBlock(
            (norm1): LayerNorm((48,), eps=1e-05, elementwise_affine=True)
            (attn): WindowAttention(
              (qkv): Linear(in_features=48, out_features=144, bias=True)
              (attn_drop): Dropout(p=0.0, inplace=False)
              (proj): Linear(in_features=48, out_features=48, bias=True)
              (proj_drop): Dropout(p=0.0, inplace=False)
              (softmax): Softmax(dim=-1)
            )
            (drop_path): Identity()
            (norm2): LayerNorm((48,), eps=1e-05, elementwise_affine=True)
            (mlp): MLPBlock(
              (linear1): Linear(in_features=48, out_features=192, bias=True)
              (linear2): Linear(in_features=192, out_features=48, bias=True)
              (fn): GELU(approximate='none')
              (drop1): Dropout(p=0.0, inplace=False)
              (drop2): Dropout(p=0.0, inplace=False)
            )
          )
          (1): SwinTransformerBlock(
            (norm1): LayerNorm((48,), eps=1e-05, elementwise_affine=True)
            (attn): WindowAttention(
              (qkv): Linear(in_features=48, out_features=144, bias=True)
              (attn_drop): Dropout(p=0.0, inplace=False)
              (proj): Linear(in_features=48, out_features=48, bias=True)
              (proj_drop): Dropout(p=0.0, inplace=False)
              (softmax): Softmax(dim=-1)
            )
            (drop_path): Identity()
            (norm2): LayerNorm((48,), eps=1e-05, elementwise_affine=True)
            (mlp): MLPBlock(
              (linear1): Linear(in_features=48, out_features=192, bias=True)
              (linear2): Linear(in_features=192, out_features=48, bias=True)
              (fn): GELU(approximate='none')
              (drop1): Dropout(p=0.0, inplace=False)
              (drop2): Dropout(p=0.0, inplace=False)
            )
          )
        )
        (downsample): PatchMerging(
          (reduction): Linear(in_features=192, out_features=96, bias=False)
          (norm): LayerNorm((192,), eps=1e-05, elementwise_affine=True)
        )
      )
    )
    (layers3): ModuleList(
      (0): BasicLayer(
        (blocks): ModuleList(
          (0): SwinTransformerBlock(
            (norm1): LayerNorm((96,), eps=1e-05, elementwise_affine=True)
            (attn): WindowAttention(
              (qkv): Linear(in_features=96, out_features=288, bias=True)
              (attn_drop): Dropout(p=0.0, inplace=False)
              (proj): Linear(in_features=96, out_features=96, bias=True)
              (proj_drop): Dropout(p=0.0, inplace=False)
              (softmax): Softmax(dim=-1)
            )
            (drop_path): Identity()
            (norm2): LayerNorm((96,), eps=1e-05, elementwise_affine=True)
            (mlp): MLPBlock(
              (linear1): Linear(in_features=96, out_features=384, bias=True)
              (linear2): Linear(in_features=384, out_features=96, bias=True)
              (fn): GELU(approximate='none')
              (drop1): Dropout(p=0.0, inplace=False)
              (drop2): Dropout(p=0.0, inplace=False)
            )
          )
          (1): SwinTransformerBlock(
            (norm1): LayerNorm((96,), eps=1e-05, elementwise_affine=True)
            (attn): WindowAttention(
              (qkv): Linear(in_features=96, out_features=288, bias=True)
              (attn_drop): Dropout(p=0.0, inplace=False)
              (proj): Linear(in_features=96, out_features=96, bias=True)
              (proj_drop): Dropout(p=0.0, inplace=False)
              (softmax): Softmax(dim=-1)
            )
            (drop_path): Identity()
            (norm2): LayerNorm((96,), eps=1e-05, elementwise_affine=True)
            (mlp): MLPBlock(
              (linear1): Linear(in_features=96, out_features=384, bias=True)
              (linear2): Linear(in_features=384, out_features=96, bias=True)
              (fn): GELU(approximate='none')
              (drop1): Dropout(p=0.0, inplace=False)
              (drop2): Dropout(p=0.0, inplace=False)
            )
          )
        )
        (downsample): PatchMerging(
          (reduction): Linear(in_features=384, out_features=192, bias=False)
          (norm): LayerNorm((384,), eps=1e-05, elementwise_affine=True)
        )
      )
    )
    (layers4): ModuleList(
      (0): BasicLayer(
        (blocks): ModuleList(
          (0): SwinTransformerBlock(
            (norm1): LayerNorm((192,), eps=1e-05, elementwise_affine=True)
            (attn): WindowAttention(
              (qkv): Linear(in_features=192, out_features=576, bias=True)
              (attn_drop): Dropout(p=0.0, inplace=False)
              (proj): Linear(in_features=192, out_features=192, bias=True)
              (proj_drop): Dropout(p=0.0, inplace=False)
              (softmax): Softmax(dim=-1)
            )
            (drop_path): Identity()
            (norm2): LayerNorm((192,), eps=1e-05, elementwise_affine=True)
            (mlp): MLPBlock(
              (linear1): Linear(in_features=192, out_features=768, bias=True)
              (linear2): Linear(in_features=768, out_features=192, bias=True)
              (fn): GELU(approximate='none')
              (drop1): Dropout(p=0.0, inplace=False)
              (drop2): Dropout(p=0.0, inplace=False)
            )
          )
          (1): SwinTransformerBlock(
            (norm1): LayerNorm((192,), eps=1e-05, elementwise_affine=True)
            (attn): WindowAttention(
              (qkv): Linear(in_features=192, out_features=576, bias=True)
              (attn_drop): Dropout(p=0.0, inplace=False)
              (proj): Linear(in_features=192, out_features=192, bias=True)
              (proj_drop): Dropout(p=0.0, inplace=False)
              (softmax): Softmax(dim=-1)
            )
            (drop_path): Identity()
            (norm2): LayerNorm((192,), eps=1e-05, elementwise_affine=True)
            (mlp): MLPBlock(
              (linear1): Linear(in_features=192, out_features=768, bias=True)
              (linear2): Linear(in_features=768, out_features=192, bias=True)
              (fn): GELU(approximate='none')
              (drop1): Dropout(p=0.0, inplace=False)
              (drop2): Dropout(p=0.0, inplace=False)
            )
          )
        )
        (downsample): PatchMerging(
          (reduction): Linear(in_features=768, out_features=384, bias=False)
          (norm): LayerNorm((768,), eps=1e-05, elementwise_affine=True)
        )
      )
    )
  )
  (encoder1): UnetrBasicBlock(
    (layer): UnetResBlock(
      (conv1): Convolution(
        (conv): Conv2d(1, 24, kernel_size=(3, 3), stride=(1, 1), padding=(1, 1), bias=False)
      )
      (conv2): Convolution(
        (conv): Conv2d(24, 24, kernel_size=(3, 3), stride=(1, 1), padding=(1, 1), bias=False)
      )
      (lrelu): LeakyReLU(negative_slope=0.01, inplace=True)
      (norm1): InstanceNorm2d(24, eps=1e-05, momentum=0.1, affine=False, track_running_stats=False)
      (norm2): InstanceNorm2d(24, eps=1e-05, momentum=0.1, affine=False, track_running_stats=False)
      (conv3): Convolution(
        (conv): Conv2d(1, 24, kernel_size=(1, 1), stride=(1, 1), bias=False)
      )
      (norm3): InstanceNorm2d(24, eps=1e-05, momentum=0.1, affine=False, track_running_stats=False)
    )
  )
  (encoder2): UnetrBasicBlock(
    (layer): UnetResBlock(
      (conv1): Convolution(
        (conv): Conv2d(24, 24, kernel_size=(3, 3), stride=(1, 1), padding=(1, 1), bias=False)
      )
      (conv2): Convolution(
        (conv): Conv2d(24, 24, kernel_size=(3, 3), stride=(1, 1), padding=(1, 1), bias=False)
      )
      (lrelu): LeakyReLU(negative_slope=0.01, inplace=True)
      (norm1): InstanceNorm2d(24, eps=1e-05, momentum=0.1, affine=False, track_running_stats=False)
      (norm2): InstanceNorm2d(24, eps=1e-05, momentum=0.1, affine=False, track_running_stats=False)
    )
  )
  (encoder3): UnetrBasicBlock(
    (layer): UnetResBlock(
      (conv1): Convolution(
        (conv): Conv2d(48, 48, kernel_size=(3, 3), stride=(1, 1), padding=(1, 1), bias=False)
      )
      (conv2): Convolution(
        (conv): Conv2d(48, 48, kernel_size=(3, 3), stride=(1, 1), padding=(1, 1), bias=False)
      )
      (lrelu): LeakyReLU(negative_slope=0.01, inplace=True)
      (norm1): InstanceNorm2d(48, eps=1e-05, momentum=0.1, affine=False, track_running_stats=False)
      (norm2): InstanceNorm2d(48, eps=1e-05, momentum=0.1, affine=False, track_running_stats=False)
    )
  )
  (encoder4): UnetrBasicBlock(
    (layer): UnetResBlock(
      (conv1): Convolution(
        (conv): Conv2d(96, 96, kernel_size=(3, 3), stride=(1, 1), padding=(1, 1), bias=False)
      )
      (conv2): Convolution(
        (conv): Conv2d(96, 96, kernel_size=(3, 3), stride=(1, 1), padding=(1, 1), bias=False)
      )
      (lrelu): LeakyReLU(negative_slope=0.01, inplace=True)
      (norm1): InstanceNorm2d(96, eps=1e-05, momentum=0.1, affine=False, track_running_stats=False)
      (norm2): InstanceNorm2d(96, eps=1e-05, momentum=0.1, affine=False, track_running_stats=False)
    )
  )
  (encoder10): UnetrBasicBlock(
    (layer): UnetResBlock(
      (conv1): Convolution(
        (conv): Conv2d(384, 384, kernel_size=(3, 3), stride=(1, 1), padding=(1, 1), bias=False)
      )
      (conv2): Convolution(
        (conv): Conv2d(384, 384, kernel_size=(3, 3), stride=(1, 1), padding=(1, 1), bias=False)
      )
      (lrelu): LeakyReLU(negative_slope=0.01, inplace=True)
      (norm1): InstanceNorm2d(384, eps=1e-05, momentum=0.1, affine=False, track_running_stats=False)
      (norm2): InstanceNorm2d(384, eps=1e-05, momentum=0.1, affine=False, track_running_stats=False)
    )
  )
  (decoder5): UnetrUpBlock(
    (transp_conv): Convolution(
      (conv): ConvTranspose2d(384, 192, kernel_size=(2, 2), stride=(2, 2), bias=False)
    )
    (conv_block): UnetResBlock(
      (conv1): Convolution(
        (conv): Conv2d(384, 192, kernel_size=(3, 3), stride=(1, 1), padding=(1, 1), bias=False)
      )
      (conv2): Convolution(
        (conv): Conv2d(192, 192, kernel_size=(3, 3), stride=(1, 1), padding=(1, 1), bias=False)
      )
      (lrelu): LeakyReLU(negative_slope=0.01, inplace=True)
      (norm1): InstanceNorm2d(192, eps=1e-05, momentum=0.1, affine=False, track_running_stats=False)
      (norm2): InstanceNorm2d(192, eps=1e-05, momentum=0.1, affine=False, track_running_stats=False)
      (conv3): Convolution(
        (conv): Conv2d(384, 192, kernel_size=(1, 1), stride=(1, 1), bias=False)
      )
      (norm3): InstanceNorm2d(192, eps=1e-05, momentum=0.1, affine=False, track_running_stats=False)
    )
  )
  (decoder4): UnetrUpBlock(
    (transp_conv): Convolution(
      (conv): ConvTranspose2d(192, 96, kernel_size=(2, 2), stride=(2, 2), bias=False)
    )
    (conv_block): UnetResBlock(
      (conv1): Convolution(
        (conv): Conv2d(192, 96, kernel_size=(3, 3), stride=(1, 1), padding=(1, 1), bias=False)
      )
      (conv2): Convolution(
        (conv): Conv2d(96, 96, kernel_size=(3, 3), stride=(1, 1), padding=(1, 1), bias=False)
      )
      (lrelu): LeakyReLU(negative_slope=0.01, inplace=True)
      (norm1): InstanceNorm2d(96, eps=1e-05, momentum=0.1, affine=False, track_running_stats=False)
      (norm2): InstanceNorm2d(96, eps=1e-05, momentum=0.1, affine=False, track_running_stats=False)
      (conv3): Convolution(
        (conv): Conv2d(192, 96, kernel_size=(1, 1), stride=(1, 1), bias=False)
      )
      (norm3): InstanceNorm2d(96, eps=1e-05, momentum=0.1, affine=False, track_running_stats=False)
    )
  )
  (decoder3): UnetrUpBlock(
    (transp_conv): Convolution(
      (conv): ConvTranspose2d(96, 48, kernel_size=(2, 2), stride=(2, 2), bias=False)
    )
    (conv_block): UnetResBlock(
      (conv1): Convolution(
        (conv): Conv2d(96, 48, kernel_size=(3, 3), stride=(1, 1), padding=(1, 1), bias=False)
      )
      (conv2): Convolution(
        (conv): Conv2d(48, 48, kernel_size=(3, 3), stride=(1, 1), padding=(1, 1), bias=False)
      )
      (lrelu): LeakyReLU(negative_slope=0.01, inplace=True)
      (norm1): InstanceNorm2d(48, eps=1e-05, momentum=0.1, affine=False, track_running_stats=False)
      (norm2): InstanceNorm2d(48, eps=1e-05, momentum=0.1, affine=False, track_running_stats=False)
      (conv3): Convolution(
        (conv): Conv2d(96, 48, kernel_size=(1, 1), stride=(1, 1), bias=False)
      )
      (norm3): InstanceNorm2d(48, eps=1e-05, momentum=0.1, affine=False, track_running_stats=False)
    )
  )
  (decoder2): UnetrUpBlock(
    (transp_conv): Convolution(
      (conv): ConvTranspose2d(48, 24, kernel_size=(2, 2), stride=(2, 2), bias=False)
    )
    (conv_block): UnetResBlock(
      (conv1): Convolution(
        (conv): Conv2d(48, 24, kernel_size=(3, 3), stride=(1, 1), padding=(1, 1), bias=False)
      )
      (conv2): Convolution(
        (conv): Conv2d(24, 24, kernel_size=(3, 3), stride=(1, 1), padding=(1, 1), bias=False)
      )
      (lrelu): LeakyReLU(negative_slope=0.01, inplace=True)
      (norm1): InstanceNorm2d(24, eps=1e-05, momentum=0.1, affine=False, track_running_stats=False)
      (norm2): InstanceNorm2d(24, eps=1e-05, momentum=0.1, affine=False, track_running_stats=False)
      (conv3): Convolution(
        (conv): Conv2d(48, 24, kernel_size=(1, 1), stride=(1, 1), bias=False)
      )
      (norm3): InstanceNorm2d(24, eps=1e-05, momentum=0.1, affine=False, track_running_stats=False)
    )
  )
  (decoder1): UnetrUpBlock(
    (transp_conv): Convolution(
      (conv): ConvTranspose2d(24, 24, kernel_size=(2, 2), stride=(2, 2), bias=False)
    )
    (conv_block): UnetResBlock(
      (conv1): Convolution(
        (conv): Conv2d(48, 24, kernel_size=(3, 3), stride=(1, 1), padding=(1, 1), bias=False)
      )
      (conv2): Convolution(
        (conv): Conv2d(24, 24, kernel_size=(3, 3), stride=(1, 1), padding=(1, 1), bias=False)
      )
      (lrelu): LeakyReLU(negative_slope=0.01, inplace=True)
      (norm1): InstanceNorm2d(24, eps=1e-05, momentum=0.1, affine=False, track_running_stats=False)
      (norm2): InstanceNorm2d(24, eps=1e-05, momentum=0.1, affine=False, track_running_stats=False)
      (conv3): Convolution(
        (conv): Conv2d(48, 24, kernel_size=(1, 1), stride=(1, 1), bias=False)
      )
      (norm3): InstanceNorm2d(24, eps=1e-05, momentum=0.1, affine=False, track_running_stats=False)
    )
  )
  (out): UnetOutBlock(
    (conv): Convolution(
      (conv): Conv2d(24, 1, kernel_size=(1, 1), stride=(1, 1))
    )
  )
)
2024-03-26 01:50:47,128 Brain Segmentation INFO: ----------------------------------------------------------------------------------------------------
2024-03-26 01:51:08,252 Brain Segmentation INFO: model was saved, epoch 0 is the best.
2024-03-26 01:51:08,253 Brain Segmentation INFO: 
====================
Epoch: 0
train loss: 0.9547391554404949
…
