…
 eval_batch_size=1
 image_dir='/mnt/strokeapp/Datasets/Seg_ctmri'
 input='real_mri'
 lr=0.001
 mask_dir='/mnt/strokeapp/Datasets/Seg_mask'
 model_name='flexible_unet'
 name='flexible_unet_real_mri'
 output_dir='output/flexible_unet_real_mri'
 roi=(96
 96)
 seed=123
 spatial_size=(96
 96
 96)
 sw_batch=4
 synthesize_model='resvit'
 test_batch_size=4
 train_batch_size=16
 weight_decay=0.0001)
2024-03-12 22:13:24,224 Brain Segmentation INFO: ----------------------------------------------------------------------------------------------------
FlexibleUNet(
  (encoder): EfficientNetEncoder(
    (_conv_stem): Conv2d(1, 72, kernel_size=(3, 3), stride=(2, 2), bias=False)
    (_conv_stem_padding): ConstantPad2d(padding=(0, 1, 0, 1), value=0.0)
    (_bn0): BatchNorm2d(72, eps=0.001, momentum=0.01, affine=True, track_running_stats=True)
    (_blocks): Sequential(
      (0): Sequential(
        (0): MBConvBlock(
          (_expand_conv): Identity()
          (_expand_conv_padding): Identity()
          (_bn0): Identity()
          (_depthwise_conv): Conv2d(72, 72, kernel_size=(3, 3), stride=(1, 1), groups=72, bias=False)
          (_depthwise_conv_padding): ConstantPad2d(padding=(1, 1, 1, 1), value=0.0)
          (_bn1): BatchNorm2d(72, eps=0.001, momentum=0.01, affine=True, track_running_stats=True)
          (_se_adaptpool): AdaptiveAvgPool2d(output_size=1)
          (_se_reduce): Conv2d(72, 18, kernel_size=(1, 1), stride=(1, 1))
          (_se_reduce_padding): Identity()
          (_se_expand): Conv2d(18, 72, kernel_size=(1, 1), stride=(1, 1))
          (_se_expand_padding): Identity()
          (_project_conv): Conv2d(72, 32, kernel_size=(1, 1), stride=(1, 1), bias=False)
          (_project_conv_padding): Identity()
          (_bn2): BatchNorm2d(32, eps=0.001, momentum=0.01, affine=True, track_running_stats=True)
          (_swish): MemoryEfficientSwish()
        )
        (1): MBConvBlock(
          (_expand_conv): Identity()
          (_expand_conv_padding): Identity()
          (_bn0): Identity()
          (_depthwise_conv): Conv2d(32, 32, kernel_size=(3, 3), stride=(1, 1), groups=32, bias=False)
          (_depthwise_conv_padding): ConstantPad2d(padding=(1, 1, 1, 1), value=0.0)
          (_bn1): BatchNorm2d(32, eps=0.001, momentum=0.01, affine=True, track_running_stats=True)
          (_se_adaptpool): AdaptiveAvgPool2d(output_size=1)
          (_se_reduce): Conv2d(32, 8, kernel_size=(1, 1), stride=(1, 1))
          (_se_reduce_padding): Identity()
          (_se_expand): Conv2d(8, 32, kernel_size=(1, 1), stride=(1, 1))
          (_se_expand_padding): Identity()
          (_project_conv): Conv2d(32, 32, kernel_size=(1, 1), stride=(1, 1), bias=False)
          (_project_conv_padding): Identity()
          (_bn2): BatchNorm2d(32, eps=0.001, momentum=0.01, affine=True, track_running_stats=True)
          (_swish): MemoryEfficientSwish()
        )
        (2): MBConvBlock(
          (_expand_conv): Identity()
          (_expand_conv_padding): Identity()
          (_bn0): Identity()
          (_depthwise_conv): Conv2d(32, 32, kernel_size=(3, 3), stride=(1, 1), groups=32, bias=False)
          (_depthwise_conv_padding): ConstantPad2d(padding=(1, 1, 1, 1), value=0.0)
          (_bn1): BatchNorm2d(32, eps=0.001, momentum=0.01, affine=True, track_running_stats=True)
          (_se_adaptpool): AdaptiveAvgPool2d(output_size=1)
          (_se_reduce): Conv2d(32, 8, kernel_size=(1, 1), stride=(1, 1))
          (_se_reduce_padding): Identity()
          (_se_expand): Conv2d(8, 32, kernel_size=(1, 1), stride=(1, 1))
          (_se_expand_padding): Identity()
          (_project_conv): Conv2d(32, 32, kernel_size=(1, 1), stride=(1, 1), bias=False)
          (_project_conv_padding): Identity()
          (_bn2): BatchNorm2d(32, eps=0.001, momentum=0.01, affine=True, track_running_stats=True)
          (_swish): MemoryEfficientSwish()
        )
        (3): MBConvBlock(
          (_expand_conv): Identity()
          (_expand_conv_padding): Identity()
          (_bn0): Identity()
          (_depthwise_conv): Conv2d(32, 32, kernel_size=(3, 3), stride=(1, 1), groups=32, bias=False)
          (_depthwise_conv_padding): ConstantPad2d(padding=(1, 1, 1, 1), value=0.0)
          (_bn1): BatchNorm2d(32, eps=0.001, momentum=0.01, affine=True, track_running_stats=True)
          (_se_adaptpool): AdaptiveAvgPool2d(output_size=1)
          (_se_reduce): Conv2d(32, 8, kernel_size=(1, 1), stride=(1, 1))
          (_se_reduce_padding): Identity()
          (_se_expand): Conv2d(8, 32, kernel_size=(1, 1), stride=(1, 1))
          (_se_expand_padding): Identity()
          (_project_conv): Conv2d(32, 32, kernel_size=(1, 1), stride=(1, 1), bias=False)
          (_project_conv_padding): Identity()
          (_bn2): BatchNorm2d(32, eps=0.001, momentum=0.01, affine=True, track_running_stats=True)
          (_swish): MemoryEfficientSwish()
        )
      )
      (1): Sequential(
        (4): MBConvBlock(
          (_expand_conv): Conv2d(32, 192, kernel_size=(1, 1), stride=(1, 1), bias=False)
          (_expand_conv_padding): Identity()
          (_bn0): BatchNorm2d(192, eps=0.001, momentum=0.01, affine=True, track_running_stats=True)
          (_depthwise_conv): Conv2d(192, 192, kernel_size=(3, 3), stride=(2, 2), groups=192, bias=False)
          (_depthwise_conv_padding): ConstantPad2d(padding=(0, 1, 0, 1), value=0.0)
          (_bn1): BatchNorm2d(192, eps=0.001, momentum=0.01, affine=True, track_running_stats=True)
          (_se_adaptpool): AdaptiveAvgPool2d(output_size=1)
          (_se_reduce): Conv2d(192, 8, kernel_size=(1, 1), stride=(1, 1))
          (_se_reduce_padding): Identity()
          (_se_expand): Conv2d(8, 192, kernel_size=(1, 1), stride=(1, 1))
          (_se_expand_padding): Identity()
          (_project_conv): Conv2d(192, 56, kernel_size=(1, 1), stride=(1, 1), bias=False)
          (_project_conv_padding): Identity()
          (_bn2): BatchNorm2d(56, eps=0.001, momentum=0.01, affine=True, track_running_stats=True)
          (_swish): MemoryEfficientSwish()
        )
        (5): MBConvBlock(
          (_expand_conv): Conv2d(56, 336, kernel_size=(1, 1), stride=(1, 1), bias=False)
          (_expand_conv_padding): Identity()
          (_bn0): BatchNorm2d(336, eps=0.001, momentum=0.01, affine=True, track_running_stats=True)
          (_depthwise_conv): Conv2d(336, 336, kernel_size=(3, 3), stride=(1, 1), groups=336, bias=False)
          (_depthwise_conv_padding): ConstantPad2d(padding=(1, 1, 1, 1), value=0.0)
          (_bn1): BatchNorm2d(336, eps=0.001, momentum=0.01, affine=True, track_running_stats=True)
          (_se_adaptpool): AdaptiveAvgPool2d(output_size=1)
          (_se_reduce): Conv2d(336, 14, kernel_size=(1, 1), stride=(1, 1))
          (_se_reduce_padding): Identity()
          (_se_expand): Conv2d(14, 336, kernel_size=(1, 1), stride=(1, 1))
          (_se_expand_padding): Identity()
          (_project_conv): Conv2d(336, 56, kernel_size=(1, 1), stride=(1, 1), bias=False)
          (_project_conv_padding): Identity()
          (_bn2): BatchNorm2d(56, eps=0.001, momentum=0.01, affine=True, track_running_stats=True)
          (_swish): MemoryEfficientSwish()
        )
        (6): MBConvBlock(
          (_expand_conv): Conv2d(56, 336, kernel_size=(1, 1), stride=(1, 1), bias=False)
          (_expand_conv_padding): Identity()
          (_bn0): BatchNorm2d(336, eps=0.001, momentum=0.01, affine=True, track_running_stats=True)
          (_depthwise_conv): Conv2d(336, 336, kernel_size=(3, 3), stride=(1, 1), groups=336, bias=False)
          (_depthwise_conv_padding): ConstantPad2d(padding=(1, 1, 1, 1), value=0.0)
          (_bn1): BatchNorm2d(336, eps=0.001, momentum=0.01, affine=True, track_running_stats=True)
          (_se_adaptpool): AdaptiveAvgPool2d(output_size=1)
          (_se_reduce): Conv2d(336, 14, kernel_size=(1, 1), stride=(1, 1))
          (_se_reduce_padding): Identity()
          (_se_expand): Conv2d(14, 336, kernel_size=(1, 1), stride=(1, 1))
          (_se_expand_padding): Identity()
          (_project_conv): Conv2d(336, 56, kernel_size=(1, 1), stride=(1, 1), bias=False)
          (_project_conv_padding): Identity()
          (_bn2): BatchNorm2d(56, eps=0.001, momentum=0.01, affine=True, track_running_stats=True)
          (_swish): MemoryEfficientSwish()
        )
        (7): MBConvBlock(
          (_expand_conv): Conv2d(56, 336, kernel_size=(1, 1), stride=(1, 1), bias=False)
          (_expand_conv_padding): Identity()
          (_bn0): BatchNorm2d(336, eps=0.001, momentum=0.01, affine=True, track_running_stats=True)
          (_depthwise_conv): Conv2d(336, 336, kernel_size=(3, 3), stride=(1, 1), groups=336, bias=False)
          (_depthwise_conv_padding): ConstantPad2d(padding=(1, 1, 1, 1), value=0.0)
          (_bn1): BatchNorm2d(336, eps=0.001, momentum=0.01, affine=True, track_running_stats=True)
          (_se_adaptpool): AdaptiveAvgPool2d(output_size=1)
          (_se_reduce): Conv2d(336, 14, kernel_size=(1, 1), stride=(1, 1))
          (_se_reduce_padding): Identity()
          (_se_expand): Conv2d(14, 336, kernel_size=(1, 1), stride=(1, 1))
          (_se_expand_padding): Identity()
          (_project_conv): Conv2d(336, 56, kernel_size=(1, 1), stride=(1, 1), bias=False)
          (_project_conv_padding): Identity()
          (_bn2): BatchNorm2d(56, eps=0.001, momentum=0.01, affine=True, track_running_stats=True)
          (_swish): MemoryEfficientSwish()
        )
        (8): MBConvBlock(
          (_expand_conv): Conv2d(56, 336, kernel_size=(1, 1), stride=(1, 1), bias=False)
          (_expand_conv_padding): Identity()
          (_bn0): BatchNorm2d(336, eps=0.001, momentum=0.01, affine=True, track_running_stats=True)
          (_depthwise_conv): Conv2d(336, 336, kernel_size=(3, 3), stride=(1, 1), groups=336, bias=False)
          (_depthwise_conv_padding): ConstantPad2d(padding=(1, 1, 1, 1), value=0.0)
          (_bn1): BatchNorm2d(336, eps=0.001, momentum=0.01, affine=True, track_running_stats=True)
          (_se_adaptpool): AdaptiveAvgPool2d(output_size=1)
          (_se_reduce): Conv2d(336, 14, kernel_size=(1, 1), stride=(1, 1))
          (_se_reduce_padding): Identity()
          (_se_expand): Conv2d(14, 336, kernel_size=(1, 1), stride=(1, 1))
          (_se_expand_padding): Identity()
          (_project_conv): Conv2d(336, 56, kernel_size=(1, 1), stride=(1, 1), bias=False)
          (_project_conv_padding): Identity()
          (_bn2): BatchNorm2d(56, eps=0.001, momentum=0.01, affine=True, track_running_stats=True)
          (_swish): MemoryEfficientSwish()
        )
        (9): MBConvBlock(
          (_expand_conv): Conv2d(56, 336, kernel_size=(1, 1), stride=(1, 1), bias=False)
          (_expand_conv_padding): Identity()
          (_bn0): BatchNorm2d(336, eps=0.001, momentum=0.01, affine=True, track_running_stats=True)
          (_depthwise_conv): Conv2d(336, 336, kernel_size=(3, 3), stride=(1, 1), groups=336, bias=False)
          (_depthwise_conv_padding): ConstantPad2d(padding=(1, 1, 1, 1), value=0.0)
          (_bn1): BatchNorm2d(336, eps=0.001, momentum=0.01, affine=True, track_running_stats=True)
          (_se_adaptpool): AdaptiveAvgPool2d(output_size=1)
          (_se_reduce): Conv2d(336, 14, kernel_size=(1, 1), stride=(1, 1))
          (_se_reduce_padding): Identity()
          (_se_expand): Conv2d(14, 336, kernel_size=(1, 1), stride=(1, 1))
          (_se_expand_padding): Identity()
          (_project_conv): Conv2d(336, 56, kernel_size=(1, 1), stride=(1, 1), bias=False)
          (_project_conv_padding): Identity()
          (_bn2): BatchNorm2d(56, eps=0.001, momentum=0.01, affine=True, track_running_stats=True)
          (_swish): MemoryEfficientSwish()
        )
        (10): MBConvBlock(
          (_expand_conv): Conv2d(56, 336, kernel_size=(1, 1), stride=(1, 1), bias=False)
          (_expand_conv_padding): Identity()
          (_bn0): BatchNorm2d(336, eps=0.001, momentum=0.01, affine=True, track_running_stats=True)
          (_depthwise_conv): Conv2d(336, 336, kernel_size=(3, 3), stride=(1, 1), groups=336, bias=False)
          (_depthwise_conv_padding): ConstantPad2d(padding=(1, 1, 1, 1), value=0.0)
          (_bn1): BatchNorm2d(336, eps=0.001, momentum=0.01, affine=True, track_running_stats=True)
          (_se_adaptpool): AdaptiveAvgPool2d(output_size=1)
          (_se_reduce): Conv2d(336, 14, kernel_size=(1, 1), stride=(1, 1))
          (_se_reduce_padding): Identity()
          (_se_expand): Conv2d(14, 336, kernel_size=(1, 1), stride=(1, 1))
          (_se_expand_padding): Identity()
          (_project_conv): Conv2d(336, 56, kernel_size=(1, 1), stride=(1, 1), bias=False)
          (_project_conv_padding): Identity()
          (_bn2): BatchNorm2d(56, eps=0.001, momentum=0.01, affine=True, track_running_stats=True)
          (_swish): MemoryEfficientSwish()
        )
        (11): MBConvBlock(
          (_expand_conv): Conv2d(56, 336, kernel_size=(1, 1), stride=(1, 1), bias=False)
          (_expand_conv_padding): Identity()
          (_bn0): BatchNorm2d(336, eps=0.001, momentum=0.01, affine=True, track_running_stats=True)
          (_depthwise_conv): Conv2d(336, 336, kernel_size=(3, 3), stride=(1, 1), groups=336, bias=False)
          (_depthwise_conv_padding): ConstantPad2d(padding=(1, 1, 1, 1), value=0.0)
          (_bn1): BatchNorm2d(336, eps=0.001, momentum=0.01, affine=True, track_running_stats=True)
          (_se_adaptpool): AdaptiveAvgPool2d(output_size=1)
          (_se_reduce): Conv2d(336, 14, kernel_size=(1, 1), stride=(1, 1))
          (_se_reduce_padding): Identity()
          (_se_expand): Conv2d(14, 336, kernel_size=(1, 1), stride=(1, 1))
          (_se_expand_padding): Identity()
          (_project_conv): Conv2d(336, 56, kernel_size=(1, 1), stride=(1, 1), bias=False)
          (_project_conv_padding): Identity()
          (_bn2): BatchNorm2d(56, eps=0.001, momentum=0.01, affine=True, track_running_stats=True)
          (_swish): MemoryEfficientSwish()
        )
      )
      (2): Sequential(
        (12): MBConvBlock(
          (_expand_conv): Conv2d(56, 336, kernel_size=(1, 1), stride=(1, 1), bias=False)
          (_expand_conv_padding): Identity()
          (_bn0): BatchNorm2d(336, eps=0.001, momentum=0.01, affine=True, track_running_stats=True)
          (_depthwise_conv): Conv2d(336, 336, kernel_size=(5, 5), stride=(2, 2), groups=336, bias=False)
          (_depthwise_conv_padding): ConstantPad2d(padding=(1, 2, 1, 2), value=0.0)
          (_bn1): BatchNorm2d(336, eps=0.001, momentum=0.01, affine=True, track_running_stats=True)
          (_se_adaptpool): AdaptiveAvgPool2d(output_size=1)
          (_se_reduce): Conv2d(336, 14, kernel_size=(1, 1), stride=(1, 1))
          (_se_reduce_padding): Identity()
          (_se_expand): Conv2d(14, 336, kernel_size=(1, 1), stride=(1, 1))
          (_se_expand_padding): Identity()
          (_project_conv): Conv2d(336, 88, kernel_size=(1, 1), stride=(1, 1), bias=False)
          (_project_conv_padding): Identity()
          (_bn2): BatchNorm2d(88, eps=0.001, momentum=0.01, affine=True, track_running_stats=True)
          (_swish): MemoryEfficientSwish()
        )
        (13): MBConvBlock(
          (_expand_conv): Conv2d(88, 528, kernel_size=(1, 1), stride=(1, 1), bias=False)
          (_expand_conv_padding): Identity()
          (_bn0): BatchNorm2d(528, eps=0.001, momentum=0.01, affine=True, track_running_stats=True)
          (_depthwise_conv): Conv2d(528, 528, kernel_size=(5, 5), stride=(1, 1), groups=528, bias=False)
          (_depthwise_conv_padding): ConstantPad2d(padding=(2, 2, 2, 2), value=0.0)
          (_bn1): BatchNorm2d(528, eps=0.001, momentum=0.01, affine=True, track_running_stats=True)
          (_se_adaptpool): AdaptiveAvgPool2d(output_size=1)
          (_se_reduce): Conv2d(528, 22, kernel_size=(1, 1), stride=(1, 1))
          (_se_reduce_padding): Identity()
          (_se_expand): Conv2d(22, 528, kernel_size=(1, 1), stride=(1, 1))
          (_se_expand_padding): Identity()
          (_project_conv): Conv2d(528, 88, kernel_size=(1, 1), stride=(1, 1), bias=False)
          (_project_conv_padding): Identity()
          (_bn2): BatchNorm2d(88, eps=0.001, momentum=0.01, affine=True, track_running_stats=True)
          (_swish): MemoryEfficientSwish()
        )
        (14): MBConvBlock(
          (_expand_conv): Conv2d(88, 528, kernel_size=(1, 1), stride=(1, 1), bias=False)
          (_expand_conv_padding): Identity()
          (_bn0): BatchNorm2d(528, eps=0.001, momentum=0.01, affine=True, track_running_stats=True)
          (_depthwise_conv): Conv2d(528, 528, kernel_size=(5, 5), stride=(1, 1), groups=528, bias=False)
          (_depthwise_conv_padding): ConstantPad2d(padding=(2, 2, 2, 2), value=0.0)
          (_bn1): BatchNorm2d(528, eps=0.001, momentum=0.01, affine=True, track_running_stats=True)
          (_se_adaptpool): AdaptiveAvgPool2d(output_size=1)
          (_se_reduce): Conv2d(528, 22, kernel_size=(1, 1), stride=(1, 1))
          (_se_reduce_padding): Identity()
          (_se_expand): Conv2d(22, 528, kernel_size=(1, 1), stride=(1, 1))
          (_se_expand_padding): Identity()
          (_project_conv): Conv2d(528, 88, kernel_size=(1, 1), stride=(1, 1), bias=False)
          (_project_conv_padding): Identity()
          (_bn2): BatchNorm2d(88, eps=0.001, momentum=0.01, affine=True, track_running_stats=True)
          (_swish): MemoryEfficientSwish()
        )
        (15): MBConvBlock(
          (_expand_conv): Conv2d(88, 528, kernel_size=(1, 1), stride=(1, 1), bias=False)
          (_expand_conv_padding): Identity()
          (_bn0): BatchNorm2d(528, eps=0.001, momentum=0.01, affine=True, track_running_stats=True)
          (_depthwise_conv): Conv2d(528, 528, kernel_size=(5, 5), stride=(1, 1), groups=528, bias=False)
          (_depthwise_conv_padding): ConstantPad2d(padding=(2, 2, 2, 2), value=0.0)
          (_bn1): BatchNorm2d(528, eps=0.001, momentum=0.01, affine=True, track_running_stats=True)
          (_se_adaptpool): AdaptiveAvgPool2d(output_size=1)
          (_se_reduce): Conv2d(528, 22, kernel_size=(1, 1), stride=(1, 1))
          (_se_reduce_padding): Identity()
          (_se_expand): Conv2d(22, 528, kernel_size=(1, 1), stride=(1, 1))
          (_se_expand_padding): Identity()
          (_project_conv): Conv2d(528, 88, kernel_size=(1, 1), stride=(1, 1), bias=False)
          (_project_conv_padding): Identity()
          (_bn2): BatchNorm2d(88, eps=0.001, momentum=0.01, affine=True, track_running_stats=True)
          (_swish): MemoryEfficientSwish()
        )
        (16): MBConvBlock(
          (_expand_conv): Conv2d(88, 528, kernel_size=(1, 1), stride=(1, 1), bias=False)
          (_expand_conv_padding): Identity()
          (_bn0): BatchNorm2d(528, eps=0.001, momentum=0.01, affine=True, track_running_stats=True)
          (_depthwise_conv): Conv2d(528, 528, kernel_size=(5, 5), stride=(1, 1), groups=528, bias=False)
          (_depthwise_conv_padding): ConstantPad2d(padding=(2, 2, 2, 2), value=0.0)
          (_bn1): BatchNorm2d(528, eps=0.001, momentum=0.01, affine=True, track_running_stats=True)
          (_se_adaptpool): AdaptiveAvgPool2d(output_size=1)
          (_se_reduce): Conv2d(528, 22, kernel_size=(1, 1), stride=(1, 1))
          (_se_reduce_padding): Identity()
          (_se_expand): Conv2d(22, 528, kernel_size=(1, 1), stride=(1, 1))
          (_se_expand_padding): Identity()
          (_project_conv): Conv2d(528, 88, kernel_size=(1, 1), stride=(1, 1), bias=False)
          (_project_conv_padding): Identity()
          (_bn2): BatchNorm2d(88, eps=0.001, momentum=0.01, affine=True, track_running_stats=True)
          (_swish): MemoryEfficientSwish()
        )
        (17): MBConvBlock(
          (_expand_conv): Conv2d(88, 528, kernel_size=(1, 1), stride=(1, 1), bias=False)
          (_expand_conv_padding): Identity()
          (_bn0): BatchNorm2d(528, eps=0.001, momentum=0.01, affine=True, track_running_stats=True)
          (_depthwise_conv): Conv2d(528, 528, kernel_size=(5, 5), stride=(1, 1), groups=528, bias=False)
          (_depthwise_conv_padding): ConstantPad2d(padding=(2, 2, 2, 2), value=0.0)
          (_bn1): BatchNorm2d(528, eps=0.001, momentum=0.01, affine=True, track_running_stats=True)
          (_se_adaptpool): AdaptiveAvgPool2d(output_size=1)
          (_se_reduce): Conv2d(528, 22, kernel_size=(1, 1), stride=(1, 1))
          (_se_reduce_padding): Identity()
          (_se_expand): Conv2d(22, 528, kernel_size=(1, 1), stride=(1, 1))
          (_se_expand_padding): Identity()
          (_project_conv): Conv2d(528, 88, kernel_size=(1, 1), stride=(1, 1), bias=False)
          (_project_conv_padding): Identity()
          (_bn2): BatchNorm2d(88, eps=0.001, momentum=0.01, affine=True, track_running_stats=True)
          (_swish): MemoryEfficientSwish()
        )
        (18): MBConvBlock(
          (_expand_conv): Conv2d(88, 528, kernel_size=(1, 1), stride=(1, 1), bias=False)
          (_expand_conv_padding): Identity()
          (_bn0): BatchNorm2d(528, eps=0.001, momentum=0.01, affine=True, track_running_stats=True)
          (_depthwise_conv): Conv2d(528, 528, kernel_size=(5, 5), stride=(1, 1), groups=528, bias=False)
          (_depthwise_conv_padding): ConstantPad2d(padding=(2, 2, 2, 2), value=0.0)
          (_bn1): BatchNorm2d(528, eps=0.001, momentum=0.01, affine=True, track_running_stats=True)
          (_se_adaptpool): AdaptiveAvgPool2d(output_size=1)
          (_se_reduce): Conv2d(528, 22, kernel_size=(1, 1), stride=(1, 1))
          (_se_reduce_padding): Identity()
          (_se_expand): Conv2d(22, 528, kernel_size=(1, 1), stride=(1, 1))
          (_se_expand_padding): Identity()
          (_project_conv): Conv2d(528, 88, kernel_size=(1, 1), stride=(1, 1), bias=False)
          (_project_conv_padding): Identity()
          (_bn2): BatchNorm2d(88, eps=0.001, momentum=0.01, affine=True, track_running_stats=True)
          (_swish): MemoryEfficientSwish()
        )
        (19): MBConvBlock(
          (_expand_conv): Conv2d(88, 528, kernel_size=(1, 1), stride=(1, 1), bias=False)
          (_expand_conv_padding): Identity()
          (_bn0): BatchNorm2d(528, eps=0.001, momentum=0.01, affine=True, track_running_stats=True)
          (_depthwise_conv): Conv2d(528, 528, kernel_size=(5, 5), stride=(1, 1), groups=528, bias=False)
          (_depthwise_conv_padding): ConstantPad2d(padding=(2, 2, 2, 2), value=0.0)
          (_bn1): BatchNorm2d(528, eps=0.001, momentum=0.01, affine=True, track_running_stats=True)
          (_se_adaptpool): AdaptiveAvgPool2d(output_size=1)
          (_se_reduce): Conv2d(528, 22, kernel_size=(1, 1), stride=(1, 1))
          (_se_reduce_padding): Identity()
          (_se_expand): Conv2d(22, 528, kernel_size=(1, 1), stride=(1, 1))
          (_se_expand_padding): Identity()
          (_project_conv): Conv2d(528, 88, kernel_size=(1, 1), stride=(1, 1), bias=False)
          (_project_conv_padding): Identity()
          (_bn2): BatchNorm2d(88, eps=0.001, momentum=0.01, affine=True, track_running_stats=True)
          (_swish): MemoryEfficientSwish()
        )
      )
      (3): Sequential(
        (20): MBConvBlock(
          (_expand_conv): Conv2d(88, 528, kernel_size=(1, 1), stride=(1, 1), bias=False)
          (_expand_conv_padding): Identity()
          (_bn0): BatchNorm2d(528, eps=0.001, momentum=0.01, affine=True, track_running_stats=True)
          (_depthwise_conv): Conv2d(528, 528, kernel_size=(3, 3), stride=(2, 2), groups=528, bias=False)
          (_depthwise_conv_padding): ConstantPad2d(padding=(0, 1, 0, 1), value=0.0)
          (_bn1): BatchNorm2d(528, eps=0.001, momentum=0.01, affine=True, track_running_stats=True)
          (_se_adaptpool): AdaptiveAvgPool2d(output_size=1)
          (_se_reduce): Conv2d(528, 22, kernel_size=(1, 1), stride=(1, 1))
          (_se_reduce_padding): Identity()
          (_se_expand): Conv2d(22, 528, kernel_size=(1, 1), stride=(1, 1))
          (_se_expand_padding): Identity()
          (_project_conv): Conv2d(528, 176, kernel_size=(1, 1), stride=(1, 1), bias=False)
          (_project_conv_padding): Identity()
          (_bn2): BatchNorm2d(176, eps=0.001, momentum=0.01, affine=True, track_running_stats=True)
          (_swish): MemoryEfficientSwish()
        )
        (21): MBConvBlock(
          (_expand_conv): Conv2d(176, 1056, kernel_size=(1, 1), stride=(1, 1), bias=False)
          (_expand_conv_padding): Identity()
          (_bn0): BatchNorm2d(1056, eps=0.001, momentum=0.01, affine=True, track_running_stats=True)
          (_depthwise_conv): Conv2d(1056, 1056, kernel_size=(3, 3), stride=(1, 1), groups=1056, bias=False)
          (_depthwise_conv_padding): ConstantPad2d(padding=(1, 1, 1, 1), value=0.0)
          (_bn1): BatchNorm2d(1056, eps=0.001, momentum=0.01, affine=True, track_running_stats=True)
          (_se_adaptpool): AdaptiveAvgPool2d(output_size=1)
          (_se_reduce): Conv2d(1056, 44, kernel_size=(1, 1), stride=(1, 1))
          (_se_reduce_padding): Identity()
          (_se_expand): Conv2d(44, 1056, kernel_size=(1, 1), stride=(1, 1))
          (_se_expand_padding): Identity()
          (_project_conv): Conv2d(1056, 176, kernel_size=(1, 1), stride=(1, 1), bias=False)
          (_project_conv_padding): Identity()
          (_bn2): BatchNorm2d(176, eps=0.001, momentum=0.01, affine=True, track_running_stats=True)
          (_swish): MemoryEfficientSwish()
        )
        (22): MBConvBlock(
          (_expand_conv): Conv2d(176, 1056, kernel_size=(1, 1), stride=(1, 1), bias=False)
          (_expand_conv_padding): Identity()
          (_bn0): BatchNorm2d(1056, eps=0.001, momentum=0.01, affine=True, track_running_stats=True)
          (_depthwise_conv): Conv2d(1056, 1056, kernel_size=(3, 3), stride=(1, 1), groups=1056, bias=False)
          (_depthwise_conv_padding): ConstantPad2d(padding=(1, 1, 1, 1), value=0.0)
          (_bn1): BatchNorm2d(1056, eps=0.001, momentum=0.01, affine=True, track_running_stats=True)
          (_se_adaptpool): AdaptiveAvgPool2d(output_size=1)
          (_se_reduce): Conv2d(1056, 44, kernel_size=(1, 1), stride=(1, 1))
          (_se_reduce_padding): Identity()
          (_se_expand): Conv2d(44, 1056, kernel_size=(1, 1), stride=(1, 1))
          (_se_expand_padding): Identity()
          (_project_conv): Conv2d(1056, 176, kernel_size=(1, 1), stride=(1, 1), bias=False)
          (_project_conv_padding): Identity()
          (_bn2): BatchNorm2d(176, eps=0.001, momentum=0.01, affine=True, track_running_stats=True)
          (_swish): MemoryEfficientSwish()
        )
        (23): MBConvBlock(
          (_expand_conv): Conv2d(176, 1056, kernel_size=(1, 1), stride=(1, 1), bias=False)
          (_expand_conv_padding): Identity()
          (_bn0): BatchNorm2d(1056, eps=0.001, momentum=0.01, affine=True, track_running_stats=True)
          (_depthwise_conv): Conv2d(1056, 1056, kernel_size=(3, 3), stride=(1, 1), groups=1056, bias=False)
          (_depthwise_conv_padding): ConstantPad2d(padding=(1, 1, 1, 1), value=0.0)
          (_bn1): BatchNorm2d(1056, eps=0.001, momentum=0.01, affine=True, track_running_stats=True)
          (_se_adaptpool): AdaptiveAvgPool2d(output_size=1)
          (_se_reduce): Conv2d(1056, 44, kernel_size=(1, 1), stride=(1, 1))
          (_se_reduce_padding): Identity()
          (_se_expand): Conv2d(44, 1056, kernel_size=(1, 1), stride=(1, 1))
          (_se_expand_padding): Identity()
          (_project_conv): Conv2d(1056, 176, kernel_size=(1, 1), stride=(1, 1), bias=False)
          (_project_conv_padding): Identity()
          (_bn2): BatchNorm2d(176, eps=0.001, momentum=0.01, affine=True, track_running_stats=True)
          (_swish): MemoryEfficientSwish()
        )
        (24): MBConvBlock(
          (_expand_conv): Conv2d(176, 1056, kernel_size=(1, 1), stride=(1, 1), bias=False)
          (_expand_conv_padding): Identity()
          (_bn0): BatchNorm2d(1056, eps=0.001, momentum=0.01, affine=True, track_running_stats=True)
          (_depthwise_conv): Conv2d(1056, 1056, kernel_size=(3, 3), stride=(1, 1), groups=1056, bias=False)
          (_depthwise_conv_padding): ConstantPad2d(padding=(1, 1, 1, 1), value=0.0)
          (_bn1): BatchNorm2d(1056, eps=0.001, momentum=0.01, affine=True, track_running_stats=True)
          (_se_adaptpool): AdaptiveAvgPool2d(output_size=1)
          (_se_reduce): Conv2d(1056, 44, kernel_size=(1, 1), stride=(1, 1))
          (_se_reduce_padding): Identity()
          (_se_expand): Conv2d(44, 1056, kernel_size=(1, 1), stride=(1, 1))
          (_se_expand_padding): Identity()
          (_project_conv): Conv2d(1056, 176, kernel_size=(1, 1), stride=(1, 1), bias=False)
          (_project_conv_padding): Identity()
          (_bn2): BatchNorm2d(176, eps=0.001, momentum=0.01, affine=True, track_running_stats=True)
          (_swish): MemoryEfficientSwish()
        )
        (25): MBConvBlock(
          (_expand_conv): Conv2d(176, 1056, kernel_size=(1, 1), stride=(1, 1), bias=False)
          (_expand_conv_padding): Identity()
          (_bn0): BatchNorm2d(1056, eps=0.001, momentum=0.01, affine=True, track_running_stats=True)
          (_depthwise_conv): Conv2d(1056, 1056, kernel_size=(3, 3), stride=(1, 1), groups=1056, bias=False)
          (_depthwise_conv_padding): ConstantPad2d(padding=(1, 1, 1, 1), value=0.0)
          (_bn1): BatchNorm2d(1056, eps=0.001, momentum=0.01, affine=True, track_running_stats=True)
          (_se_adaptpool): AdaptiveAvgPool2d(output_size=1)
          (_se_reduce): Conv2d(1056, 44, kernel_size=(1, 1), stride=(1, 1))
          (_se_reduce_padding): Identity()
          (_se_expand): Conv2d(44, 1056, kernel_size=(1, 1), stride=(1, 1))
          (_se_expand_padding): Identity()
          (_project_conv): Conv2d(1056, 176, kernel_size=(1, 1), stride=(1, 1), bias=False)
          (_project_conv_padding): Identity()
          (_bn2): BatchNorm2d(176, eps=0.001, momentum=0.01, affine=True, track_running_stats=True)
          (_swish): MemoryEfficientSwish()
        )
        (26): MBConvBlock(
          (_expand_conv): Conv2d(176, 1056, kernel_size=(1, 1), stride=(1, 1), bias=False)
          (_expand_conv_padding): Identity()
          (_bn0): BatchNorm2d(1056, eps=0.001, momentum=0.01, affine=True, track_running_stats=True)
          (_depthwise_conv): Conv2d(1056, 1056, kernel_size=(3, 3), stride=(1, 1), groups=1056, bias=False)
          (_depthwise_conv_padding): ConstantPad2d(padding=(1, 1, 1, 1), value=0.0)
          (_bn1): BatchNorm2d(1056, eps=0.001, momentum=0.01, affine=True, track_running_stats=True)
          (_se_adaptpool): AdaptiveAvgPool2d(output_size=1)
          (_se_reduce): Conv2d(1056, 44, kernel_size=(1, 1), stride=(1, 1))
          (_se_reduce_padding): Identity()
          (_se_expand): Conv2d(44, 1056, kernel_size=(1, 1), stride=(1, 1))
          (_se_expand_padding): Identity()
          (_project_conv): Conv2d(1056, 176, kernel_size=(1, 1), stride=(1, 1), bias=False)
          (_project_conv_padding): Identity()
          (_bn2): BatchNorm2d(176, eps=0.001, momentum=0.01, affine=True, track_running_stats=True)
          (_swish): MemoryEfficientSwish()
        )
        (27): MBConvBlock(
          (_expand_conv): Conv2d(176, 1056, kernel_size=(1, 1), stride=(1, 1), bias=False)
          (_expand_conv_padding): Identity()
          (_bn0): BatchNorm2d(1056, eps=0.001, momentum=0.01, affine=True, track_running_stats=True)
          (_depthwise_conv): Conv2d(1056, 1056, kernel_size=(3, 3), stride=(1, 1), groups=1056, bias=False)
          (_depthwise_conv_padding): ConstantPad2d(padding=(1, 1, 1, 1), value=0.0)
          (_bn1): BatchNorm2d(1056, eps=0.001, momentum=0.01, affine=True, track_running_stats=True)
          (_se_adaptpool): AdaptiveAvgPool2d(output_size=1)
          (_se_reduce): Conv2d(1056, 44, kernel_size=(1, 1), stride=(1, 1))
          (_se_reduce_padding): Identity()
          (_se_expand): Conv2d(44, 1056, kernel_size=(1, 1), stride=(1, 1))
          (_se_expand_padding): Identity()
          (_project_conv): Conv2d(1056, 176, kernel_size=(1, 1), stride=(1, 1), bias=False)
          (_project_conv_padding): Identity()
          (_bn2): BatchNorm2d(176, eps=0.001, momentum=0.01, affine=True, track_running_stats=True)
          (_swish): MemoryEfficientSwish()
        )
        (28): MBConvBlock(
          (_expand_conv): Conv2d(176, 1056, kernel_size=(1, 1), stride=(1, 1), bias=False)
          (_expand_conv_padding): Identity()
          (_bn0): BatchNorm2d(1056, eps=0.001, momentum=0.01, affine=True, track_running_stats=True)
          (_depthwise_conv): Conv2d(1056, 1056, kernel_size=(3, 3), stride=(1, 1), groups=1056, bias=False)
          (_depthwise_conv_padding): ConstantPad2d(padding=(1, 1, 1, 1), value=0.0)
          (_bn1): BatchNorm2d(1056, eps=0.001, momentum=0.01, affine=True, track_running_stats=True)
          (_se_adaptpool): AdaptiveAvgPool2d(output_size=1)
          (_se_reduce): Conv2d(1056, 44, kernel_size=(1, 1), stride=(1, 1))
          (_se_reduce_padding): Identity()
          (_se_expand): Conv2d(44, 1056, kernel_size=(1, 1), stride=(1, 1))
          (_se_expand_padding): Identity()
          (_project_conv): Conv2d(1056, 176, kernel_size=(1, 1), stride=(1, 1), bias=False)
          (_project_conv_padding): Identity()
          (_bn2): BatchNorm2d(176, eps=0.001, momentum=0.01, affine=True, track_running_stats=True)
          (_swish): MemoryEfficientSwish()
        )
        (29): MBConvBlock(
          (_expand_conv): Conv2d(176, 1056, kernel_size=(1, 1), stride=(1, 1), bias=False)
          (_expand_conv_padding): Identity()
          (_bn0): BatchNorm2d(1056, eps=0.001, momentum=0.01, affine=True, track_running_stats=True)
          (_depthwise_conv): Conv2d(1056, 1056, kernel_size=(3, 3), stride=(1, 1), groups=1056, bias=False)
          (_depthwise_conv_padding): ConstantPad2d(padding=(1, 1, 1, 1), value=0.0)
          (_bn1): BatchNorm2d(1056, eps=0.001, momentum=0.01, affine=True, track_running_stats=True)
          (_se_adaptpool): AdaptiveAvgPool2d(output_size=1)
          (_se_reduce): Conv2d(1056, 44, kernel_size=(1, 1), stride=(1, 1))
          (_se_reduce_padding): Identity()
          (_se_expand): Conv2d(44, 1056, kernel_size=(1, 1), stride=(1, 1))
          (_se_expand_padding): Identity()
          (_project_conv): Conv2d(1056, 176, kernel_size=(1, 1), stride=(1, 1), bias=False)
          (_project_conv_padding): Identity()
          (_bn2): BatchNorm2d(176, eps=0.001, momentum=0.01, affine=True, track_running_stats=True)
          (_swish): MemoryEfficientSwish()
        )
        (30): MBConvBlock(
          (_expand_conv): Conv2d(176, 1056, kernel_size=(1, 1), stride=(1, 1), bias=False)
          (_expand_conv_padding): Identity()
          (_bn0): BatchNorm2d(1056, eps=0.001, momentum=0.01, affine=True, track_running_stats=True)
          (_depthwise_conv): Conv2d(1056, 1056, kernel_size=(3, 3), stride=(1, 1), groups=1056, bias=False)
          (_depthwise_conv_padding): ConstantPad2d(padding=(1, 1, 1, 1), value=0.0)
          (_bn1): BatchNorm2d(1056, eps=0.001, momentum=0.01, affine=True, track_running_stats=True)
          (_se_adaptpool): AdaptiveAvgPool2d(output_size=1)
          (_se_reduce): Conv2d(1056, 44, kernel_size=(1, 1), stride=(1, 1))
          (_se_reduce_padding): Identity()
          (_se_expand): Conv2d(44, 1056, kernel_size=(1, 1), stride=(1, 1))
          (_se_expand_padding): Identity()
          (_project_conv): Conv2d(1056, 176, kernel_size=(1, 1), stride=(1, 1), bias=False)
          (_project_conv_padding): Identity()
          (_bn2): BatchNorm2d(176, eps=0.001, momentum=0.01, affine=True, track_running_stats=True)
          (_swish): MemoryEfficientSwish()
        )
      )
      (4): Sequential(
        (31): MBConvBlock(
          (_expand_conv): Conv2d(176, 1056, kernel_size=(1, 1), stride=(1, 1), bias=False)
          (_expand_conv_padding): Identity()
          (_bn0): BatchNorm2d(1056, eps=0.001, momentum=0.01, affine=True, track_running_stats=True)
          (_depthwise_conv): Conv2d(1056, 1056, kernel_size=(5, 5), stride=(1, 1), groups=1056, bias=False)
          (_depthwise_conv_padding): ConstantPad2d(padding=(2, 2, 2, 2), value=0.0)
          (_bn1): BatchNorm2d(1056, eps=0.001, momentum=0.01, affine=True, track_running_stats=True)
          (_se_adaptpool): AdaptiveAvgPool2d(output_size=1)
          (_se_reduce): Conv2d(1056, 44, kernel_size=(1, 1), stride=(1, 1))
          (_se_reduce_padding): Identity()
          (_se_expand): Conv2d(44, 1056, kernel_size=(1, 1), stride=(1, 1))
          (_se_expand_padding): Identity()
          (_project_conv): Conv2d(1056, 248, kernel_size=(1, 1), stride=(1, 1), bias=False)
          (_project_conv_padding): Identity()
          (_bn2): BatchNorm2d(248, eps=0.001, momentum=0.01, affine=True, track_running_stats=True)
          (_swish): MemoryEfficientSwish()
        )
        (32): MBConvBlock(
          (_expand_conv): Conv2d(248, 1488, kernel_size=(1, 1), stride=(1, 1), bias=False)
          (_expand_conv_padding): Identity()
          (_bn0): BatchNorm2d(1488, eps=0.001, momentum=0.01, affine=True, track_running_stats=True)
          (_depthwise_conv): Conv2d(1488, 1488, kernel_size=(5, 5), stride=(1, 1), groups=1488, bias=False)
          (_depthwise_conv_padding): ConstantPad2d(padding=(2, 2, 2, 2), value=0.0)
          (_bn1): BatchNorm2d(1488, eps=0.001, momentum=0.01, affine=True, track_running_stats=True)
          (_se_adaptpool): AdaptiveAvgPool2d(output_size=1)
          (_se_reduce): Conv2d(1488, 62, kernel_size=(1, 1), stride=(1, 1))
          (_se_reduce_padding): Identity()
          (_se_expand): Conv2d(62, 1488, kernel_size=(1, 1), stride=(1, 1))
          (_se_expand_padding): Identity()
          (_project_conv): Conv2d(1488, 248, kernel_size=(1, 1), stride=(1, 1), bias=False)
          (_project_conv_padding): Identity()
          (_bn2): BatchNorm2d(248, eps=0.001, momentum=0.01, affine=True, track_running_stats=True)
          (_swish): MemoryEfficientSwish()
        )
        (33): MBConvBlock(
          (_expand_conv): Conv2d(248, 1488, kernel_size=(1, 1), stride=(1, 1), bias=False)
          (_expand_conv_padding): Identity()
          (_bn0): BatchNorm2d(1488, eps=0.001, momentum=0.01, affine=True, track_running_stats=True)
          (_depthwise_conv): Conv2d(1488, 1488, kernel_size=(5, 5), stride=(1, 1), groups=1488, bias=False)
          (_depthwise_conv_padding): ConstantPad2d(padding=(2, 2, 2, 2), value=0.0)
          (_bn1): BatchNorm2d(1488, eps=0.001, momentum=0.01, affine=True, track_running_stats=True)
          (_se_adaptpool): AdaptiveAvgPool2d(output_size=1)
          (_se_reduce): Conv2d(1488, 62, kernel_size=(1, 1), stride=(1, 1))
          (_se_reduce_padding): Identity()
          (_se_expand): Conv2d(62, 1488, kernel_size=(1, 1), stride=(1, 1))
          (_se_expand_padding): Identity()
          (_project_conv): Conv2d(1488, 248, kernel_size=(1, 1), stride=(1, 1), bias=False)
          (_project_conv_padding): Identity()
          (_bn2): BatchNorm2d(248, eps=0.001, momentum=0.01, affine=True, track_running_stats=True)
          (_swish): MemoryEfficientSwish()
        )
        (34): MBConvBlock(
          (_expand_conv): Conv2d(248, 1488, kernel_size=(1, 1), stride=(1, 1), bias=False)
          (_expand_conv_padding): Identity()
          (_bn0): BatchNorm2d(1488, eps=0.001, momentum=0.01, affine=True, track_running_stats=True)
          (_depthwise_conv): Conv2d(1488, 1488, kernel_size=(5, 5), stride=(1, 1), groups=1488, bias=False)
          (_depthwise_conv_padding): ConstantPad2d(padding=(2, 2, 2, 2), value=0.0)
          (_bn1): BatchNorm2d(1488, eps=0.001, momentum=0.01, affine=True, track_running_stats=True)
          (_se_adaptpool): AdaptiveAvgPool2d(output_size=1)
          (_se_reduce): Conv2d(1488, 62, kernel_size=(1, 1), stride=(1, 1))
          (_se_reduce_padding): Identity()
          (_se_expand): Conv2d(62, 1488, kernel_size=(1, 1), stride=(1, 1))
          (_se_expand_padding): Identity()
          (_project_conv): Conv2d(1488, 248, kernel_size=(1, 1), stride=(1, 1), bias=False)
          (_project_conv_padding): Identity()
          (_bn2): BatchNorm2d(248, eps=0.001, momentum=0.01, affine=True, track_running_stats=True)
          (_swish): MemoryEfficientSwish()
        )
        (35): MBConvBlock(
          (_expand_conv): Conv2d(248, 1488, kernel_size=(1, 1), stride=(1, 1), bias=False)
          (_expand_conv_padding): Identity()
          (_bn0): BatchNorm2d(1488, eps=0.001, momentum=0.01, affine=True, track_running_stats=True)
          (_depthwise_conv): Conv2d(1488, 1488, kernel_size=(5, 5), stride=(1, 1), groups=1488, bias=False)
          (_depthwise_conv_padding): ConstantPad2d(padding=(2, 2, 2, 2), value=0.0)
          (_bn1): BatchNorm2d(1488, eps=0.001, momentum=0.01, affine=True, track_running_stats=True)
          (_se_adaptpool): AdaptiveAvgPool2d(output_size=1)
          (_se_reduce): Conv2d(1488, 62, kernel_size=(1, 1), stride=(1, 1))
          (_se_reduce_padding): Identity()
          (_se_expand): Conv2d(62, 1488, kernel_size=(1, 1), stride=(1, 1))
          (_se_expand_padding): Identity()
          (_project_conv): Conv2d(1488, 248, kernel_size=(1, 1), stride=(1, 1), bias=False)
          (_project_conv_padding): Identity()
          (_bn2): BatchNorm2d(248, eps=0.001, momentum=0.01, affine=True, track_running_stats=True)
          (_swish): MemoryEfficientSwish()
        )
        (36): MBConvBlock(
          (_expand_conv): Conv2d(248, 1488, kernel_size=(1, 1), stride=(1, 1), bias=False)
          (_expand_conv_padding): Identity()
          (_bn0): BatchNorm2d(1488, eps=0.001, momentum=0.01, affine=True, track_running_stats=True)
          (_depthwise_conv): Conv2d(1488, 1488, kernel_size=(5, 5), stride=(1, 1), groups=1488, bias=False)
          (_depthwise_conv_padding): ConstantPad2d(padding=(2, 2, 2, 2), value=0.0)
          (_bn1): BatchNorm2d(1488, eps=0.001, momentum=0.01, affine=True, track_running_stats=True)
          (_se_adaptpool): AdaptiveAvgPool2d(output_size=1)
          (_se_reduce): Conv2d(1488, 62, kernel_size=(1, 1), stride=(1, 1))
          (_se_reduce_padding): Identity()
          (_se_expand): Conv2d(62, 1488, kernel_size=(1, 1), stride=(1, 1))
          (_se_expand_padding): Identity()
          (_project_conv): Conv2d(1488, 248, kernel_size=(1, 1), stride=(1, 1), bias=False)
          (_project_conv_padding): Identity()
          (_bn2): BatchNorm2d(248, eps=0.001, momentum=0.01, affine=True, track_running_stats=True)
          (_swish): MemoryEfficientSwish()
        )
        (37): MBConvBlock(
          (_expand_conv): Conv2d(248, 1488, kernel_size=(1, 1), stride=(1, 1), bias=False)
          (_expand_conv_padding): Identity()
          (_bn0): BatchNorm2d(1488, eps=0.001, momentum=0.01, affine=True, track_running_stats=True)
          (_depthwise_conv): Conv2d(1488, 1488, kernel_size=(5, 5), stride=(1, 1), groups=1488, bias=False)
          (_depthwise_conv_padding): ConstantPad2d(padding=(2, 2, 2, 2), value=0.0)
          (_bn1): BatchNorm2d(1488, eps=0.001, momentum=0.01, affine=True, track_running_stats=True)
          (_se_adaptpool): AdaptiveAvgPool2d(output_size=1)
          (_se_reduce): Conv2d(1488, 62, kernel_size=(1, 1), stride=(1, 1))
          (_se_reduce_padding): Identity()
          (_se_expand): Conv2d(62, 1488, kernel_size=(1, 1), stride=(1, 1))
          (_se_expand_padding): Identity()
          (_project_conv): Conv2d(1488, 248, kernel_size=(1, 1), stride=(1, 1), bias=False)
          (_project_conv_padding): Identity()
          (_bn2): BatchNorm2d(248, eps=0.001, momentum=0.01, affine=True, track_running_stats=True)
          (_swish): MemoryEfficientSwish()
        )
        (38): MBConvBlock(
          (_expand_conv): Conv2d(248, 1488, kernel_size=(1, 1), stride=(1, 1), bias=False)
          (_expand_conv_padding): Identity()
          (_bn0): BatchNorm2d(1488, eps=0.001, momentum=0.01, affine=True, track_running_stats=True)
          (_depthwise_conv): Conv2d(1488, 1488, kernel_size=(5, 5), stride=(1, 1), groups=1488, bias=False)
          (_depthwise_conv_padding): ConstantPad2d(padding=(2, 2, 2, 2), value=0.0)
          (_bn1): BatchNorm2d(1488, eps=0.001, momentum=0.01, affine=True, track_running_stats=True)
          (_se_adaptpool): AdaptiveAvgPool2d(output_size=1)
          (_se_reduce): Conv2d(1488, 62, kernel_size=(1, 1), stride=(1, 1))
          (_se_reduce_padding): Identity()
          (_se_expand): Conv2d(62, 1488, kernel_size=(1, 1), stride=(1, 1))
          (_se_expand_padding): Identity()
          (_project_conv): Conv2d(1488, 248, kernel_size=(1, 1), stride=(1, 1), bias=False)
          (_project_conv_padding): Identity()
          (_bn2): BatchNorm2d(248, eps=0.001, momentum=0.01, affine=True, track_running_stats=True)
          (_swish): MemoryEfficientSwish()
        )
        (39): MBConvBlock(
          (_expand_conv): Conv2d(248, 1488, kernel_size=(1, 1), stride=(1, 1), bias=False)
          (_expand_conv_padding): Identity()
          (_bn0): BatchNorm2d(1488, eps=0.001, momentum=0.01, affine=True, track_running_stats=True)
          (_depthwise_conv): Conv2d(1488, 1488, kernel_size=(5, 5), stride=(1, 1), groups=1488, bias=False)
          (_depthwise_conv_padding): ConstantPad2d(padding=(2, 2, 2, 2), value=0.0)
          (_bn1): BatchNorm2d(1488, eps=0.001, momentum=0.01, affine=True, track_running_stats=True)
          (_se_adaptpool): AdaptiveAvgPool2d(output_size=1)
          (_se_reduce): Conv2d(1488, 62, kernel_size=(1, 1), stride=(1, 1))
          (_se_reduce_padding): Identity()
          (_se_expand): Conv2d(62, 1488, kernel_size=(1, 1), stride=(1, 1))
          (_se_expand_padding): Identity()
          (_project_conv): Conv2d(1488, 248, kernel_size=(1, 1), stride=(1, 1), bias=False)
          (_project_conv_padding): Identity()
          (_bn2): BatchNorm2d(248, eps=0.001, momentum=0.01, affine=True, track_running_stats=True)
          (_swish): MemoryEfficientSwish()
        )
        (40): MBConvBlock(
          (_expand_conv): Conv2d(248, 1488, kernel_size=(1, 1), stride=(1, 1), bias=False)
          (_expand_conv_padding): Identity()
          (_bn0): BatchNorm2d(1488, eps=0.001, momentum=0.01, affine=True, track_running_stats=True)
          (_depthwise_conv): Conv2d(1488, 1488, kernel_size=(5, 5), stride=(1, 1), groups=1488, bias=False)
          (_depthwise_conv_padding): ConstantPad2d(padding=(2, 2, 2, 2), value=0.0)
          (_bn1): BatchNorm2d(1488, eps=0.001, momentum=0.01, affine=True, track_running_stats=True)
          (_se_adaptpool): AdaptiveAvgPool2d(output_size=1)
          (_se_reduce): Conv2d(1488, 62, kernel_size=(1, 1), stride=(1, 1))
          (_se_reduce_padding): Identity()
          (_se_expand): Conv2d(62, 1488, kernel_size=(1, 1), stride=(1, 1))
          (_se_expand_padding): Identity()
          (_project_conv): Conv2d(1488, 248, kernel_size=(1, 1), stride=(1, 1), bias=False)
          (_project_conv_padding): Identity()
          (_bn2): BatchNorm2d(248, eps=0.001, momentum=0.01, affine=True, track_running_stats=True)
          (_swish): MemoryEfficientSwish()
        )
        (41): MBConvBlock(
          (_expand_conv): Conv2d(248, 1488, kernel_size=(1, 1), stride=(1, 1), bias=False)
          (_expand_conv_padding): Identity()
          (_bn0): BatchNorm2d(1488, eps=0.001, momentum=0.01, affine=True, track_running_stats=True)
          (_depthwise_conv): Conv2d(1488, 1488, kernel_size=(5, 5), stride=(1, 1), groups=1488, bias=False)
          (_depthwise_conv_padding): ConstantPad2d(padding=(2, 2, 2, 2), value=0.0)
          (_bn1): BatchNorm2d(1488, eps=0.001, momentum=0.01, affine=True, track_running_stats=True)
          (_se_adaptpool): AdaptiveAvgPool2d(output_size=1)
          (_se_reduce): Conv2d(1488, 62, kernel_size=(1, 1), stride=(1, 1))
          (_se_reduce_padding): Identity()
          (_se_expand): Conv2d(62, 1488, kernel_size=(1, 1), stride=(1, 1))
          (_se_expand_padding): Identity()
          (_project_conv): Conv2d(1488, 248, kernel_size=(1, 1), stride=(1, 1), bias=False)
          (_project_conv_padding): Identity()
          (_bn2): BatchNorm2d(248, eps=0.001, momentum=0.01, affine=True, track_running_stats=True)
          (_swish): MemoryEfficientSwish()
        )
      )
      (5): Sequential(
        (42): MBConvBlock(
          (_expand_conv): Conv2d(248, 1488, kernel_size=(1, 1), stride=(1, 1), bias=False)
          (_expand_conv_padding): Identity()
          (_bn0): BatchNorm2d(1488, eps=0.001, momentum=0.01, affine=True, track_running_stats=True)
          (_depthwise_conv): Conv2d(1488, 1488, kernel_size=(5, 5), stride=(2, 2), groups=1488, bias=False)
          (_depthwise_conv_padding): ConstantPad2d(padding=(1, 2, 1, 2), value=0.0)
          (_bn1): BatchNorm2d(1488, eps=0.001, momentum=0.01, affine=True, track_running_stats=True)
          (_se_adaptpool): AdaptiveAvgPool2d(output_size=1)
          (_se_reduce): Conv2d(1488, 62, kernel_size=(1, 1), stride=(1, 1))
          (_se_reduce_padding): Identity()
          (_se_expand): Conv2d(62, 1488, kernel_size=(1, 1), stride=(1, 1))
          (_se_expand_padding): Identity()
          (_project_conv): Conv2d(1488, 424, kernel_size=(1, 1), stride=(1, 1), bias=False)
          (_project_conv_padding): Identity()
          (_bn2): BatchNorm2d(424, eps=0.001, momentum=0.01, affine=True, track_running_stats=True)
          (_swish): MemoryEfficientSwish()
        )
        (43): MBConvBlock(
          (_expand_conv): Conv2d(424, 2544, kernel_size=(1, 1), stride=(1, 1), bias=False)
          (_expand_conv_padding): Identity()
          (_bn0): BatchNorm2d(2544, eps=0.001, momentum=0.01, affine=True, track_running_stats=True)
          (_depthwise_conv): Conv2d(2544, 2544, kernel_size=(5, 5), stride=(1, 1), groups=2544, bias=False)
          (_depthwise_conv_padding): ConstantPad2d(padding=(2, 2, 2, 2), value=0.0)
          (_bn1): BatchNorm2d(2544, eps=0.001, momentum=0.01, affine=True, track_running_stats=True)
          (_se_adaptpool): AdaptiveAvgPool2d(output_size=1)
          (_se_reduce): Conv2d(2544, 106, kernel_size=(1, 1), stride=(1, 1))
          (_se_reduce_padding): Identity()
          (_se_expand): Conv2d(106, 2544, kernel_size=(1, 1), stride=(1, 1))
          (_se_expand_padding): Identity()
          (_project_conv): Conv2d(2544, 424, kernel_size=(1, 1), stride=(1, 1), bias=False)
          (_project_conv_padding): Identity()
          (_bn2): BatchNorm2d(424, eps=0.001, momentum=0.01, affine=True, track_running_stats=True)
          (_swish): MemoryEfficientSwish()
        )
        (44): MBConvBlock(
          (_expand_conv): Conv2d(424, 2544, kernel_size=(1, 1), stride=(1, 1), bias=False)
          (_expand_conv_padding): Identity()
          (_bn0): BatchNorm2d(2544, eps=0.001, momentum=0.01, affine=True, track_running_stats=True)
          (_depthwise_conv): Conv2d(2544, 2544, kernel_size=(5, 5), stride=(1, 1), groups=2544, bias=False)
          (_depthwise_conv_padding): ConstantPad2d(padding=(2, 2, 2, 2), value=0.0)
          (_bn1): BatchNorm2d(2544, eps=0.001, momentum=0.01, affine=True, track_running_stats=True)
          (_se_adaptpool): AdaptiveAvgPool2d(output_size=1)
          (_se_reduce): Conv2d(2544, 106, kernel_size=(1, 1), stride=(1, 1))
          (_se_reduce_padding): Identity()
          (_se_expand): Conv2d(106, 2544, kernel_size=(1, 1), stride=(1, 1))
          (_se_expand_padding): Identity()
          (_project_conv): Conv2d(2544, 424, kernel_size=(1, 1), stride=(1, 1), bias=False)
          (_project_conv_padding): Identity()
          (_bn2): BatchNorm2d(424, eps=0.001, momentum=0.01, affine=True, track_running_stats=True)
          (_swish): MemoryEfficientSwish()
        )
        (45): MBConvBlock(
          (_expand_conv): Conv2d(424, 2544, kernel_size=(1, 1), stride=(1, 1), bias=False)
          (_expand_conv_padding): Identity()
          (_bn0): BatchNorm2d(2544, eps=0.001, momentum=0.01, affine=True, track_running_stats=True)
          (_depthwise_conv): Conv2d(2544, 2544, kernel_size=(5, 5), stride=(1, 1), groups=2544, bias=False)
          (_depthwise_conv_padding): ConstantPad2d(padding=(2, 2, 2, 2), value=0.0)
          (_bn1): BatchNorm2d(2544, eps=0.001, momentum=0.01, affine=True, track_running_stats=True)
          (_se_adaptpool): AdaptiveAvgPool2d(output_size=1)
          (_se_reduce): Conv2d(2544, 106, kernel_size=(1, 1), stride=(1, 1))
          (_se_reduce_padding): Identity()
          (_se_expand): Conv2d(106, 2544, kernel_size=(1, 1), stride=(1, 1))
          (_se_expand_padding): Identity()
          (_project_conv): Conv2d(2544, 424, kernel_size=(1, 1), stride=(1, 1), bias=False)
          (_project_conv_padding): Identity()
          (_bn2): BatchNorm2d(424, eps=0.001, momentum=0.01, affine=True, track_running_stats=True)
          (_swish): MemoryEfficientSwish()
        )
        (46): MBConvBlock(
          (_expand_conv): Conv2d(424, 2544, kernel_size=(1, 1), stride=(1, 1), bias=False)
          (_expand_conv_padding): Identity()
          (_bn0): BatchNorm2d(2544, eps=0.001, momentum=0.01, affine=True, track_running_stats=True)
          (_depthwise_conv): Conv2d(2544, 2544, kernel_size=(5, 5), stride=(1, 1), groups=2544, bias=False)
          (_depthwise_conv_padding): ConstantPad2d(padding=(2, 2, 2, 2), value=0.0)
          (_bn1): BatchNorm2d(2544, eps=0.001, momentum=0.01, affine=True, track_running_stats=True)
          (_se_adaptpool): AdaptiveAvgPool2d(output_size=1)
          (_se_reduce): Conv2d(2544, 106, kernel_size=(1, 1), stride=(1, 1))
          (_se_reduce_padding): Identity()
          (_se_expand): Conv2d(106, 2544, kernel_size=(1, 1), stride=(1, 1))
          (_se_expand_padding): Identity()
          (_project_conv): Conv2d(2544, 424, kernel_size=(1, 1), stride=(1, 1), bias=False)
          (_project_conv_padding): Identity()
          (_bn2): BatchNorm2d(424, eps=0.001, momentum=0.01, affine=True, track_running_stats=True)
          (_swish): MemoryEfficientSwish()
        )
        (47): MBConvBlock(
          (_expand_conv): Conv2d(424, 2544, kernel_size=(1, 1), stride=(1, 1), bias=False)
          (_expand_conv_padding): Identity()
          (_bn0): BatchNorm2d(2544, eps=0.001, momentum=0.01, affine=True, track_running_stats=True)
          (_depthwise_conv): Conv2d(2544, 2544, kernel_size=(5, 5), stride=(1, 1), groups=2544, bias=False)
          (_depthwise_conv_padding): ConstantPad2d(padding=(2, 2, 2, 2), value=0.0)
          (_bn1): BatchNorm2d(2544, eps=0.001, momentum=0.01, affine=True, track_running_stats=True)
          (_se_adaptpool): AdaptiveAvgPool2d(output_size=1)
          (_se_reduce): Conv2d(2544, 106, kernel_size=(1, 1), stride=(1, 1))
          (_se_reduce_padding): Identity()
          (_se_expand): Conv2d(106, 2544, kernel_size=(1, 1), stride=(1, 1))
          (_se_expand_padding): Identity()
          (_project_conv): Conv2d(2544, 424, kernel_size=(1, 1), stride=(1, 1), bias=False)
          (_project_conv_padding): Identity()
          (_bn2): BatchNorm2d(424, eps=0.001, momentum=0.01, affine=True, track_running_stats=True)
          (_swish): MemoryEfficientSwish()
        )
        (48): MBConvBlock(
          (_expand_conv): Conv2d(424, 2544, kernel_size=(1, 1), stride=(1, 1), bias=False)
          (_expand_conv_padding): Identity()
          (_bn0): BatchNorm2d(2544, eps=0.001, momentum=0.01, affine=True, track_running_stats=True)
          (_depthwise_conv): Conv2d(2544, 2544, kernel_size=(5, 5), stride=(1, 1), groups=2544, bias=False)
          (_depthwise_conv_padding): ConstantPad2d(padding=(2, 2, 2, 2), value=0.0)
          (_bn1): BatchNorm2d(2544, eps=0.001, momentum=0.01, affine=True, track_running_stats=True)
          (_se_adaptpool): AdaptiveAvgPool2d(output_size=1)
          (_se_reduce): Conv2d(2544, 106, kernel_size=(1, 1), stride=(1, 1))
          (_se_reduce_padding): Identity()
          (_se_expand): Conv2d(106, 2544, kernel_size=(1, 1), stride=(1, 1))
          (_se_expand_padding): Identity()
          (_project_conv): Conv2d(2544, 424, kernel_size=(1, 1), stride=(1, 1), bias=False)
          (_project_conv_padding): Identity()
          (_bn2): BatchNorm2d(424, eps=0.001, momentum=0.01, affine=True, track_running_stats=True)
          (_swish): MemoryEfficientSwish()
        )
        (49): MBConvBlock(
          (_expand_conv): Conv2d(424, 2544, kernel_size=(1, 1), stride=(1, 1), bias=False)
          (_expand_conv_padding): Identity()
          (_bn0): BatchNorm2d(2544, eps=0.001, momentum=0.01, affine=True, track_running_stats=True)
          (_depthwise_conv): Conv2d(2544, 2544, kernel_size=(5, 5), stride=(1, 1), groups=2544, bias=False)
          (_depthwise_conv_padding): ConstantPad2d(padding=(2, 2, 2, 2), value=0.0)
          (_bn1): BatchNorm2d(2544, eps=0.001, momentum=0.01, affine=True, track_running_stats=True)
          (_se_adaptpool): AdaptiveAvgPool2d(output_size=1)
          (_se_reduce): Conv2d(2544, 106, kernel_size=(1, 1), stride=(1, 1))
          (_se_reduce_padding): Identity()
          (_se_expand): Conv2d(106, 2544, kernel_size=(1, 1), stride=(1, 1))
          (_se_expand_padding): Identity()
          (_project_conv): Conv2d(2544, 424, kernel_size=(1, 1), stride=(1, 1), bias=False)
          (_project_conv_padding): Identity()
          (_bn2): BatchNorm2d(424, eps=0.001, momentum=0.01, affine=True, track_running_stats=True)
          (_swish): MemoryEfficientSwish()
        )
        (50): MBConvBlock(
          (_expand_conv): Conv2d(424, 2544, kernel_size=(1, 1), stride=(1, 1), bias=False)
          (_expand_conv_padding): Identity()
          (_bn0): BatchNorm2d(2544, eps=0.001, momentum=0.01, affine=True, track_running_stats=True)
          (_depthwise_conv): Conv2d(2544, 2544, kernel_size=(5, 5), stride=(1, 1), groups=2544, bias=False)
          (_depthwise_conv_padding): ConstantPad2d(padding=(2, 2, 2, 2), value=0.0)
          (_bn1): BatchNorm2d(2544, eps=0.001, momentum=0.01, affine=True, track_running_stats=True)
          (_se_adaptpool): AdaptiveAvgPool2d(output_size=1)
          (_se_reduce): Conv2d(2544, 106, kernel_size=(1, 1), stride=(1, 1))
          (_se_reduce_padding): Identity()
          (_se_expand): Conv2d(106, 2544, kernel_size=(1, 1), stride=(1, 1))
          (_se_expand_padding): Identity()
          (_project_conv): Conv2d(2544, 424, kernel_size=(1, 1), stride=(1, 1), bias=False)
          (_project_conv_padding): Identity()
          (_bn2): BatchNorm2d(424, eps=0.001, momentum=0.01, affine=True, track_running_stats=True)
          (_swish): MemoryEfficientSwish()
        )
        (51): MBConvBlock(
          (_expand_conv): Conv2d(424, 2544, kernel_size=(1, 1), stride=(1, 1), bias=False)
          (_expand_conv_padding): Identity()
          (_bn0): BatchNorm2d(2544, eps=0.001, momentum=0.01, affine=True, track_running_stats=True)
          (_depthwise_conv): Conv2d(2544, 2544, kernel_size=(5, 5), stride=(1, 1), groups=2544, bias=False)
          (_depthwise_conv_padding): ConstantPad2d(padding=(2, 2, 2, 2), value=0.0)
          (_bn1): BatchNorm2d(2544, eps=0.001, momentum=0.01, affine=True, track_running_stats=True)
          (_se_adaptpool): AdaptiveAvgPool2d(output_size=1)
          (_se_reduce): Conv2d(2544, 106, kernel_size=(1, 1), stride=(1, 1))
          (_se_reduce_padding): Identity()
          (_se_expand): Conv2d(106, 2544, kernel_size=(1, 1), stride=(1, 1))
          (_se_expand_padding): Identity()
          (_project_conv): Conv2d(2544, 424, kernel_size=(1, 1), stride=(1, 1), bias=False)
          (_project_conv_padding): Identity()
          (_bn2): BatchNorm2d(424, eps=0.001, momentum=0.01, affine=True, track_running_stats=True)
          (_swish): MemoryEfficientSwish()
        )
        (52): MBConvBlock(
          (_expand_conv): Conv2d(424, 2544, kernel_size=(1, 1), stride=(1, 1), bias=False)
          (_expand_conv_padding): Identity()
          (_bn0): BatchNorm2d(2544, eps=0.001, momentum=0.01, affine=True, track_running_stats=True)
          (_depthwise_conv): Conv2d(2544, 2544, kernel_size=(5, 5), stride=(1, 1), groups=2544, bias=False)
          (_depthwise_conv_padding): ConstantPad2d(padding=(2, 2, 2, 2), value=0.0)
          (_bn1): BatchNorm2d(2544, eps=0.001, momentum=0.01, affine=True, track_running_stats=True)
          (_se_adaptpool): AdaptiveAvgPool2d(output_size=1)
          (_se_reduce): Conv2d(2544, 106, kernel_size=(1, 1), stride=(1, 1))
          (_se_reduce_padding): Identity()
          (_se_expand): Conv2d(106, 2544, kernel_size=(1, 1), stride=(1, 1))
          (_se_expand_padding): Identity()
          (_project_conv): Conv2d(2544, 424, kernel_size=(1, 1), stride=(1, 1), bias=False)
          (_project_conv_padding): Identity()
          (_bn2): BatchNorm2d(424, eps=0.001, momentum=0.01, affine=True, track_running_stats=True)
          (_swish): MemoryEfficientSwish()
        )
        (53): MBConvBlock(
          (_expand_conv): Conv2d(424, 2544, kernel_size=(1, 1), stride=(1, 1), bias=False)
          (_expand_conv_padding): Identity()
          (_bn0): BatchNorm2d(2544, eps=0.001, momentum=0.01, affine=True, track_running_stats=True)
          (_depthwise_conv): Conv2d(2544, 2544, kernel_size=(5, 5), stride=(1, 1), groups=2544, bias=False)
          (_depthwise_conv_padding): ConstantPad2d(padding=(2, 2, 2, 2), value=0.0)
          (_bn1): BatchNorm2d(2544, eps=0.001, momentum=0.01, affine=True, track_running_stats=True)
          (_se_adaptpool): AdaptiveAvgPool2d(output_size=1)
          (_se_reduce): Conv2d(2544, 106, kernel_size=(1, 1), stride=(1, 1))
          (_se_reduce_padding): Identity()
          (_se_expand): Conv2d(106, 2544, kernel_size=(1, 1), stride=(1, 1))
          (_se_expand_padding): Identity()
          (_project_conv): Conv2d(2544, 424, kernel_size=(1, 1), stride=(1, 1), bias=False)
          (_project_conv_padding): Identity()
          (_bn2): BatchNorm2d(424, eps=0.001, momentum=0.01, affine=True, track_running_stats=True)
          (_swish): MemoryEfficientSwish()
        )
        (54): MBConvBlock(
          (_expand_conv): Conv2d(424, 2544, kernel_size=(1, 1), stride=(1, 1), bias=False)
          (_expand_conv_padding): Identity()
          (_bn0): BatchNorm2d(2544, eps=0.001, momentum=0.01, affine=True, track_running_stats=True)
          (_depthwise_conv): Conv2d(2544, 2544, kernel_size=(5, 5), stride=(1, 1), groups=2544, bias=False)
          (_depthwise_conv_padding): ConstantPad2d(padding=(2, 2, 2, 2), value=0.0)
          (_bn1): BatchNorm2d(2544, eps=0.001, momentum=0.01, affine=True, track_running_stats=True)
          (_se_adaptpool): AdaptiveAvgPool2d(output_size=1)
          (_se_reduce): Conv2d(2544, 106, kernel_size=(1, 1), stride=(1, 1))
          (_se_reduce_padding): Identity()
          (_se_expand): Conv2d(106, 2544, kernel_size=(1, 1), stride=(1, 1))
          (_se_expand_padding): Identity()
          (_project_conv): Conv2d(2544, 424, kernel_size=(1, 1), stride=(1, 1), bias=False)
          (_project_conv_padding): Identity()
          (_bn2): BatchNorm2d(424, eps=0.001, momentum=0.01, affine=True, track_running_stats=True)
          (_swish): MemoryEfficientSwish()
        )
        (55): MBConvBlock(
          (_expand_conv): Conv2d(424, 2544, kernel_size=(1, 1), stride=(1, 1), bias=False)
          (_expand_conv_padding): Identity()
          (_bn0): BatchNorm2d(2544, eps=0.001, momentum=0.01, affine=True, track_running_stats=True)
          (_depthwise_conv): Conv2d(2544, 2544, kernel_size=(5, 5), stride=(1, 1), groups=2544, bias=False)
          (_depthwise_conv_padding): ConstantPad2d(padding=(2, 2, 2, 2), value=0.0)
          (_bn1): BatchNorm2d(2544, eps=0.001, momentum=0.01, affine=True, track_running_stats=True)
          (_se_adaptpool): AdaptiveAvgPool2d(output_size=1)
          (_se_reduce): Conv2d(2544, 106, kernel_size=(1, 1), stride=(1, 1))
          (_se_reduce_padding): Identity()
          (_se_expand): Conv2d(106, 2544, kernel_size=(1, 1), stride=(1, 1))
          (_se_expand_padding): Identity()
          (_project_conv): Conv2d(2544, 424, kernel_size=(1, 1), stride=(1, 1), bias=False)
          (_project_conv_padding): Identity()
          (_bn2): BatchNorm2d(424, eps=0.001, momentum=0.01, affine=True, track_running_stats=True)
          (_swish): MemoryEfficientSwish()
        )
        (56): MBConvBlock(
          (_expand_conv): Conv2d(424, 2544, kernel_size=(1, 1), stride=(1, 1), bias=False)
          (_expand_conv_padding): Identity()
          (_bn0): BatchNorm2d(2544, eps=0.001, momentum=0.01, affine=True, track_running_stats=True)
          (_depthwise_conv): Conv2d(2544, 2544, kernel_size=(5, 5), stride=(1, 1), groups=2544, bias=False)
          (_depthwise_conv_padding): ConstantPad2d(padding=(2, 2, 2, 2), value=0.0)
          (_bn1): BatchNorm2d(2544, eps=0.001, momentum=0.01, affine=True, track_running_stats=True)
          (_se_adaptpool): AdaptiveAvgPool2d(output_size=1)
          (_se_reduce): Conv2d(2544, 106, kernel_size=(1, 1), stride=(1, 1))
          (_se_reduce_padding): Identity()
          (_se_expand): Conv2d(106, 2544, kernel_size=(1, 1), stride=(1, 1))
          (_se_expand_padding): Identity()
          (_project_conv): Conv2d(2544, 424, kernel_size=(1, 1), stride=(1, 1), bias=False)
          (_project_conv_padding): Identity()
          (_bn2): BatchNorm2d(424, eps=0.001, momentum=0.01, affine=True, track_running_stats=True)
          (_swish): MemoryEfficientSwish()
        )
      )
      (6): Sequential(
        (57): MBConvBlock(
          (_expand_conv): Conv2d(424, 2544, kernel_size=(1, 1), stride=(1, 1), bias=False)
          (_expand_conv_padding): Identity()
          (_bn0): BatchNorm2d(2544, eps=0.001, momentum=0.01, affine=True, track_running_stats=True)
          (_depthwise_conv): Conv2d(2544, 2544, kernel_size=(3, 3), stride=(1, 1), groups=2544, bias=False)
          (_depthwise_conv_padding): ConstantPad2d(padding=(1, 1, 1, 1), value=0.0)
          (_bn1): BatchNorm2d(2544, eps=0.001, momentum=0.01, affine=True, track_running_stats=True)
          (_se_adaptpool): AdaptiveAvgPool2d(output_size=1)
          (_se_reduce): Conv2d(2544, 106, kernel_size=(1, 1), stride=(1, 1))
          (_se_reduce_padding): Identity()
          (_se_expand): Conv2d(106, 2544, kernel_size=(1, 1), stride=(1, 1))
          (_se_expand_padding): Identity()
          (_project_conv): Conv2d(2544, 704, kernel_size=(1, 1), stride=(1, 1), bias=False)
          (_project_conv_padding): Identity()
          (_bn2): BatchNorm2d(704, eps=0.001, momentum=0.01, affine=True, track_running_stats=True)
          (_swish): MemoryEfficientSwish()
        )
        (58): MBConvBlock(
          (_expand_conv): Conv2d(704, 4224, kernel_size=(1, 1), stride=(1, 1), bias=False)
          (_expand_conv_padding): Identity()
          (_bn0): BatchNorm2d(4224, eps=0.001, momentum=0.01, affine=True, track_running_stats=True)
          (_depthwise_conv): Conv2d(4224, 4224, kernel_size=(3, 3), stride=(1, 1), groups=4224, bias=False)
          (_depthwise_conv_padding): ConstantPad2d(padding=(1, 1, 1, 1), value=0.0)
          (_bn1): BatchNorm2d(4224, eps=0.001, momentum=0.01, affine=True, track_running_stats=True)
          (_se_adaptpool): AdaptiveAvgPool2d(output_size=1)
          (_se_reduce): Conv2d(4224, 176, kernel_size=(1, 1), stride=(1, 1))
          (_se_reduce_padding): Identity()
          (_se_expand): Conv2d(176, 4224, kernel_size=(1, 1), stride=(1, 1))
          (_se_expand_padding): Identity()
          (_project_conv): Conv2d(4224, 704, kernel_size=(1, 1), stride=(1, 1), bias=False)
          (_project_conv_padding): Identity()
          (_bn2): BatchNorm2d(704, eps=0.001, momentum=0.01, affine=True, track_running_stats=True)
          (_swish): MemoryEfficientSwish()
        )
        (59): MBConvBlock(
          (_expand_conv): Conv2d(704, 4224, kernel_size=(1, 1), stride=(1, 1), bias=False)
          (_expand_conv_padding): Identity()
          (_bn0): BatchNorm2d(4224, eps=0.001, momentum=0.01, affine=True, track_running_stats=True)
          (_depthwise_conv): Conv2d(4224, 4224, kernel_size=(3, 3), stride=(1, 1), groups=4224, bias=False)
          (_depthwise_conv_padding): ConstantPad2d(padding=(1, 1, 1, 1), value=0.0)
          (_bn1): BatchNorm2d(4224, eps=0.001, momentum=0.01, affine=True, track_running_stats=True)
          (_se_adaptpool): AdaptiveAvgPool2d(output_size=1)
          (_se_reduce): Conv2d(4224, 176, kernel_size=(1, 1), stride=(1, 1))
          (_se_reduce_padding): Identity()
          (_se_expand): Conv2d(176, 4224, kernel_size=(1, 1), stride=(1, 1))
          (_se_expand_padding): Identity()
          (_project_conv): Conv2d(4224, 704, kernel_size=(1, 1), stride=(1, 1), bias=False)
          (_project_conv_padding): Identity()
          (_bn2): BatchNorm2d(704, eps=0.001, momentum=0.01, affine=True, track_running_stats=True)
          (_swish): MemoryEfficientSwish()
        )
        (60): MBConvBlock(
          (_expand_conv): Conv2d(704, 4224, kernel_size=(1, 1), stride=(1, 1), bias=False)
          (_expand_conv_padding): Identity()
          (_bn0): BatchNorm2d(4224, eps=0.001, momentum=0.01, affine=True, track_running_stats=True)
          (_depthwise_conv): Conv2d(4224, 4224, kernel_size=(3, 3), stride=(1, 1), groups=4224, bias=False)
          (_depthwise_conv_padding): ConstantPad2d(padding=(1, 1, 1, 1), value=0.0)
          (_bn1): BatchNorm2d(4224, eps=0.001, momentum=0.01, affine=True, track_running_stats=True)
          (_se_adaptpool): AdaptiveAvgPool2d(output_size=1)
          (_se_reduce): Conv2d(4224, 176, kernel_size=(1, 1), stride=(1, 1))
          (_se_reduce_padding): Identity()
          (_se_expand): Conv2d(176, 4224, kernel_size=(1, 1), stride=(1, 1))
          (_se_expand_padding): Identity()
          (_project_conv): Conv2d(4224, 704, kernel_size=(1, 1), stride=(1, 1), bias=False)
          (_project_conv_padding): Identity()
          (_bn2): BatchNorm2d(704, eps=0.001, momentum=0.01, affine=True, track_running_stats=True)
          (_swish): MemoryEfficientSwish()
        )
      )
    )
    (_conv_head): Conv2d(704, 2816, kernel_size=(1, 1), stride=(1, 1), bias=False)
    (_conv_head_padding): Identity()
    (_bn1): BatchNorm2d(2816, eps=0.001, momentum=0.01, affine=True, track_running_stats=True)
    (_avg_pooling): AdaptiveAvgPool2d(output_size=1)
    (_dropout): Dropout(p=0.5, inplace=False)
    (_fc): Linear(in_features=2816, out_features=1000, bias=True)
    (_swish): MemoryEfficientSwish()
  )
  (decoder): UNetDecoder(
    (blocks): ModuleList(
      (0): UpCat(
        (upsample): UpSample(
          (upsample_non_trainable): Upsample(scale_factor=(2.0, 2.0), mode=nearest)
        )
        (convs): TwoConv(
          (conv_0): Convolution(
            (conv): Conv2d(952, 256, kernel_size=(3, 3), stride=(1, 1), padding=(1, 1), bias=False)
            (adn): ADN(
              (N): BatchNorm2d(256, eps=0.001, momentum=0.1, affine=True, track_running_stats=True)
              (D): Dropout(p=0.0, inplace=False)
              (A): ReLU(inplace=True)
            )
          )
          (conv_1): Convolution(
            (conv): Conv2d(256, 256, kernel_size=(3, 3), stride=(1, 1), padding=(1, 1), bias=False)
            (adn): ADN(
              (N): BatchNorm2d(256, eps=0.001, momentum=0.1, affine=True, track_running_stats=True)
              (D): Dropout(p=0.0, inplace=False)
              (A): ReLU(inplace=True)
            )
          )
        )
      )
      (1): UpCat(
        (upsample): UpSample(
          (upsample_non_trainable): Upsample(scale_factor=(2.0, 2.0), mode=nearest)
        )
        (convs): TwoConv(
          (conv_0): Convolution(
            (conv): Conv2d(344, 128, kernel_size=(3, 3), stride=(1, 1), padding=(1, 1), bias=False)
            (adn): ADN(
              (N): BatchNorm2d(128, eps=0.001, momentum=0.1, affine=True, track_running_stats=True)
              (D): Dropout(p=0.0, inplace=False)
              (A): ReLU(inplace=True)
            )
          )
          (conv_1): Convolution(
            (conv): Conv2d(128, 128, kernel_size=(3, 3), stride=(1, 1), padding=(1, 1), bias=False)
            (adn): ADN(
              (N): BatchNorm2d(128, eps=0.001, momentum=0.1, affine=True, track_running_stats=True)
              (D): Dropout(p=0.0, inplace=False)
              (A): ReLU(inplace=True)
            )
          )
        )
      )
      (2): UpCat(
        (upsample): UpSample(
          (upsample_non_trainable): Upsample(scale_factor=(2.0, 2.0), mode=nearest)
        )
        (convs): TwoConv(
          (conv_0): Convolution(
            (conv): Conv2d(184, 64, kernel_size=(3, 3), stride=(1, 1), padding=(1, 1), bias=False)
            (adn): ADN(
              (N): BatchNorm2d(64, eps=0.001, momentum=0.1, affine=True, track_running_stats=True)
              (D): Dropout(p=0.0, inplace=False)
              (A): ReLU(inplace=True)
            )
          )
          (conv_1): Convolution(
            (conv): Conv2d(64, 64, kernel_size=(3, 3), stride=(1, 1), padding=(1, 1), bias=False)
            (adn): ADN(
              (N): BatchNorm2d(64, eps=0.001, momentum=0.1, affine=True, track_running_stats=True)
              (D): Dropout(p=0.0, inplace=False)
              (A): ReLU(inplace=True)
            )
          )
        )
      )
      (3): UpCat(
        (upsample): UpSample(
          (upsample_non_trainable): Upsample(scale_factor=(2.0, 2.0), mode=nearest)
        )
        (convs): TwoConv(
          (conv_0): Convolution(
            (conv): Conv2d(96, 32, kernel_size=(3, 3), stride=(1, 1), padding=(1, 1), bias=False)
            (adn): ADN(
              (N): BatchNorm2d(32, eps=0.001, momentum=0.1, affine=True, track_running_stats=True)
              (D): Dropout(p=0.0, inplace=False)
              (A): ReLU(inplace=True)
            )
          )
          (conv_1): Convolution(
            (conv): Conv2d(32, 32, kernel_size=(3, 3), stride=(1, 1), padding=(1, 1), bias=False)
            (adn): ADN(
              (N): BatchNorm2d(32, eps=0.001, momentum=0.1, affine=True, track_running_stats=True)
              (D): Dropout(p=0.0, inplace=False)
              (A): ReLU(inplace=True)
            )
          )
        )
      )
      (4): UpCat(
        (upsample): UpSample(
          (upsample_non_trainable): Upsample(scale_factor=(2.0, 2.0), mode=nearest)
        )
        (convs): TwoConv(
          (conv_0): Convolution(
            (conv): Conv2d(32, 16, kernel_size=(3, 3), stride=(1, 1), padding=(1, 1), bias=False)
            (adn): ADN(
              (N): BatchNorm2d(16, eps=0.001, momentum=0.1, affine=True, track_running_stats=True)
              (D): Dropout(p=0.0, inplace=False)
              (A): ReLU(inplace=True)
            )
          )
          (conv_1): Convolution(
            (conv): Conv2d(16, 16, kernel_size=(3, 3), stride=(1, 1), padding=(1, 1), bias=False)
            (adn): ADN(
              (N): BatchNorm2d(16, eps=0.001, momentum=0.1, affine=True, track_running_stats=True)
              (D): Dropout(p=0.0, inplace=False)
              (A): ReLU(inplace=True)
            )
          )
        )
      )
    )
  )
  (segmentation_head): SegmentationHead(
    (0): Conv2d(16, 1, kernel_size=(3, 3), stride=(1, 1), padding=(1, 1))
    (1): Identity()
    (2): Identity()
  )
)
----------------------------------------------------------------------------------------------------

2024-03-12 22:13:24,465 Brain Segmentation INFO: FlexibleUNet(
  (encoder): EfficientNetEncoder(
    (_conv_stem): Conv2d(1, 72, kernel_size=(3, 3), stride=(2, 2), bias=False)
    (_conv_stem_padding): ConstantPad2d(padding=(0, 1, 0, 1), value=0.0)
    (_bn0): BatchNorm2d(72, eps=0.001, momentum=0.01, affine=True, track_running_stats=True)
    (_blocks): Sequential(
      (0): Sequential(
        (0): MBConvBlock(
          (_expand_conv): Identity()
          (_expand_conv_padding): Identity()
          (_bn0): Identity()
          (_depthwise_conv): Conv2d(72, 72, kernel_size=(3, 3), stride=(1, 1), groups=72, bias=False)
          (_depthwise_conv_padding): ConstantPad2d(padding=(1, 1, 1, 1), value=0.0)
          (_bn1): BatchNorm2d(72, eps=0.001, momentum=0.01, affine=True, track_running_stats=True)
          (_se_adaptpool): AdaptiveAvgPool2d(output_size=1)
          (_se_reduce): Conv2d(72, 18, kernel_size=(1, 1), stride=(1, 1))
          (_se_reduce_padding): Identity()
          (_se_expand): Conv2d(18, 72, kernel_size=(1, 1), stride=(1, 1))
          (_se_expand_padding): Identity()
          (_project_conv): Conv2d(72, 32, kernel_size=(1, 1), stride=(1, 1), bias=False)
          (_project_conv_padding): Identity()
          (_bn2): BatchNorm2d(32, eps=0.001, momentum=0.01, affine=True, track_running_stats=True)
          (_swish): MemoryEfficientSwish()
        )
        (1): MBConvBlock(
          (_expand_conv): Identity()
          (_expand_conv_padding): Identity()
          (_bn0): Identity()
          (_depthwise_conv): Conv2d(32, 32, kernel_size=(3, 3), stride=(1, 1), groups=32, bias=False)
          (_depthwise_conv_padding): ConstantPad2d(padding=(1, 1, 1, 1), value=0.0)
          (_bn1): BatchNorm2d(32, eps=0.001, momentum=0.01, affine=True, track_running_stats=True)
          (_se_adaptpool): AdaptiveAvgPool2d(output_size=1)
          (_se_reduce): Conv2d(32, 8, kernel_size=(1, 1), stride=(1, 1))
          (_se_reduce_padding): Identity()
          (_se_expand): Conv2d(8, 32, kernel_size=(1, 1), stride=(1, 1))
          (_se_expand_padding): Identity()
          (_project_conv): Conv2d(32, 32, kernel_size=(1, 1), stride=(1, 1), bias=False)
          (_project_conv_padding): Identity()
          (_bn2): BatchNorm2d(32, eps=0.001, momentum=0.01, affine=True, track_running_stats=True)
          (_swish): MemoryEfficientSwish()
        )
        (2): MBConvBlock(
          (_expand_conv): Identity()
          (_expand_conv_padding): Identity()
          (_bn0): Identity()
          (_depthwise_conv): Conv2d(32, 32, kernel_size=(3, 3), stride=(1, 1), groups=32, bias=False)
          (_depthwise_conv_padding): ConstantPad2d(padding=(1, 1, 1, 1), value=0.0)
          (_bn1): BatchNorm2d(32, eps=0.001, momentum=0.01, affine=True, track_running_stats=True)
          (_se_adaptpool): AdaptiveAvgPool2d(output_size=1)
          (_se_reduce): Conv2d(32, 8, kernel_size=(1, 1), stride=(1, 1))
          (_se_reduce_padding): Identity()
          (_se_expand): Conv2d(8, 32, kernel_size=(1, 1), stride=(1, 1))
          (_se_expand_padding): Identity()
          (_project_conv): Conv2d(32, 32, kernel_size=(1, 1), stride=(1, 1), bias=False)
          (_project_conv_padding): Identity()
          (_bn2): BatchNorm2d(32, eps=0.001, momentum=0.01, affine=True, track_running_stats=True)
          (_swish): MemoryEfficientSwish()
        )
        (3): MBConvBlock(
          (_expand_conv): Identity()
          (_expand_conv_padding): Identity()
          (_bn0): Identity()
          (_depthwise_conv): Conv2d(32, 32, kernel_size=(3, 3), stride=(1, 1), groups=32, bias=False)
          (_depthwise_conv_padding): ConstantPad2d(padding=(1, 1, 1, 1), value=0.0)
          (_bn1): BatchNorm2d(32, eps=0.001, momentum=0.01, affine=True, track_running_stats=True)
          (_se_adaptpool): AdaptiveAvgPool2d(output_size=1)
          (_se_reduce): Conv2d(32, 8, kernel_size=(1, 1), stride=(1, 1))
          (_se_reduce_padding): Identity()
          (_se_expand): Conv2d(8, 32, kernel_size=(1, 1), stride=(1, 1))
          (_se_expand_padding): Identity()
          (_project_conv): Conv2d(32, 32, kernel_size=(1, 1), stride=(1, 1), bias=False)
          (_project_conv_padding): Identity()
          (_bn2): BatchNorm2d(32, eps=0.001, momentum=0.01, affine=True, track_running_stats=True)
          (_swish): MemoryEfficientSwish()
        )
      )
      (1): Sequential(
        (4): MBConvBlock(
          (_expand_conv): Conv2d(32, 192, kernel_size=(1, 1), stride=(1, 1), bias=False)
          (_expand_conv_padding): Identity()
          (_bn0): BatchNorm2d(192, eps=0.001, momentum=0.01, affine=True, track_running_stats=True)
          (_depthwise_conv): Conv2d(192, 192, kernel_size=(3, 3), stride=(2, 2), groups=192, bias=False)
          (_depthwise_conv_padding): ConstantPad2d(padding=(0, 1, 0, 1), value=0.0)
          (_bn1): BatchNorm2d(192, eps=0.001, momentum=0.01, affine=True, track_running_stats=True)
          (_se_adaptpool): AdaptiveAvgPool2d(output_size=1)
          (_se_reduce): Conv2d(192, 8, kernel_size=(1, 1), stride=(1, 1))
          (_se_reduce_padding): Identity()
          (_se_expand): Conv2d(8, 192, kernel_size=(1, 1), stride=(1, 1))
          (_se_expand_padding): Identity()
          (_project_conv): Conv2d(192, 56, kernel_size=(1, 1), stride=(1, 1), bias=False)
          (_project_conv_padding): Identity()
          (_bn2): BatchNorm2d(56, eps=0.001, momentum=0.01, affine=True, track_running_stats=True)
          (_swish): MemoryEfficientSwish()
        )
        (5): MBConvBlock(
          (_expand_conv): Conv2d(56, 336, kernel_size=(1, 1), stride=(1, 1), bias=False)
          (_expand_conv_padding): Identity()
          (_bn0): BatchNorm2d(336, eps=0.001, momentum=0.01, affine=True, track_running_stats=True)
          (_depthwise_conv): Conv2d(336, 336, kernel_size=(3, 3), stride=(1, 1), groups=336, bias=False)
          (_depthwise_conv_padding): ConstantPad2d(padding=(1, 1, 1, 1), value=0.0)
          (_bn1): BatchNorm2d(336, eps=0.001, momentum=0.01, affine=True, track_running_stats=True)
          (_se_adaptpool): AdaptiveAvgPool2d(output_size=1)
          (_se_reduce): Conv2d(336, 14, kernel_size=(1, 1), stride=(1, 1))
          (_se_reduce_padding): Identity()
          (_se_expand): Conv2d(14, 336, kernel_size=(1, 1), stride=(1, 1))
          (_se_expand_padding): Identity()
          (_project_conv): Conv2d(336, 56, kernel_size=(1, 1), stride=(1, 1), bias=False)
          (_project_conv_padding): Identity()
          (_bn2): BatchNorm2d(56, eps=0.001, momentum=0.01, affine=True, track_running_stats=True)
          (_swish): MemoryEfficientSwish()
        )
        (6): MBConvBlock(
          (_expand_conv): Conv2d(56, 336, kernel_size=(1, 1), stride=(1, 1), bias=False)
          (_expand_conv_padding): Identity()
          (_bn0): BatchNorm2d(336, eps=0.001, momentum=0.01, affine=True, track_running_stats=True)
          (_depthwise_conv): Conv2d(336, 336, kernel_size=(3, 3), stride=(1, 1), groups=336, bias=False)
          (_depthwise_conv_padding): ConstantPad2d(padding=(1, 1, 1, 1), value=0.0)
          (_bn1): BatchNorm2d(336, eps=0.001, momentum=0.01, affine=True, track_running_stats=True)
          (_se_adaptpool): AdaptiveAvgPool2d(output_size=1)
          (_se_reduce): Conv2d(336, 14, kernel_size=(1, 1), stride=(1, 1))
          (_se_reduce_padding): Identity()
          (_se_expand): Conv2d(14, 336, kernel_size=(1, 1), stride=(1, 1))
          (_se_expand_padding): Identity()
          (_project_conv): Conv2d(336, 56, kernel_size=(1, 1), stride=(1, 1), bias=False)
          (_project_conv_padding): Identity()
          (_bn2): BatchNorm2d(56, eps=0.001, momentum=0.01, affine=True, track_running_stats=True)
          (_swish): MemoryEfficientSwish()
        )
        (7): MBConvBlock(
          (_expand_conv): Conv2d(56, 336, kernel_size=(1, 1), stride=(1, 1), bias=False)
          (_expand_conv_padding): Identity()
          (_bn0): BatchNorm2d(336, eps=0.001, momentum=0.01, affine=True, track_running_stats=True)
          (_depthwise_conv): Conv2d(336, 336, kernel_size=(3, 3), stride=(1, 1), groups=336, bias=False)
          (_depthwise_conv_padding): ConstantPad2d(padding=(1, 1, 1, 1), value=0.0)
          (_bn1): BatchNorm2d(336, eps=0.001, momentum=0.01, affine=True, track_running_stats=True)
          (_se_adaptpool): AdaptiveAvgPool2d(output_size=1)
          (_se_reduce): Conv2d(336, 14, kernel_size=(1, 1), stride=(1, 1))
          (_se_reduce_padding): Identity()
          (_se_expand): Conv2d(14, 336, kernel_size=(1, 1), stride=(1, 1))
          (_se_expand_padding): Identity()
          (_project_conv): Conv2d(336, 56, kernel_size=(1, 1), stride=(1, 1), bias=False)
          (_project_conv_padding): Identity()
          (_bn2): BatchNorm2d(56, eps=0.001, momentum=0.01, affine=True, track_running_stats=True)
          (_swish): MemoryEfficientSwish()
        )
        (8): MBConvBlock(
          (_expand_conv): Conv2d(56, 336, kernel_size=(1, 1), stride=(1, 1), bias=False)
          (_expand_conv_padding): Identity()
          (_bn0): BatchNorm2d(336, eps=0.001, momentum=0.01, affine=True, track_running_stats=True)
          (_depthwise_conv): Conv2d(336, 336, kernel_size=(3, 3), stride=(1, 1), groups=336, bias=False)
          (_depthwise_conv_padding): ConstantPad2d(padding=(1, 1, 1, 1), value=0.0)
          (_bn1): BatchNorm2d(336, eps=0.001, momentum=0.01, affine=True, track_running_stats=True)
          (_se_adaptpool): AdaptiveAvgPool2d(output_size=1)
          (_se_reduce): Conv2d(336, 14, kernel_size=(1, 1), stride=(1, 1))
          (_se_reduce_padding): Identity()
          (_se_expand): Conv2d(14, 336, kernel_size=(1, 1), stride=(1, 1))
          (_se_expand_padding): Identity()
          (_project_conv): Conv2d(336, 56, kernel_size=(1, 1), stride=(1, 1), bias=False)
          (_project_conv_padding): Identity()
          (_bn2): BatchNorm2d(56, eps=0.001, momentum=0.01, affine=True, track_running_stats=True)
          (_swish): MemoryEfficientSwish()
        )
        (9): MBConvBlock(
          (_expand_conv): Conv2d(56, 336, kernel_size=(1, 1), stride=(1, 1), bias=False)
          (_expand_conv_padding): Identity()
          (_bn0): BatchNorm2d(336, eps=0.001, momentum=0.01, affine=True, track_running_stats=True)
          (_depthwise_conv): Conv2d(336, 336, kernel_size=(3, 3), stride=(1, 1), groups=336, bias=False)
          (_depthwise_conv_padding): ConstantPad2d(padding=(1, 1, 1, 1), value=0.0)
          (_bn1): BatchNorm2d(336, eps=0.001, momentum=0.01, affine=True, track_running_stats=True)
          (_se_adaptpool): AdaptiveAvgPool2d(output_size=1)
          (_se_reduce): Conv2d(336, 14, kernel_size=(1, 1), stride=(1, 1))
          (_se_reduce_padding): Identity()
          (_se_expand): Conv2d(14, 336, kernel_size=(1, 1), stride=(1, 1))
          (_se_expand_padding): Identity()
          (_project_conv): Conv2d(336, 56, kernel_size=(1, 1), stride=(1, 1), bias=False)
          (_project_conv_padding): Identity()
          (_bn2): BatchNorm2d(56, eps=0.001, momentum=0.01, affine=True, track_running_stats=True)
          (_swish): MemoryEfficientSwish()
        )
        (10): MBConvBlock(
          (_expand_conv): Conv2d(56, 336, kernel_size=(1, 1), stride=(1, 1), bias=False)
          (_expand_conv_padding): Identity()
          (_bn0): BatchNorm2d(336, eps=0.001, momentum=0.01, affine=True, track_running_stats=True)
          (_depthwise_conv): Conv2d(336, 336, kernel_size=(3, 3), stride=(1, 1), groups=336, bias=False)
          (_depthwise_conv_padding): ConstantPad2d(padding=(1, 1, 1, 1), value=0.0)
          (_bn1): BatchNorm2d(336, eps=0.001, momentum=0.01, affine=True, track_running_stats=True)
          (_se_adaptpool): AdaptiveAvgPool2d(output_size=1)
          (_se_reduce): Conv2d(336, 14, kernel_size=(1, 1), stride=(1, 1))
          (_se_reduce_padding): Identity()
          (_se_expand): Conv2d(14, 336, kernel_size=(1, 1), stride=(1, 1))
          (_se_expand_padding): Identity()
          (_project_conv): Conv2d(336, 56, kernel_size=(1, 1), stride=(1, 1), bias=False)
          (_project_conv_padding): Identity()
          (_bn2): BatchNorm2d(56, eps=0.001, momentum=0.01, affine=True, track_running_stats=True)
          (_swish): MemoryEfficientSwish()
        )
        (11): MBConvBlock(
          (_expand_conv): Conv2d(56, 336, kernel_size=(1, 1), stride=(1, 1), bias=False)
          (_expand_conv_padding): Identity()
          (_bn0): BatchNorm2d(336, eps=0.001, momentum=0.01, affine=True, track_running_stats=True)
          (_depthwise_conv): Conv2d(336, 336, kernel_size=(3, 3), stride=(1, 1), groups=336, bias=False)
          (_depthwise_conv_padding): ConstantPad2d(padding=(1, 1, 1, 1), value=0.0)
          (_bn1): BatchNorm2d(336, eps=0.001, momentum=0.01, affine=True, track_running_stats=True)
          (_se_adaptpool): AdaptiveAvgPool2d(output_size=1)
          (_se_reduce): Conv2d(336, 14, kernel_size=(1, 1), stride=(1, 1))
          (_se_reduce_padding): Identity()
          (_se_expand): Conv2d(14, 336, kernel_size=(1, 1), stride=(1, 1))
          (_se_expand_padding): Identity()
          (_project_conv): Conv2d(336, 56, kernel_size=(1, 1), stride=(1, 1), bias=False)
          (_project_conv_padding): Identity()
          (_bn2): BatchNorm2d(56, eps=0.001, momentum=0.01, affine=True, track_running_stats=True)
          (_swish): MemoryEfficientSwish()
        )
      )
      (2): Sequential(
        (12): MBConvBlock(
          (_expand_conv): Conv2d(56, 336, kernel_size=(1, 1), stride=(1, 1), bias=False)
          (_expand_conv_padding): Identity()
          (_bn0): BatchNorm2d(336, eps=0.001, momentum=0.01, affine=True, track_running_stats=True)
          (_depthwise_conv): Conv2d(336, 336, kernel_size=(5, 5), stride=(2, 2), groups=336, bias=False)
          (_depthwise_conv_padding): ConstantPad2d(padding=(1, 2, 1, 2), value=0.0)
          (_bn1): BatchNorm2d(336, eps=0.001, momentum=0.01, affine=True, track_running_stats=True)
          (_se_adaptpool): AdaptiveAvgPool2d(output_size=1)
          (_se_reduce): Conv2d(336, 14, kernel_size=(1, 1), stride=(1, 1))
          (_se_reduce_padding): Identity()
          (_se_expand): Conv2d(14, 336, kernel_size=(1, 1), stride=(1, 1))
          (_se_expand_padding): Identity()
          (_project_conv): Conv2d(336, 88, kernel_size=(1, 1), stride=(1, 1), bias=False)
          (_project_conv_padding): Identity()
          (_bn2): BatchNorm2d(88, eps=0.001, momentum=0.01, affine=True, track_running_stats=True)
          (_swish): MemoryEfficientSwish()
        )
        (13): MBConvBlock(
          (_expand_conv): Conv2d(88, 528, kernel_size=(1, 1), stride=(1, 1), bias=False)
          (_expand_conv_padding): Identity()
          (_bn0): BatchNorm2d(528, eps=0.001, momentum=0.01, affine=True, track_running_stats=True)
          (_depthwise_conv): Conv2d(528, 528, kernel_size=(5, 5), stride=(1, 1), groups=528, bias=False)
          (_depthwise_conv_padding): ConstantPad2d(padding=(2, 2, 2, 2), value=0.0)
          (_bn1): BatchNorm2d(528, eps=0.001, momentum=0.01, affine=True, track_running_stats=True)
          (_se_adaptpool): AdaptiveAvgPool2d(output_size=1)
          (_se_reduce): Conv2d(528, 22, kernel_size=(1, 1), stride=(1, 1))
          (_se_reduce_padding): Identity()
          (_se_expand): Conv2d(22, 528, kernel_size=(1, 1), stride=(1, 1))
          (_se_expand_padding): Identity()
          (_project_conv): Conv2d(528, 88, kernel_size=(1, 1), stride=(1, 1), bias=False)
          (_project_conv_padding): Identity()
          (_bn2): BatchNorm2d(88, eps=0.001, momentum=0.01, affine=True, track_running_stats=True)
          (_swish): MemoryEfficientSwish()
        )
        (14): MBConvBlock(
          (_expand_conv): Conv2d(88, 528, kernel_size=(1, 1), stride=(1, 1), bias=False)
          (_expand_conv_padding): Identity()
          (_bn0): BatchNorm2d(528, eps=0.001, momentum=0.01, affine=True, track_running_stats=True)
          (_depthwise_conv): Conv2d(528, 528, kernel_size=(5, 5), stride=(1, 1), groups=528, bias=False)
          (_depthwise_conv_padding): ConstantPad2d(padding=(2, 2, 2, 2), value=0.0)
          (_bn1): BatchNorm2d(528, eps=0.001, momentum=0.01, affine=True, track_running_stats=True)
          (_se_adaptpool): AdaptiveAvgPool2d(output_size=1)
          (_se_reduce): Conv2d(528, 22, kernel_size=(1, 1), stride=(1, 1))
          (_se_reduce_padding): Identity()
          (_se_expand): Conv2d(22, 528, kernel_size=(1, 1), stride=(1, 1))
          (_se_expand_padding): Identity()
          (_project_conv): Conv2d(528, 88, kernel_size=(1, 1), stride=(1, 1), bias=False)
          (_project_conv_padding): Identity()
          (_bn2): BatchNorm2d(88, eps=0.001, momentum=0.01, affine=True, track_running_stats=True)
          (_swish): MemoryEfficientSwish()
        )
        (15): MBConvBlock(
          (_expand_conv): Conv2d(88, 528, kernel_size=(1, 1), stride=(1, 1), bias=False)
          (_expand_conv_padding): Identity()
          (_bn0): BatchNorm2d(528, eps=0.001, momentum=0.01, affine=True, track_running_stats=True)
          (_depthwise_conv): Conv2d(528, 528, kernel_size=(5, 5), stride=(1, 1), groups=528, bias=False)
          (_depthwise_conv_padding): ConstantPad2d(padding=(2, 2, 2, 2), value=0.0)
          (_bn1): BatchNorm2d(528, eps=0.001, momentum=0.01, affine=True, track_running_stats=True)
          (_se_adaptpool): AdaptiveAvgPool2d(output_size=1)
          (_se_reduce): Conv2d(528, 22, kernel_size=(1, 1), stride=(1, 1))
          (_se_reduce_padding): Identity()
          (_se_expand): Conv2d(22, 528, kernel_size=(1, 1), stride=(1, 1))
          (_se_expand_padding): Identity()
          (_project_conv): Conv2d(528, 88, kernel_size=(1, 1), stride=(1, 1), bias=False)
          (_project_conv_padding): Identity()
          (_bn2): BatchNorm2d(88, eps=0.001, momentum=0.01, affine=True, track_running_stats=True)
          (_swish): MemoryEfficientSwish()
        )
        (16): MBConvBlock(
          (_expand_conv): Conv2d(88, 528, kernel_size=(1, 1), stride=(1, 1), bias=False)
          (_expand_conv_padding): Identity()
          (_bn0): BatchNorm2d(528, eps=0.001, momentum=0.01, affine=True, track_running_stats=True)
          (_depthwise_conv): Conv2d(528, 528, kernel_size=(5, 5), stride=(1, 1), groups=528, bias=False)
          (_depthwise_conv_padding): ConstantPad2d(padding=(2, 2, 2, 2), value=0.0)
          (_bn1): BatchNorm2d(528, eps=0.001, momentum=0.01, affine=True, track_running_stats=True)
          (_se_adaptpool): AdaptiveAvgPool2d(output_size=1)
          (_se_reduce): Conv2d(528, 22, kernel_size=(1, 1), stride=(1, 1))
          (_se_reduce_padding): Identity()
          (_se_expand): Conv2d(22, 528, kernel_size=(1, 1), stride=(1, 1))
          (_se_expand_padding): Identity()
          (_project_conv): Conv2d(528, 88, kernel_size=(1, 1), stride=(1, 1), bias=False)
          (_project_conv_padding): Identity()
          (_bn2): BatchNorm2d(88, eps=0.001, momentum=0.01, affine=True, track_running_stats=True)
          (_swish): MemoryEfficientSwish()
        )
        (17): MBConvBlock(
          (_expand_conv): Conv2d(88, 528, kernel_size=(1, 1), stride=(1, 1), bias=False)
          (_expand_conv_padding): Identity()
          (_bn0): BatchNorm2d(528, eps=0.001, momentum=0.01, affine=True, track_running_stats=True)
          (_depthwise_conv): Conv2d(528, 528, kernel_size=(5, 5), stride=(1, 1), groups=528, bias=False)
          (_depthwise_conv_padding): ConstantPad2d(padding=(2, 2, 2, 2), value=0.0)
          (_bn1): BatchNorm2d(528, eps=0.001, momentum=0.01, affine=True, track_running_stats=True)
          (_se_adaptpool): AdaptiveAvgPool2d(output_size=1)
          (_se_reduce): Conv2d(528, 22, kernel_size=(1, 1), stride=(1, 1))
          (_se_reduce_padding): Identity()
          (_se_expand): Conv2d(22, 528, kernel_size=(1, 1), stride=(1, 1))
          (_se_expand_padding): Identity()
          (_project_conv): Conv2d(528, 88, kernel_size=(1, 1), stride=(1, 1), bias=False)
          (_project_conv_padding): Identity()
          (_bn2): BatchNorm2d(88, eps=0.001, momentum=0.01, affine=True, track_running_stats=True)
          (_swish): MemoryEfficientSwish()
        )
        (18): MBConvBlock(
          (_expand_conv): Conv2d(88, 528, kernel_size=(1, 1), stride=(1, 1), bias=False)
          (_expand_conv_padding): Identity()
          (_bn0): BatchNorm2d(528, eps=0.001, momentum=0.01, affine=True, track_running_stats=True)
          (_depthwise_conv): Conv2d(528, 528, kernel_size=(5, 5), stride=(1, 1), groups=528, bias=False)
          (_depthwise_conv_padding): ConstantPad2d(padding=(2, 2, 2, 2), value=0.0)
          (_bn1): BatchNorm2d(528, eps=0.001, momentum=0.01, affine=True, track_running_stats=True)
          (_se_adaptpool): AdaptiveAvgPool2d(output_size=1)
          (_se_reduce): Conv2d(528, 22, kernel_size=(1, 1), stride=(1, 1))
          (_se_reduce_padding): Identity()
          (_se_expand): Conv2d(22, 528, kernel_size=(1, 1), stride=(1, 1))
          (_se_expand_padding): Identity()
          (_project_conv): Conv2d(528, 88, kernel_size=(1, 1), stride=(1, 1), bias=False)
          (_project_conv_padding): Identity()
          (_bn2): BatchNorm2d(88, eps=0.001, momentum=0.01, affine=True, track_running_stats=True)
          (_swish): MemoryEfficientSwish()
        )
        (19): MBConvBlock(
          (_expand_conv): Conv2d(88, 528, kernel_size=(1, 1), stride=(1, 1), bias=False)
          (_expand_conv_padding): Identity()
          (_bn0): BatchNorm2d(528, eps=0.001, momentum=0.01, affine=True, track_running_stats=True)
          (_depthwise_conv): Conv2d(528, 528, kernel_size=(5, 5), stride=(1, 1), groups=528, bias=False)
          (_depthwise_conv_padding): ConstantPad2d(padding=(2, 2, 2, 2), value=0.0)
          (_bn1): BatchNorm2d(528, eps=0.001, momentum=0.01, affine=True, track_running_stats=True)
          (_se_adaptpool): AdaptiveAvgPool2d(output_size=1)
          (_se_reduce): Conv2d(528, 22, kernel_size=(1, 1), stride=(1, 1))
          (_se_reduce_padding): Identity()
          (_se_expand): Conv2d(22, 528, kernel_size=(1, 1), stride=(1, 1))
          (_se_expand_padding): Identity()
          (_project_conv): Conv2d(528, 88, kernel_size=(1, 1), stride=(1, 1), bias=False)
          (_project_conv_padding): Identity()
          (_bn2): BatchNorm2d(88, eps=0.001, momentum=0.01, affine=True, track_running_stats=True)
          (_swish): MemoryEfficientSwish()
        )
      )
      (3): Sequential(
        (20): MBConvBlock(
          (_expand_conv): Conv2d(88, 528, kernel_size=(1, 1), stride=(1, 1), bias=False)
          (_expand_conv_padding): Identity()
          (_bn0): BatchNorm2d(528, eps=0.001, momentum=0.01, affine=True, track_running_stats=True)
          (_depthwise_conv): Conv2d(528, 528, kernel_size=(3, 3), stride=(2, 2), groups=528, bias=False)
          (_depthwise_conv_padding): ConstantPad2d(padding=(0, 1, 0, 1), value=0.0)
          (_bn1): BatchNorm2d(528, eps=0.001, momentum=0.01, affine=True, track_running_stats=True)
          (_se_adaptpool): AdaptiveAvgPool2d(output_size=1)
          (_se_reduce): Conv2d(528, 22, kernel_size=(1, 1), stride=(1, 1))
          (_se_reduce_padding): Identity()
          (_se_expand): Conv2d(22, 528, kernel_size=(1, 1), stride=(1, 1))
          (_se_expand_padding): Identity()
          (_project_conv): Conv2d(528, 176, kernel_size=(1, 1), stride=(1, 1), bias=False)
          (_project_conv_padding): Identity()
          (_bn2): BatchNorm2d(176, eps=0.001, momentum=0.01, affine=True, track_running_stats=True)
          (_swish): MemoryEfficientSwish()
        )
        (21): MBConvBlock(
          (_expand_conv): Conv2d(176, 1056, kernel_size=(1, 1), stride=(1, 1), bias=False)
          (_expand_conv_padding): Identity()
          (_bn0): BatchNorm2d(1056, eps=0.001, momentum=0.01, affine=True, track_running_stats=True)
          (_depthwise_conv): Conv2d(1056, 1056, kernel_size=(3, 3), stride=(1, 1), groups=1056, bias=False)
          (_depthwise_conv_padding): ConstantPad2d(padding=(1, 1, 1, 1), value=0.0)
          (_bn1): BatchNorm2d(1056, eps=0.001, momentum=0.01, affine=True, track_running_stats=True)
          (_se_adaptpool): AdaptiveAvgPool2d(output_size=1)
          (_se_reduce): Conv2d(1056, 44, kernel_size=(1, 1), stride=(1, 1))
          (_se_reduce_padding): Identity()
          (_se_expand): Conv2d(44, 1056, kernel_size=(1, 1), stride=(1, 1))
          (_se_expand_padding): Identity()
          (_project_conv): Conv2d(1056, 176, kernel_size=(1, 1), stride=(1, 1), bias=False)
          (_project_conv_padding): Identity()
          (_bn2): BatchNorm2d(176, eps=0.001, momentum=0.01, affine=True, track_running_stats=True)
          (_swish): MemoryEfficientSwish()
        )
        (22): MBConvBlock(
          (_expand_conv): Conv2d(176, 1056, kernel_size=(1, 1), stride=(1, 1), bias=False)
          (_expand_conv_padding): Identity()
          (_bn0): BatchNorm2d(1056, eps=0.001, momentum=0.01, affine=True, track_running_stats=True)
          (_depthwise_conv): Conv2d(1056, 1056, kernel_size=(3, 3), stride=(1, 1), groups=1056, bias=False)
          (_depthwise_conv_padding): ConstantPad2d(padding=(1, 1, 1, 1), value=0.0)
          (_bn1): BatchNorm2d(1056, eps=0.001, momentum=0.01, affine=True, track_running_stats=True)
          (_se_adaptpool): AdaptiveAvgPool2d(output_size=1)
          (_se_reduce): Conv2d(1056, 44, kernel_size=(1, 1), stride=(1, 1))
          (_se_reduce_padding): Identity()
          (_se_expand): Conv2d(44, 1056, kernel_size=(1, 1), stride=(1, 1))
          (_se_expand_padding): Identity()
          (_project_conv): Conv2d(1056, 176, kernel_size=(1, 1), stride=(1, 1), bias=False)
          (_project_conv_padding): Identity()
          (_bn2): BatchNorm2d(176, eps=0.001, momentum=0.01, affine=True, track_running_stats=True)
          (_swish): MemoryEfficientSwish()
        )
        (23): MBConvBlock(
          (_expand_conv): Conv2d(176, 1056, kernel_size=(1, 1), stride=(1, 1), bias=False)
          (_expand_conv_padding): Identity()
          (_bn0): BatchNorm2d(1056, eps=0.001, momentum=0.01, affine=True, track_running_stats=True)
          (_depthwise_conv): Conv2d(1056, 1056, kernel_size=(3, 3), stride=(1, 1), groups=1056, bias=False)
          (_depthwise_conv_padding): ConstantPad2d(padding=(1, 1, 1, 1), value=0.0)
          (_bn1): BatchNorm2d(1056, eps=0.001, momentum=0.01, affine=True, track_running_stats=True)
          (_se_adaptpool): AdaptiveAvgPool2d(output_size=1)
          (_se_reduce): Conv2d(1056, 44, kernel_size=(1, 1), stride=(1, 1))
          (_se_reduce_padding): Identity()
          (_se_expand): Conv2d(44, 1056, kernel_size=(1, 1), stride=(1, 1))
          (_se_expand_padding): Identity()
          (_project_conv): Conv2d(1056, 176, kernel_size=(1, 1), stride=(1, 1), bias=False)
          (_project_conv_padding): Identity()
          (_bn2): BatchNorm2d(176, eps=0.001, momentum=0.01, affine=True, track_running_stats=True)
          (_swish): MemoryEfficientSwish()
        )
        (24): MBConvBlock(
          (_expand_conv): Conv2d(176, 1056, kernel_size=(1, 1), stride=(1, 1), bias=False)
          (_expand_conv_padding): Identity()
          (_bn0): BatchNorm2d(1056, eps=0.001, momentum=0.01, affine=True, track_running_stats=True)
          (_depthwise_conv): Conv2d(1056, 1056, kernel_size=(3, 3), stride=(1, 1), groups=1056, bias=False)
          (_depthwise_conv_padding): ConstantPad2d(padding=(1, 1, 1, 1), value=0.0)
          (_bn1): BatchNorm2d(1056, eps=0.001, momentum=0.01, affine=True, track_running_stats=True)
          (_se_adaptpool): AdaptiveAvgPool2d(output_size=1)
          (_se_reduce): Conv2d(1056, 44, kernel_size=(1, 1), stride=(1, 1))
          (_se_reduce_padding): Identity()
          (_se_expand): Conv2d(44, 1056, kernel_size=(1, 1), stride=(1, 1))
          (_se_expand_padding): Identity()
          (_project_conv): Conv2d(1056, 176, kernel_size=(1, 1), stride=(1, 1), bias=False)
          (_project_conv_padding): Identity()
          (_bn2): BatchNorm2d(176, eps=0.001, momentum=0.01, affine=True, track_running_stats=True)
          (_swish): MemoryEfficientSwish()
        )
        (25): MBConvBlock(
          (_expand_conv): Conv2d(176, 1056, kernel_size=(1, 1), stride=(1, 1), bias=False)
          (_expand_conv_padding): Identity()
          (_bn0): BatchNorm2d(1056, eps=0.001, momentum=0.01, affine=True, track_running_stats=True)
          (_depthwise_conv): Conv2d(1056, 1056, kernel_size=(3, 3), stride=(1, 1), groups=1056, bias=False)
          (_depthwise_conv_padding): ConstantPad2d(padding=(1, 1, 1, 1), value=0.0)
          (_bn1): BatchNorm2d(1056, eps=0.001, momentum=0.01, affine=True, track_running_stats=True)
          (_se_adaptpool): AdaptiveAvgPool2d(output_size=1)
          (_se_reduce): Conv2d(1056, 44, kernel_size=(1, 1), stride=(1, 1))
          (_se_reduce_padding): Identity()
          (_se_expand): Conv2d(44, 1056, kernel_size=(1, 1), stride=(1, 1))
          (_se_expand_padding): Identity()
          (_project_conv): Conv2d(1056, 176, kernel_size=(1, 1), stride=(1, 1), bias=False)
          (_project_conv_padding): Identity()
          (_bn2): BatchNorm2d(176, eps=0.001, momentum=0.01, affine=True, track_running_stats=True)
          (_swish): MemoryEfficientSwish()
        )
        (26): MBConvBlock(
          (_expand_conv): Conv2d(176, 1056, kernel_size=(1, 1), stride=(1, 1), bias=False)
          (_expand_conv_padding): Identity()
          (_bn0): BatchNorm2d(1056, eps=0.001, momentum=0.01, affine=True, track_running_stats=True)
          (_depthwise_conv): Conv2d(1056, 1056, kernel_size=(3, 3), stride=(1, 1), groups=1056, bias=False)
          (_depthwise_conv_padding): ConstantPad2d(padding=(1, 1, 1, 1), value=0.0)
          (_bn1): BatchNorm2d(1056, eps=0.001, momentum=0.01, affine=True, track_running_stats=True)
          (_se_adaptpool): AdaptiveAvgPool2d(output_size=1)
          (_se_reduce): Conv2d(1056, 44, kernel_size=(1, 1), stride=(1, 1))
          (_se_reduce_padding): Identity()
          (_se_expand): Conv2d(44, 1056, kernel_size=(1, 1), stride=(1, 1))
          (_se_expand_padding): Identity()
          (_project_conv): Conv2d(1056, 176, kernel_size=(1, 1), stride=(1, 1), bias=False)
          (_project_conv_padding): Identity()
          (_bn2): BatchNorm2d(176, eps=0.001, momentum=0.01, affine=True, track_running_stats=True)
          (_swish): MemoryEfficientSwish()
        )
        (27): MBConvBlock(
          (_expand_conv): Conv2d(176, 1056, kernel_size=(1, 1), stride=(1, 1), bias=False)
          (_expand_conv_padding): Identity()
          (_bn0): BatchNorm2d(1056, eps=0.001, momentum=0.01, affine=True, track_running_stats=True)
          (_depthwise_conv): Conv2d(1056, 1056, kernel_size=(3, 3), stride=(1, 1), groups=1056, bias=False)
          (_depthwise_conv_padding): ConstantPad2d(padding=(1, 1, 1, 1), value=0.0)
          (_bn1): BatchNorm2d(1056, eps=0.001, momentum=0.01, affine=True, track_running_stats=True)
          (_se_adaptpool): AdaptiveAvgPool2d(output_size=1)
          (_se_reduce): Conv2d(1056, 44, kernel_size=(1, 1), stride=(1, 1))
          (_se_reduce_padding): Identity()
          (_se_expand): Conv2d(44, 1056, kernel_size=(1, 1), stride=(1, 1))
          (_se_expand_padding): Identity()
          (_project_conv): Conv2d(1056, 176, kernel_size=(1, 1), stride=(1, 1), bias=False)
          (_project_conv_padding): Identity()
          (_bn2): BatchNorm2d(176, eps=0.001, momentum=0.01, affine=True, track_running_stats=True)
          (_swish): MemoryEfficientSwish()
        )
        (28): MBConvBlock(
          (_expand_conv): Conv2d(176, 1056, kernel_size=(1, 1), stride=(1, 1), bias=False)
          (_expand_conv_padding): Identity()
          (_bn0): BatchNorm2d(1056, eps=0.001, momentum=0.01, affine=True, track_running_stats=True)
          (_depthwise_conv): Conv2d(1056, 1056, kernel_size=(3, 3), stride=(1, 1), groups=1056, bias=False)
          (_depthwise_conv_padding): ConstantPad2d(padding=(1, 1, 1, 1), value=0.0)
          (_bn1): BatchNorm2d(1056, eps=0.001, momentum=0.01, affine=True, track_running_stats=True)
          (_se_adaptpool): AdaptiveAvgPool2d(output_size=1)
          (_se_reduce): Conv2d(1056, 44, kernel_size=(1, 1), stride=(1, 1))
          (_se_reduce_padding): Identity()
          (_se_expand): Conv2d(44, 1056, kernel_size=(1, 1), stride=(1, 1))
          (_se_expand_padding): Identity()
          (_project_conv): Conv2d(1056, 176, kernel_size=(1, 1), stride=(1, 1), bias=False)
          (_project_conv_padding): Identity()
          (_bn2): BatchNorm2d(176, eps=0.001, momentum=0.01, affine=True, track_running_stats=True)
          (_swish): MemoryEfficientSwish()
        )
        (29): MBConvBlock(
          (_expand_conv): Conv2d(176, 1056, kernel_size=(1, 1), stride=(1, 1), bias=False)
          (_expand_conv_padding): Identity()
          (_bn0): BatchNorm2d(1056, eps=0.001, momentum=0.01, affine=True, track_running_stats=True)
          (_depthwise_conv): Conv2d(1056, 1056, kernel_size=(3, 3), stride=(1, 1), groups=1056, bias=False)
          (_depthwise_conv_padding): ConstantPad2d(padding=(1, 1, 1, 1), value=0.0)
          (_bn1): BatchNorm2d(1056, eps=0.001, momentum=0.01, affine=True, track_running_stats=True)
          (_se_adaptpool): AdaptiveAvgPool2d(output_size=1)
          (_se_reduce): Conv2d(1056, 44, kernel_size=(1, 1), stride=(1, 1))
          (_se_reduce_padding): Identity()
          (_se_expand): Conv2d(44, 1056, kernel_size=(1, 1), stride=(1, 1))
          (_se_expand_padding): Identity()
          (_project_conv): Conv2d(1056, 176, kernel_size=(1, 1), stride=(1, 1), bias=False)
          (_project_conv_padding): Identity()
          (_bn2): BatchNorm2d(176, eps=0.001, momentum=0.01, affine=True, track_running_stats=True)
          (_swish): MemoryEfficientSwish()
        )
        (30): MBConvBlock(
          (_expand_conv): Conv2d(176, 1056, kernel_size=(1, 1), stride=(1, 1), bias=False)
          (_expand_conv_padding): Identity()
          (_bn0): BatchNorm2d(1056, eps=0.001, momentum=0.01, affine=True, track_running_stats=True)
          (_depthwise_conv): Conv2d(1056, 1056, kernel_size=(3, 3), stride=(1, 1), groups=1056, bias=False)
          (_depthwise_conv_padding): ConstantPad2d(padding=(1, 1, 1, 1), value=0.0)
          (_bn1): BatchNorm2d(1056, eps=0.001, momentum=0.01, affine=True, track_running_stats=True)
          (_se_adaptpool): AdaptiveAvgPool2d(output_size=1)
          (_se_reduce): Conv2d(1056, 44, kernel_size=(1, 1), stride=(1, 1))
          (_se_reduce_padding): Identity()
          (_se_expand): Conv2d(44, 1056, kernel_size=(1, 1), stride=(1, 1))
          (_se_expand_padding): Identity()
          (_project_conv): Conv2d(1056, 176, kernel_size=(1, 1), stride=(1, 1), bias=False)
          (_project_conv_padding): Identity()
          (_bn2): BatchNorm2d(176, eps=0.001, momentum=0.01, affine=True, track_running_stats=True)
          (_swish): MemoryEfficientSwish()
        )
      )
      (4): Sequential(
        (31): MBConvBlock(
          (_expand_conv): Conv2d(176, 1056, kernel_size=(1, 1), stride=(1, 1), bias=False)
          (_expand_conv_padding): Identity()
          (_bn0): BatchNorm2d(1056, eps=0.001, momentum=0.01, affine=True, track_running_stats=True)
          (_depthwise_conv): Conv2d(1056, 1056, kernel_size=(5, 5), stride=(1, 1), groups=1056, bias=False)
          (_depthwise_conv_padding): ConstantPad2d(padding=(2, 2, 2, 2), value=0.0)
          (_bn1): BatchNorm2d(1056, eps=0.001, momentum=0.01, affine=True, track_running_stats=True)
          (_se_adaptpool): AdaptiveAvgPool2d(output_size=1)
          (_se_reduce): Conv2d(1056, 44, kernel_size=(1, 1), stride=(1, 1))
          (_se_reduce_padding): Identity()
          (_se_expand): Conv2d(44, 1056, kernel_size=(1, 1), stride=(1, 1))
          (_se_expand_padding): Identity()
          (_project_conv): Conv2d(1056, 248, kernel_size=(1, 1), stride=(1, 1), bias=False)
          (_project_conv_padding): Identity()
          (_bn2): BatchNorm2d(248, eps=0.001, momentum=0.01, affine=True, track_running_stats=True)
          (_swish): MemoryEfficientSwish()
        )
        (32): MBConvBlock(
          (_expand_conv): Conv2d(248, 1488, kernel_size=(1, 1), stride=(1, 1), bias=False)
          (_expand_conv_padding): Identity()
          (_bn0): BatchNorm2d(1488, eps=0.001, momentum=0.01, affine=True, track_running_stats=True)
          (_depthwise_conv): Conv2d(1488, 1488, kernel_size=(5, 5), stride=(1, 1), groups=1488, bias=False)
          (_depthwise_conv_padding): ConstantPad2d(padding=(2, 2, 2, 2), value=0.0)
          (_bn1): BatchNorm2d(1488, eps=0.001, momentum=0.01, affine=True, track_running_stats=True)
          (_se_adaptpool): AdaptiveAvgPool2d(output_size=1)
          (_se_reduce): Conv2d(1488, 62, kernel_size=(1, 1), stride=(1, 1))
          (_se_reduce_padding): Identity()
          (_se_expand): Conv2d(62, 1488, kernel_size=(1, 1), stride=(1, 1))
          (_se_expand_padding): Identity()
          (_project_conv): Conv2d(1488, 248, kernel_size=(1, 1), stride=(1, 1), bias=False)
          (_project_conv_padding): Identity()
          (_bn2): BatchNorm2d(248, eps=0.001, momentum=0.01, affine=True, track_running_stats=True)
          (_swish): MemoryEfficientSwish()
        )
        (33): MBConvBlock(
          (_expand_conv): Conv2d(248, 1488, kernel_size=(1, 1), stride=(1, 1), bias=False)
          (_expand_conv_padding): Identity()
          (_bn0): BatchNorm2d(1488, eps=0.001, momentum=0.01, affine=True, track_running_stats=True)
          (_depthwise_conv): Conv2d(1488, 1488, kernel_size=(5, 5), stride=(1, 1), groups=1488, bias=False)
          (_depthwise_conv_padding): ConstantPad2d(padding=(2, 2, 2, 2), value=0.0)
          (_bn1): BatchNorm2d(1488, eps=0.001, momentum=0.01, affine=True, track_running_stats=True)
          (_se_adaptpool): AdaptiveAvgPool2d(output_size=1)
          (_se_reduce): Conv2d(1488, 62, kernel_size=(1, 1), stride=(1, 1))
          (_se_reduce_padding): Identity()
          (_se_expand): Conv2d(62, 1488, kernel_size=(1, 1), stride=(1, 1))
          (_se_expand_padding): Identity()
          (_project_conv): Conv2d(1488, 248, kernel_size=(1, 1), stride=(1, 1), bias=False)
          (_project_conv_padding): Identity()
          (_bn2): BatchNorm2d(248, eps=0.001, momentum=0.01, affine=True, track_running_stats=True)
          (_swish): MemoryEfficientSwish()
        )
        (34): MBConvBlock(
          (_expand_conv): Conv2d(248, 1488, kernel_size=(1, 1), stride=(1, 1), bias=False)
          (_expand_conv_padding): Identity()
          (_bn0): BatchNorm2d(1488, eps=0.001, momentum=0.01, affine=True, track_running_stats=True)
          (_depthwise_conv): Conv2d(1488, 1488, kernel_size=(5, 5), stride=(1, 1), groups=1488, bias=False)
          (_depthwise_conv_padding): ConstantPad2d(padding=(2, 2, 2, 2), value=0.0)
          (_bn1): BatchNorm2d(1488, eps=0.001, momentum=0.01, affine=True, track_running_stats=True)
          (_se_adaptpool): AdaptiveAvgPool2d(output_size=1)
          (_se_reduce): Conv2d(1488, 62, kernel_size=(1, 1), stride=(1, 1))
          (_se_reduce_padding): Identity()
          (_se_expand): Conv2d(62, 1488, kernel_size=(1, 1), stride=(1, 1))
          (_se_expand_padding): Identity()
          (_project_conv): Conv2d(1488, 248, kernel_size=(1, 1), stride=(1, 1), bias=False)
          (_project_conv_padding): Identity()
          (_bn2): BatchNorm2d(248, eps=0.001, momentum=0.01, affine=True, track_running_stats=True)
          (_swish): MemoryEfficientSwish()
        )
        (35): MBConvBlock(
          (_expand_conv): Conv2d(248, 1488, kernel_size=(1, 1), stride=(1, 1), bias=False)
          (_expand_conv_padding): Identity()
          (_bn0): BatchNorm2d(1488, eps=0.001, momentum=0.01, affine=True, track_running_stats=True)
          (_depthwise_conv): Conv2d(1488, 1488, kernel_size=(5, 5), stride=(1, 1), groups=1488, bias=False)
          (_depthwise_conv_padding): ConstantPad2d(padding=(2, 2, 2, 2), value=0.0)
          (_bn1): BatchNorm2d(1488, eps=0.001, momentum=0.01, affine=True, track_running_stats=True)
          (_se_adaptpool): AdaptiveAvgPool2d(output_size=1)
          (_se_reduce): Conv2d(1488, 62, kernel_size=(1, 1), stride=(1, 1))
          (_se_reduce_padding): Identity()
          (_se_expand): Conv2d(62, 1488, kernel_size=(1, 1), stride=(1, 1))
          (_se_expand_padding): Identity()
          (_project_conv): Conv2d(1488, 248, kernel_size=(1, 1), stride=(1, 1), bias=False)
          (_project_conv_padding): Identity()
          (_bn2): BatchNorm2d(248, eps=0.001, momentum=0.01, affine=True, track_running_stats=True)
          (_swish): MemoryEfficientSwish()
        )
        (36): MBConvBlock(
          (_expand_conv): Conv2d(248, 1488, kernel_size=(1, 1), stride=(1, 1), bias=False)
          (_expand_conv_padding): Identity()
          (_bn0): BatchNorm2d(1488, eps=0.001, momentum=0.01, affine=True, track_running_stats=True)
          (_depthwise_conv): Conv2d(1488, 1488, kernel_size=(5, 5), stride=(1, 1), groups=1488, bias=False)
          (_depthwise_conv_padding): ConstantPad2d(padding=(2, 2, 2, 2), value=0.0)
          (_bn1): BatchNorm2d(1488, eps=0.001, momentum=0.01, affine=True, track_running_stats=True)
          (_se_adaptpool): AdaptiveAvgPool2d(output_size=1)
          (_se_reduce): Conv2d(1488, 62, kernel_size=(1, 1), stride=(1, 1))
          (_se_reduce_padding): Identity()
          (_se_expand): Conv2d(62, 1488, kernel_size=(1, 1), stride=(1, 1))
          (_se_expand_padding): Identity()
          (_project_conv): Conv2d(1488, 248, kernel_size=(1, 1), stride=(1, 1), bias=False)
          (_project_conv_padding): Identity()
          (_bn2): BatchNorm2d(248, eps=0.001, momentum=0.01, affine=True, track_running_stats=True)
          (_swish): MemoryEfficientSwish()
        )
        (37): MBConvBlock(
          (_expand_conv): Conv2d(248, 1488, kernel_size=(1, 1), stride=(1, 1), bias=False)
          (_expand_conv_padding): Identity()
          (_bn0): BatchNorm2d(1488, eps=0.001, momentum=0.01, affine=True, track_running_stats=True)
          (_depthwise_conv): Conv2d(1488, 1488, kernel_size=(5, 5), stride=(1, 1), groups=1488, bias=False)
          (_depthwise_conv_padding): ConstantPad2d(padding=(2, 2, 2, 2), value=0.0)
          (_bn1): BatchNorm2d(1488, eps=0.001, momentum=0.01, affine=True, track_running_stats=True)
          (_se_adaptpool): AdaptiveAvgPool2d(output_size=1)
          (_se_reduce): Conv2d(1488, 62, kernel_size=(1, 1), stride=(1, 1))
          (_se_reduce_padding): Identity()
          (_se_expand): Conv2d(62, 1488, kernel_size=(1, 1), stride=(1, 1))
          (_se_expand_padding): Identity()
          (_project_conv): Conv2d(1488, 248, kernel_size=(1, 1), stride=(1, 1), bias=False)
          (_project_conv_padding): Identity()
          (_bn2): BatchNorm2d(248, eps=0.001, momentum=0.01, affine=True, track_running_stats=True)
          (_swish): MemoryEfficientSwish()
        )
        (38): MBConvBlock(
          (_expand_conv): Conv2d(248, 1488, kernel_size=(1, 1), stride=(1, 1), bias=False)
          (_expand_conv_padding): Identity()
          (_bn0): BatchNorm2d(1488, eps=0.001, momentum=0.01, affine=True, track_running_stats=True)
          (_depthwise_conv): Conv2d(1488, 1488, kernel_size=(5, 5), stride=(1, 1), groups=1488, bias=False)
          (_depthwise_conv_padding): ConstantPad2d(padding=(2, 2, 2, 2), value=0.0)
          (_bn1): BatchNorm2d(1488, eps=0.001, momentum=0.01, affine=True, track_running_stats=True)
          (_se_adaptpool): AdaptiveAvgPool2d(output_size=1)
          (_se_reduce): Conv2d(1488, 62, kernel_size=(1, 1), stride=(1, 1))
          (_se_reduce_padding): Identity()
          (_se_expand): Conv2d(62, 1488, kernel_size=(1, 1), stride=(1, 1))
          (_se_expand_padding): Identity()
          (_project_conv): Conv2d(1488, 248, kernel_size=(1, 1), stride=(1, 1), bias=False)
          (_project_conv_padding): Identity()
          (_bn2): BatchNorm2d(248, eps=0.001, momentum=0.01, affine=True, track_running_stats=True)
          (_swish): MemoryEfficientSwish()
        )
        (39): MBConvBlock(
          (_expand_conv): Conv2d(248, 1488, kernel_size=(1, 1), stride=(1, 1), bias=False)
          (_expand_conv_padding): Identity()
          (_bn0): BatchNorm2d(1488, eps=0.001, momentum=0.01, affine=True, track_running_stats=True)
          (_depthwise_conv): Conv2d(1488, 1488, kernel_size=(5, 5), stride=(1, 1), groups=1488, bias=False)
          (_depthwise_conv_padding): ConstantPad2d(padding=(2, 2, 2, 2), value=0.0)
          (_bn1): BatchNorm2d(1488, eps=0.001, momentum=0.01, affine=True, track_running_stats=True)
          (_se_adaptpool): AdaptiveAvgPool2d(output_size=1)
          (_se_reduce): Conv2d(1488, 62, kernel_size=(1, 1), stride=(1, 1))
          (_se_reduce_padding): Identity()
          (_se_expand): Conv2d(62, 1488, kernel_size=(1, 1), stride=(1, 1))
          (_se_expand_padding): Identity()
          (_project_conv): Conv2d(1488, 248, kernel_size=(1, 1), stride=(1, 1), bias=False)
          (_project_conv_padding): Identity()
          (_bn2): BatchNorm2d(248, eps=0.001, momentum=0.01, affine=True, track_running_stats=True)
          (_swish): MemoryEfficientSwish()
        )
        (40): MBConvBlock(
          (_expand_conv): Conv2d(248, 1488, kernel_size=(1, 1), stride=(1, 1), bias=False)
          (_expand_conv_padding): Identity()
          (_bn0): BatchNorm2d(1488, eps=0.001, momentum=0.01, affine=True, track_running_stats=True)
          (_depthwise_conv): Conv2d(1488, 1488, kernel_size=(5, 5), stride=(1, 1), groups=1488, bias=False)
          (_depthwise_conv_padding): ConstantPad2d(padding=(2, 2, 2, 2), value=0.0)
          (_bn1): BatchNorm2d(1488, eps=0.001, momentum=0.01, affine=True, track_running_stats=True)
          (_se_adaptpool): AdaptiveAvgPool2d(output_size=1)
          (_se_reduce): Conv2d(1488, 62, kernel_size=(1, 1), stride=(1, 1))
          (_se_reduce_padding): Identity()
          (_se_expand): Conv2d(62, 1488, kernel_size=(1, 1), stride=(1, 1))
          (_se_expand_padding): Identity()
          (_project_conv): Conv2d(1488, 248, kernel_size=(1, 1), stride=(1, 1), bias=False)
          (_project_conv_padding): Identity()
          (_bn2): BatchNorm2d(248, eps=0.001, momentum=0.01, affine=True, track_running_stats=True)
          (_swish): MemoryEfficientSwish()
        )
        (41): MBConvBlock(
          (_expand_conv): Conv2d(248, 1488, kernel_size=(1, 1), stride=(1, 1), bias=False)
          (_expand_conv_padding): Identity()
          (_bn0): BatchNorm2d(1488, eps=0.001, momentum=0.01, affine=True, track_running_stats=True)
          (_depthwise_conv): Conv2d(1488, 1488, kernel_size=(5, 5), stride=(1, 1), groups=1488, bias=False)
          (_depthwise_conv_padding): ConstantPad2d(padding=(2, 2, 2, 2), value=0.0)
          (_bn1): BatchNorm2d(1488, eps=0.001, momentum=0.01, affine=True, track_running_stats=True)
          (_se_adaptpool): AdaptiveAvgPool2d(output_size=1)
          (_se_reduce): Conv2d(1488, 62, kernel_size=(1, 1), stride=(1, 1))
          (_se_reduce_padding): Identity()
          (_se_expand): Conv2d(62, 1488, kernel_size=(1, 1), stride=(1, 1))
          (_se_expand_padding): Identity()
          (_project_conv): Conv2d(1488, 248, kernel_size=(1, 1), stride=(1, 1), bias=False)
          (_project_conv_padding): Identity()
          (_bn2): BatchNorm2d(248, eps=0.001, momentum=0.01, affine=True, track_running_stats=True)
          (_swish): MemoryEfficientSwish()
        )
      )
      (5): Sequential(
        (42): MBConvBlock(
          (_expand_conv): Conv2d(248, 1488, kernel_size=(1, 1), stride=(1, 1), bias=False)
          (_expand_conv_padding): Identity()
          (_bn0): BatchNorm2d(1488, eps=0.001, momentum=0.01, affine=True, track_running_stats=True)
          (_depthwise_conv): Conv2d(1488, 1488, kernel_size=(5, 5), stride=(2, 2), groups=1488, bias=False)
          (_depthwise_conv_padding): ConstantPad2d(padding=(1, 2, 1, 2), value=0.0)
          (_bn1): BatchNorm2d(1488, eps=0.001, momentum=0.01, affine=True, track_running_stats=True)
          (_se_adaptpool): AdaptiveAvgPool2d(output_size=1)
          (_se_reduce): Conv2d(1488, 62, kernel_size=(1, 1), stride=(1, 1))
          (_se_reduce_padding): Identity()
          (_se_expand): Conv2d(62, 1488, kernel_size=(1, 1), stride=(1, 1))
          (_se_expand_padding): Identity()
          (_project_conv): Conv2d(1488, 424, kernel_size=(1, 1), stride=(1, 1), bias=False)
          (_project_conv_padding): Identity()
          (_bn2): BatchNorm2d(424, eps=0.001, momentum=0.01, affine=True, track_running_stats=True)
          (_swish): MemoryEfficientSwish()
        )
        (43): MBConvBlock(
          (_expand_conv): Conv2d(424, 2544, kernel_size=(1, 1), stride=(1, 1), bias=False)
          (_expand_conv_padding): Identity()
          (_bn0): BatchNorm2d(2544, eps=0.001, momentum=0.01, affine=True, track_running_stats=True)
          (_depthwise_conv): Conv2d(2544, 2544, kernel_size=(5, 5), stride=(1, 1), groups=2544, bias=False)
          (_depthwise_conv_padding): ConstantPad2d(padding=(2, 2, 2, 2), value=0.0)
          (_bn1): BatchNorm2d(2544, eps=0.001, momentum=0.01, affine=True, track_running_stats=True)
          (_se_adaptpool): AdaptiveAvgPool2d(output_size=1)
          (_se_reduce): Conv2d(2544, 106, kernel_size=(1, 1), stride=(1, 1))
          (_se_reduce_padding): Identity()
          (_se_expand): Conv2d(106, 2544, kernel_size=(1, 1), stride=(1, 1))
          (_se_expand_padding): Identity()
          (_project_conv): Conv2d(2544, 424, kernel_size=(1, 1), stride=(1, 1), bias=False)
          (_project_conv_padding): Identity()
          (_bn2): BatchNorm2d(424, eps=0.001, momentum=0.01, affine=True, track_running_stats=True)
          (_swish): MemoryEfficientSwish()
        )
        (44): MBConvBlock(
          (_expand_conv): Conv2d(424, 2544, kernel_size=(1, 1), stride=(1, 1), bias=False)
          (_expand_conv_padding): Identity()
          (_bn0): BatchNorm2d(2544, eps=0.001, momentum=0.01, affine=True, track_running_stats=True)
          (_depthwise_conv): Conv2d(2544, 2544, kernel_size=(5, 5), stride=(1, 1), groups=2544, bias=False)
          (_depthwise_conv_padding): ConstantPad2d(padding=(2, 2, 2, 2), value=0.0)
          (_bn1): BatchNorm2d(2544, eps=0.001, momentum=0.01, affine=True, track_running_stats=True)
          (_se_adaptpool): AdaptiveAvgPool2d(output_size=1)
          (_se_reduce): Conv2d(2544, 106, kernel_size=(1, 1), stride=(1, 1))
          (_se_reduce_padding): Identity()
          (_se_expand): Conv2d(106, 2544, kernel_size=(1, 1), stride=(1, 1))
          (_se_expand_padding): Identity()
          (_project_conv): Conv2d(2544, 424, kernel_size=(1, 1), stride=(1, 1), bias=False)
          (_project_conv_padding): Identity()
          (_bn2): BatchNorm2d(424, eps=0.001, momentum=0.01, affine=True, track_running_stats=True)
          (_swish): MemoryEfficientSwish()
        )
        (45): MBConvBlock(
          (_expand_conv): Conv2d(424, 2544, kernel_size=(1, 1), stride=(1, 1), bias=False)
          (_expand_conv_padding): Identity()
          (_bn0): BatchNorm2d(2544, eps=0.001, momentum=0.01, affine=True, track_running_stats=True)
          (_depthwise_conv): Conv2d(2544, 2544, kernel_size=(5, 5), stride=(1, 1), groups=2544, bias=False)
          (_depthwise_conv_padding): ConstantPad2d(padding=(2, 2, 2, 2), value=0.0)
          (_bn1): BatchNorm2d(2544, eps=0.001, momentum=0.01, affine=True, track_running_stats=True)
          (_se_adaptpool): AdaptiveAvgPool2d(output_size=1)
          (_se_reduce): Conv2d(2544, 106, kernel_size=(1, 1), stride=(1, 1))
          (_se_reduce_padding): Identity()
          (_se_expand): Conv2d(106, 2544, kernel_size=(1, 1), stride=(1, 1))
          (_se_expand_padding): Identity()
          (_project_conv): Conv2d(2544, 424, kernel_size=(1, 1), stride=(1, 1), bias=False)
          (_project_conv_padding): Identity()
          (_bn2): BatchNorm2d(424, eps=0.001, momentum=0.01, affine=True, track_running_stats=True)
          (_swish): MemoryEfficientSwish()
        )
        (46): MBConvBlock(
          (_expand_conv): Conv2d(424, 2544, kernel_size=(1, 1), stride=(1, 1), bias=False)
          (_expand_conv_padding): Identity()
          (_bn0): BatchNorm2d(2544, eps=0.001, momentum=0.01, affine=True, track_running_stats=True)
          (_depthwise_conv): Conv2d(2544, 2544, kernel_size=(5, 5), stride=(1, 1), groups=2544, bias=False)
          (_depthwise_conv_padding): ConstantPad2d(padding=(2, 2, 2, 2), value=0.0)
          (_bn1): BatchNorm2d(2544, eps=0.001, momentum=0.01, affine=True, track_running_stats=True)
          (_se_adaptpool): AdaptiveAvgPool2d(output_size=1)
          (_se_reduce): Conv2d(2544, 106, kernel_size=(1, 1), stride=(1, 1))
          (_se_reduce_padding): Identity()
          (_se_expand): Conv2d(106, 2544, kernel_size=(1, 1), stride=(1, 1))
          (_se_expand_padding): Identity()
          (_project_conv): Conv2d(2544, 424, kernel_size=(1, 1), stride=(1, 1), bias=False)
          (_project_conv_padding): Identity()
          (_bn2): BatchNorm2d(424, eps=0.001, momentum=0.01, affine=True, track_running_stats=True)
          (_swish): MemoryEfficientSwish()
        )
        (47): MBConvBlock(
          (_expand_conv): Conv2d(424, 2544, kernel_size=(1, 1), stride=(1, 1), bias=False)
          (_expand_conv_padding): Identity()
          (_bn0): BatchNorm2d(2544, eps=0.001, momentum=0.01, affine=True, track_running_stats=True)
          (_depthwise_conv): Conv2d(2544, 2544, kernel_size=(5, 5), stride=(1, 1), groups=2544, bias=False)
          (_depthwise_conv_padding): ConstantPad2d(padding=(2, 2, 2, 2), value=0.0)
          (_bn1): BatchNorm2d(2544, eps=0.001, momentum=0.01, affine=True, track_running_stats=True)
          (_se_adaptpool): AdaptiveAvgPool2d(output_size=1)
          (_se_reduce): Conv2d(2544, 106, kernel_size=(1, 1), stride=(1, 1))
          (_se_reduce_padding): Identity()
          (_se_expand): Conv2d(106, 2544, kernel_size=(1, 1), stride=(1, 1))
          (_se_expand_padding): Identity()
          (_project_conv): Conv2d(2544, 424, kernel_size=(1, 1), stride=(1, 1), bias=False)
          (_project_conv_padding): Identity()
          (_bn2): BatchNorm2d(424, eps=0.001, momentum=0.01, affine=True, track_running_stats=True)
          (_swish): MemoryEfficientSwish()
        )
        (48): MBConvBlock(
          (_expand_conv): Conv2d(424, 2544, kernel_size=(1, 1), stride=(1, 1), bias=False)
          (_expand_conv_padding): Identity()
          (_bn0): BatchNorm2d(2544, eps=0.001, momentum=0.01, affine=True, track_running_stats=True)
          (_depthwise_conv): Conv2d(2544, 2544, kernel_size=(5, 5), stride=(1, 1), groups=2544, bias=False)
          (_depthwise_conv_padding): ConstantPad2d(padding=(2, 2, 2, 2), value=0.0)
          (_bn1): BatchNorm2d(2544, eps=0.001, momentum=0.01, affine=True, track_running_stats=True)
          (_se_adaptpool): AdaptiveAvgPool2d(output_size=1)
          (_se_reduce): Conv2d(2544, 106, kernel_size=(1, 1), stride=(1, 1))
          (_se_reduce_padding): Identity()
          (_se_expand): Conv2d(106, 2544, kernel_size=(1, 1), stride=(1, 1))
          (_se_expand_padding): Identity()
          (_project_conv): Conv2d(2544, 424, kernel_size=(1, 1), stride=(1, 1), bias=False)
          (_project_conv_padding): Identity()
          (_bn2): BatchNorm2d(424, eps=0.001, momentum=0.01, affine=True, track_running_stats=True)
          (_swish): MemoryEfficientSwish()
        )
        (49): MBConvBlock(
          (_expand_conv): Conv2d(424, 2544, kernel_size=(1, 1), stride=(1, 1), bias=False)
          (_expand_conv_padding): Identity()
          (_bn0): BatchNorm2d(2544, eps=0.001, momentum=0.01, affine=True, track_running_stats=True)
          (_depthwise_conv): Conv2d(2544, 2544, kernel_size=(5, 5), stride=(1, 1), groups=2544, bias=False)
          (_depthwise_conv_padding): ConstantPad2d(padding=(2, 2, 2, 2), value=0.0)
          (_bn1): BatchNorm2d(2544, eps=0.001, momentum=0.01, affine=True, track_running_stats=True)
          (_se_adaptpool): AdaptiveAvgPool2d(output_size=1)
          (_se_reduce): Conv2d(2544, 106, kernel_size=(1, 1), stride=(1, 1))
          (_se_reduce_padding): Identity()
          (_se_expand): Conv2d(106, 2544, kernel_size=(1, 1), stride=(1, 1))
          (_se_expand_padding): Identity()
          (_project_conv): Conv2d(2544, 424, kernel_size=(1, 1), stride=(1, 1), bias=False)
          (_project_conv_padding): Identity()
          (_bn2): BatchNorm2d(424, eps=0.001, momentum=0.01, affine=True, track_running_stats=True)
          (_swish): MemoryEfficientSwish()
        )
        (50): MBConvBlock(
          (_expand_conv): Conv2d(424, 2544, kernel_size=(1, 1), stride=(1, 1), bias=False)
          (_expand_conv_padding): Identity()
          (_bn0): BatchNorm2d(2544, eps=0.001, momentum=0.01, affine=True, track_running_stats=True)
          (_depthwise_conv): Conv2d(2544, 2544, kernel_size=(5, 5), stride=(1, 1), groups=2544, bias=False)
          (_depthwise_conv_padding): ConstantPad2d(padding=(2, 2, 2, 2), value=0.0)
          (_bn1): BatchNorm2d(2544, eps=0.001, momentum=0.01, affine=True, track_running_stats=True)
          (_se_adaptpool): AdaptiveAvgPool2d(output_size=1)
          (_se_reduce): Conv2d(2544, 106, kernel_size=(1, 1), stride=(1, 1))
          (_se_reduce_padding): Identity()
          (_se_expand): Conv2d(106, 2544, kernel_size=(1, 1), stride=(1, 1))
          (_se_expand_padding): Identity()
          (_project_conv): Conv2d(2544, 424, kernel_size=(1, 1), stride=(1, 1), bias=False)
          (_project_conv_padding): Identity()
          (_bn2): BatchNorm2d(424, eps=0.001, momentum=0.01, affine=True, track_running_stats=True)
          (_swish): MemoryEfficientSwish()
        )
        (51): MBConvBlock(
          (_expand_conv): Conv2d(424, 2544, kernel_size=(1, 1), stride=(1, 1), bias=False)
          (_expand_conv_padding): Identity()
          (_bn0): BatchNorm2d(2544, eps=0.001, momentum=0.01, affine=True, track_running_stats=True)
          (_depthwise_conv): Conv2d(2544, 2544, kernel_size=(5, 5), stride=(1, 1), groups=2544, bias=False)
          (_depthwise_conv_padding): ConstantPad2d(padding=(2, 2, 2, 2), value=0.0)
          (_bn1): BatchNorm2d(2544, eps=0.001, momentum=0.01, affine=True, track_running_stats=True)
          (_se_adaptpool): AdaptiveAvgPool2d(output_size=1)
          (_se_reduce): Conv2d(2544, 106, kernel_size=(1, 1), stride=(1, 1))
          (_se_reduce_padding): Identity()
          (_se_expand): Conv2d(106, 2544, kernel_size=(1, 1), stride=(1, 1))
          (_se_expand_padding): Identity()
          (_project_conv): Conv2d(2544, 424, kernel_size=(1, 1), stride=(1, 1), bias=False)
          (_project_conv_padding): Identity()
          (_bn2): BatchNorm2d(424, eps=0.001, momentum=0.01, affine=True, track_running_stats=True)
          (_swish): MemoryEfficientSwish()
        )
        (52): MBConvBlock(
          (_expand_conv): Conv2d(424, 2544, kernel_size=(1, 1), stride=(1, 1), bias=False)
          (_expand_conv_padding): Identity()
          (_bn0): BatchNorm2d(2544, eps=0.001, momentum=0.01, affine=True, track_running_stats=True)
          (_depthwise_conv): Conv2d(2544, 2544, kernel_size=(5, 5), stride=(1, 1), groups=2544, bias=False)
          (_depthwise_conv_padding): ConstantPad2d(padding=(2, 2, 2, 2), value=0.0)
          (_bn1): BatchNorm2d(2544, eps=0.001, momentum=0.01, affine=True, track_running_stats=True)
          (_se_adaptpool): AdaptiveAvgPool2d(output_size=1)
          (_se_reduce): Conv2d(2544, 106, kernel_size=(1, 1), stride=(1, 1))
          (_se_reduce_padding): Identity()
          (_se_expand): Conv2d(106, 2544, kernel_size=(1, 1), stride=(1, 1))
          (_se_expand_padding): Identity()
          (_project_conv): Conv2d(2544, 424, kernel_size=(1, 1), stride=(1, 1), bias=False)
          (_project_conv_padding): Identity()
          (_bn2): BatchNorm2d(424, eps=0.001, momentum=0.01, affine=True, track_running_stats=True)
          (_swish): MemoryEfficientSwish()
        )
        (53): MBConvBlock(
          (_expand_conv): Conv2d(424, 2544, kernel_size=(1, 1), stride=(1, 1), bias=False)
          (_expand_conv_padding): Identity()
          (_bn0): BatchNorm2d(2544, eps=0.001, momentum=0.01, affine=True, track_running_stats=True)
          (_depthwise_conv): Conv2d(2544, 2544, kernel_size=(5, 5), stride=(1, 1), groups=2544, bias=False)
          (_depthwise_conv_padding): ConstantPad2d(padding=(2, 2, 2, 2), value=0.0)
          (_bn1): BatchNorm2d(2544, eps=0.001, momentum=0.01, affine=True, track_running_stats=True)
          (_se_adaptpool): AdaptiveAvgPool2d(output_size=1)
          (_se_reduce): Conv2d(2544, 106, kernel_size=(1, 1), stride=(1, 1))
          (_se_reduce_padding): Identity()
          (_se_expand): Conv2d(106, 2544, kernel_size=(1, 1), stride=(1, 1))
          (_se_expand_padding): Identity()
          (_project_conv): Conv2d(2544, 424, kernel_size=(1, 1), stride=(1, 1), bias=False)
          (_project_conv_padding): Identity()
          (_bn2): BatchNorm2d(424, eps=0.001, momentum=0.01, affine=True, track_running_stats=True)
          (_swish): MemoryEfficientSwish()
        )
        (54): MBConvBlock(
          (_expand_conv): Conv2d(424, 2544, kernel_size=(1, 1), stride=(1, 1), bias=False)
          (_expand_conv_padding): Identity()
          (_bn0): BatchNorm2d(2544, eps=0.001, momentum=0.01, affine=True, track_running_stats=True)
          (_depthwise_conv): Conv2d(2544, 2544, kernel_size=(5, 5), stride=(1, 1), groups=2544, bias=False)
          (_depthwise_conv_padding): ConstantPad2d(padding=(2, 2, 2, 2), value=0.0)
          (_bn1): BatchNorm2d(2544, eps=0.001, momentum=0.01, affine=True, track_running_stats=True)
          (_se_adaptpool): AdaptiveAvgPool2d(output_size=1)
          (_se_reduce): Conv2d(2544, 106, kernel_size=(1, 1), stride=(1, 1))
          (_se_reduce_padding): Identity()
          (_se_expand): Conv2d(106, 2544, kernel_size=(1, 1), stride=(1, 1))
          (_se_expand_padding): Identity()
          (_project_conv): Conv2d(2544, 424, kernel_size=(1, 1), stride=(1, 1), bias=False)
          (_project_conv_padding): Identity()
          (_bn2): BatchNorm2d(424, eps=0.001, momentum=0.01, affine=True, track_running_stats=True)
          (_swish): MemoryEfficientSwish()
        )
        (55): MBConvBlock(
          (_expand_conv): Conv2d(424, 2544, kernel_size=(1, 1), stride=(1, 1), bias=False)
          (_expand_conv_padding): Identity()
          (_bn0): BatchNorm2d(2544, eps=0.001, momentum=0.01, affine=True, track_running_stats=True)
          (_depthwise_conv): Conv2d(2544, 2544, kernel_size=(5, 5), stride=(1, 1), groups=2544, bias=False)
          (_depthwise_conv_padding): ConstantPad2d(padding=(2, 2, 2, 2), value=0.0)
          (_bn1): BatchNorm2d(2544, eps=0.001, momentum=0.01, affine=True, track_running_stats=True)
          (_se_adaptpool): AdaptiveAvgPool2d(output_size=1)
          (_se_reduce): Conv2d(2544, 106, kernel_size=(1, 1), stride=(1, 1))
          (_se_reduce_padding): Identity()
          (_se_expand): Conv2d(106, 2544, kernel_size=(1, 1), stride=(1, 1))
          (_se_expand_padding): Identity()
          (_project_conv): Conv2d(2544, 424, kernel_size=(1, 1), stride=(1, 1), bias=False)
          (_project_conv_padding): Identity()
          (_bn2): BatchNorm2d(424, eps=0.001, momentum=0.01, affine=True, track_running_stats=True)
          (_swish): MemoryEfficientSwish()
        )
        (56): MBConvBlock(
          (_expand_conv): Conv2d(424, 2544, kernel_size=(1, 1), stride=(1, 1), bias=False)
          (_expand_conv_padding): Identity()
          (_bn0): BatchNorm2d(2544, eps=0.001, momentum=0.01, affine=True, track_running_stats=True)
          (_depthwise_conv): Conv2d(2544, 2544, kernel_size=(5, 5), stride=(1, 1), groups=2544, bias=False)
          (_depthwise_conv_padding): ConstantPad2d(padding=(2, 2, 2, 2), value=0.0)
          (_bn1): BatchNorm2d(2544, eps=0.001, momentum=0.01, affine=True, track_running_stats=True)
          (_se_adaptpool): AdaptiveAvgPool2d(output_size=1)
          (_se_reduce): Conv2d(2544, 106, kernel_size=(1, 1), stride=(1, 1))
          (_se_reduce_padding): Identity()
          (_se_expand): Conv2d(106, 2544, kernel_size=(1, 1), stride=(1, 1))
          (_se_expand_padding): Identity()
          (_project_conv): Conv2d(2544, 424, kernel_size=(1, 1), stride=(1, 1), bias=False)
          (_project_conv_padding): Identity()
          (_bn2): BatchNorm2d(424, eps=0.001, momentum=0.01, affine=True, track_running_stats=True)
          (_swish): MemoryEfficientSwish()
        )
      )
      (6): Sequential(
        (57): MBConvBlock(
          (_expand_conv): Conv2d(424, 2544, kernel_size=(1, 1), stride=(1, 1), bias=False)
          (_expand_conv_padding): Identity()
          (_bn0): BatchNorm2d(2544, eps=0.001, momentum=0.01, affine=True, track_running_stats=True)
          (_depthwise_conv): Conv2d(2544, 2544, kernel_size=(3, 3), stride=(1, 1), groups=2544, bias=False)
          (_depthwise_conv_padding): ConstantPad2d(padding=(1, 1, 1, 1), value=0.0)
          (_bn1): BatchNorm2d(2544, eps=0.001, momentum=0.01, affine=True, track_running_stats=True)
          (_se_adaptpool): AdaptiveAvgPool2d(output_size=1)
          (_se_reduce): Conv2d(2544, 106, kernel_size=(1, 1), stride=(1, 1))
          (_se_reduce_padding): Identity()
          (_se_expand): Conv2d(106, 2544, kernel_size=(1, 1), stride=(1, 1))
          (_se_expand_padding): Identity()
          (_project_conv): Conv2d(2544, 704, kernel_size=(1, 1), stride=(1, 1), bias=False)
          (_project_conv_padding): Identity()
          (_bn2): BatchNorm2d(704, eps=0.001, momentum=0.01, affine=True, track_running_stats=True)
          (_swish): MemoryEfficientSwish()
        )
        (58): MBConvBlock(
          (_expand_conv): Conv2d(704, 4224, kernel_size=(1, 1), stride=(1, 1), bias=False)
          (_expand_conv_padding): Identity()
          (_bn0): BatchNorm2d(4224, eps=0.001, momentum=0.01, affine=True, track_running_stats=True)
          (_depthwise_conv): Conv2d(4224, 4224, kernel_size=(3, 3), stride=(1, 1), groups=4224, bias=False)
          (_depthwise_conv_padding): ConstantPad2d(padding=(1, 1, 1, 1), value=0.0)
          (_bn1): BatchNorm2d(4224, eps=0.001, momentum=0.01, affine=True, track_running_stats=True)
          (_se_adaptpool): AdaptiveAvgPool2d(output_size=1)
          (_se_reduce): Conv2d(4224, 176, kernel_size=(1, 1), stride=(1, 1))
          (_se_reduce_padding): Identity()
          (_se_expand): Conv2d(176, 4224, kernel_size=(1, 1), stride=(1, 1))
          (_se_expand_padding): Identity()
          (_project_conv): Conv2d(4224, 704, kernel_size=(1, 1), stride=(1, 1), bias=False)
          (_project_conv_padding): Identity()
          (_bn2): BatchNorm2d(704, eps=0.001, momentum=0.01, affine=True, track_running_stats=True)
          (_swish): MemoryEfficientSwish()
        )
        (59): MBConvBlock(
          (_expand_conv): Conv2d(704, 4224, kernel_size=(1, 1), stride=(1, 1), bias=False)
          (_expand_conv_padding): Identity()
          (_bn0): BatchNorm2d(4224, eps=0.001, momentum=0.01, affine=True, track_running_stats=True)
          (_depthwise_conv): Conv2d(4224, 4224, kernel_size=(3, 3), stride=(1, 1), groups=4224, bias=False)
          (_depthwise_conv_padding): ConstantPad2d(padding=(1, 1, 1, 1), value=0.0)
          (_bn1): BatchNorm2d(4224, eps=0.001, momentum=0.01, affine=True, track_running_stats=True)
          (_se_adaptpool): AdaptiveAvgPool2d(output_size=1)
          (_se_reduce): Conv2d(4224, 176, kernel_size=(1, 1), stride=(1, 1))
          (_se_reduce_padding): Identity()
          (_se_expand): Conv2d(176, 4224, kernel_size=(1, 1), stride=(1, 1))
          (_se_expand_padding): Identity()
          (_project_conv): Conv2d(4224, 704, kernel_size=(1, 1), stride=(1, 1), bias=False)
          (_project_conv_padding): Identity()
          (_bn2): BatchNorm2d(704, eps=0.001, momentum=0.01, affine=True, track_running_stats=True)
          (_swish): MemoryEfficientSwish()
        )
        (60): MBConvBlock(
          (_expand_conv): Conv2d(704, 4224, kernel_size=(1, 1), stride=(1, 1), bias=False)
          (_expand_conv_padding): Identity()
          (_bn0): BatchNorm2d(4224, eps=0.001, momentum=0.01, affine=True, track_running_stats=True)
          (_depthwise_conv): Conv2d(4224, 4224, kernel_size=(3, 3), stride=(1, 1), groups=4224, bias=False)
          (_depthwise_conv_padding): ConstantPad2d(padding=(1, 1, 1, 1), value=0.0)
          (_bn1): BatchNorm2d(4224, eps=0.001, momentum=0.01, affine=True, track_running_stats=True)
          (_se_adaptpool): AdaptiveAvgPool2d(output_size=1)
          (_se_reduce): Conv2d(4224, 176, kernel_size=(1, 1), stride=(1, 1))
          (_se_reduce_padding): Identity()
          (_se_expand): Conv2d(176, 4224, kernel_size=(1, 1), stride=(1, 1))
          (_se_expand_padding): Identity()
          (_project_conv): Conv2d(4224, 704, kernel_size=(1, 1), stride=(1, 1), bias=False)
          (_project_conv_padding): Identity()
          (_bn2): BatchNorm2d(704, eps=0.001, momentum=0.01, affine=True, track_running_stats=True)
          (_swish): MemoryEfficientSwish()
        )
      )
    )
    (_conv_head): Conv2d(704, 2816, kernel_size=(1, 1), stride=(1, 1), bias=False)
    (_conv_head_padding): Identity()
    (_bn1): BatchNorm2d(2816, eps=0.001, momentum=0.01, affine=True, track_running_stats=True)
    (_avg_pooling): AdaptiveAvgPool2d(output_size=1)
    (_dropout): Dropout(p=0.5, inplace=False)
    (_fc): Linear(in_features=2816, out_features=1000, bias=True)
    (_swish): MemoryEfficientSwish()
  )
  (decoder): UNetDecoder(
    (blocks): ModuleList(
      (0): UpCat(
        (upsample): UpSample(
          (upsample_non_trainable): Upsample(scale_factor=(2.0, 2.0), mode=nearest)
        )
        (convs): TwoConv(
          (conv_0): Convolution(
            (conv): Conv2d(952, 256, kernel_size=(3, 3), stride=(1, 1), padding=(1, 1), bias=False)
            (adn): ADN(
              (N): BatchNorm2d(256, eps=0.001, momentum=0.1, affine=True, track_running_stats=True)
              (D): Dropout(p=0.0, inplace=False)
              (A): ReLU(inplace=True)
            )
          )
          (conv_1): Convolution(
            (conv): Conv2d(256, 256, kernel_size=(3, 3), stride=(1, 1), padding=(1, 1), bias=False)
            (adn): ADN(
              (N): BatchNorm2d(256, eps=0.001, momentum=0.1, affine=True, track_running_stats=True)
              (D): Dropout(p=0.0, inplace=False)
              (A): ReLU(inplace=True)
            )
          )
        )
      )
      (1): UpCat(
        (upsample): UpSample(
          (upsample_non_trainable): Upsample(scale_factor=(2.0, 2.0), mode=nearest)
        )
        (convs): TwoConv(
          (conv_0): Convolution(
            (conv): Conv2d(344, 128, kernel_size=(3, 3), stride=(1, 1), padding=(1, 1), bias=False)
            (adn): ADN(
              (N): BatchNorm2d(128, eps=0.001, momentum=0.1, affine=True, track_running_stats=True)
              (D): Dropout(p=0.0, inplace=False)
              (A): ReLU(inplace=True)
            )
          )
          (conv_1): Convolution(
            (conv): Conv2d(128, 128, kernel_size=(3, 3), stride=(1, 1), padding=(1, 1), bias=False)
            (adn): ADN(
              (N): BatchNorm2d(128, eps=0.001, momentum=0.1, affine=True, track_running_stats=True)
              (D): Dropout(p=0.0, inplace=False)
              (A): ReLU(inplace=True)
            )
          )
        )
      )
      (2): UpCat(
        (upsample): UpSample(
          (upsample_non_trainable): Upsample(scale_factor=(2.0, 2.0), mode=nearest)
        )
        (convs): TwoConv(
          (conv_0): Convolution(
            (conv): Conv2d(184, 64, kernel_size=(3, 3), stride=(1, 1), padding=(1, 1), bias=False)
            (adn): ADN(
              (N): BatchNorm2d(64, eps=0.001, momentum=0.1, affine=True, track_running_stats=True)
              (D): Dropout(p=0.0, inplace=False)
              (A): ReLU(inplace=True)
            )
          )
          (conv_1): Convolution(
            (conv): Conv2d(64, 64, kernel_size=(3, 3), stride=(1, 1), padding=(1, 1), bias=False)
            (adn): ADN(
              (N): BatchNorm2d(64, eps=0.001, momentum=0.1, affine=True, track_running_stats=True)
              (D): Dropout(p=0.0, inplace=False)
              (A): ReLU(inplace=True)
            )
          )
        )
      )
      (3): UpCat(
        (upsample): UpSample(
          (upsample_non_trainable): Upsample(scale_factor=(2.0, 2.0), mode=nearest)
        )
        (convs): TwoConv(
          (conv_0): Convolution(
            (conv): Conv2d(96, 32, kernel_size=(3, 3), stride=(1, 1), padding=(1, 1), bias=False)
            (adn): ADN(
              (N): BatchNorm2d(32, eps=0.001, momentum=0.1, affine=True, track_running_stats=True)
              (D): Dropout(p=0.0, inplace=False)
              (A): ReLU(inplace=True)
            )
          )
          (conv_1): Convolution(
            (conv): Conv2d(32, 32, kernel_size=(3, 3), stride=(1, 1), padding=(1, 1), bias=False)
            (adn): ADN(
              (N): BatchNorm2d(32, eps=0.001, momentum=0.1, affine=True, track_running_stats=True)
              (D): Dropout(p=0.0, inplace=False)
              (A): ReLU(inplace=True)
            )
          )
        )
      )
      (4): UpCat(
        (upsample): UpSample(
          (upsample_non_trainable): Upsample(scale_factor=(2.0, 2.0), mode=nearest)
        )
        (convs): TwoConv(
          (conv_0): Convolution(
            (conv): Conv2d(32, 16, kernel_size=(3, 3), stride=(1, 1), padding=(1, 1), bias=False)
            (adn): ADN(
              (N): BatchNorm2d(16, eps=0.001, momentum=0.1, affine=True, track_running_stats=True)
              (D): Dropout(p=0.0, inplace=False)
              (A): ReLU(inplace=True)
            )
          )
          (conv_1): Convolution(
            (conv): Conv2d(16, 16, kernel_size=(3, 3), stride=(1, 1), padding=(1, 1), bias=False)
            (adn): ADN(
              (N): BatchNorm2d(16, eps=0.001, momentum=0.1, affine=True, track_running_stats=True)
              (D): Dropout(p=0.0, inplace=False)
              (A): ReLU(inplace=True)
            )
          )
        )
      )
    )
  )
  (segmentation_head): SegmentationHead(
    (0): Conv2d(16, 1, kernel_size=(3, 3), stride=(1, 1), padding=(1, 1))
    (1): Identity()
    (2): Identity()
  )
)
2024-03-12 22:13:24,703 Brain Segmentation INFO: ----------------------------------------------------------------------------------------------------
2024-03-12 22:19:24,513 Brain Segmentation INFO: model was saved, epoch 0 is the best.
2024-03-12 22:19:24,514 Brain Segmentation INFO: 
====================
…
