…
 fig_dir='fig'
 image_dir='/mnt/strokeapp/Datasets/Seg_ctmri_2d'
 input='real_mri'
 lr=0.001
 mask_dir='/mnt/strokeapp/Datasets/Seg_mask_2d'
 model_name='flexible_unet'
 name='flexible_unet_real_mri'
 output_dir='output/flexible_unet_real_mri'
 roi=(128
 128)
 seed=123
 spatial_size=(96
 96
 96)
 sw_batch=4
 synthesize_model='resvit'
 test_batch_size=4
 train_batch_size=16
 weight_decay=0.0001)
2024-03-17 22:52:36,289 Brain Segmentation INFO: ----------------------------------------------------------------------------------------------------
FlexibleUNet(
  (encoder): EfficientNetEncoder(
    (_conv_stem): Conv2d(1, 32, kernel_size=(3, 3), stride=(2, 2), bias=False)
    (_conv_stem_padding): ConstantPad2d(padding=(0, 1, 0, 1), value=0.0)
    (_bn0): BatchNorm2d(32, eps=0.001, momentum=0.01, affine=True, track_running_stats=True)
    (_blocks): Sequential(
      (0): Sequential(
        (0): MBConvBlock(
          (_expand_conv): Identity()
          (_expand_conv_padding): Identity()
          (_bn0): Identity()
          (_depthwise_conv): Conv2d(32, 32, kernel_size=(3, 3), stride=(1, 1), groups=32, bias=False)
          (_depthwise_conv_padding): ConstantPad2d(padding=(1, 1, 1, 1), value=0.0)
          (_bn1): BatchNorm2d(32, eps=0.001, momentum=0.01, affine=True, track_running_stats=True)
          (_se_adaptpool): AdaptiveAvgPool2d(output_size=1)
          (_se_reduce): Conv2d(32, 8, kernel_size=(1, 1), stride=(1, 1))
          (_se_reduce_padding): Identity()
          (_se_expand): Conv2d(8, 32, kernel_size=(1, 1), stride=(1, 1))
          (_se_expand_padding): Identity()
          (_project_conv): Conv2d(32, 16, kernel_size=(1, 1), stride=(1, 1), bias=False)
          (_project_conv_padding): Identity()
          (_bn2): BatchNorm2d(16, eps=0.001, momentum=0.01, affine=True, track_running_stats=True)
          (_swish): MemoryEfficientSwish()
        )
      )
      (1): Sequential(
        (1): MBConvBlock(
          (_expand_conv): Conv2d(16, 96, kernel_size=(1, 1), stride=(1, 1), bias=False)
          (_expand_conv_padding): Identity()
          (_bn0): BatchNorm2d(96, eps=0.001, momentum=0.01, affine=True, track_running_stats=True)
          (_depthwise_conv): Conv2d(96, 96, kernel_size=(3, 3), stride=(2, 2), groups=96, bias=False)
          (_depthwise_conv_padding): ConstantPad2d(padding=(0, 1, 0, 1), value=0.0)
          (_bn1): BatchNorm2d(96, eps=0.001, momentum=0.01, affine=True, track_running_stats=True)
          (_se_adaptpool): AdaptiveAvgPool2d(output_size=1)
          (_se_reduce): Conv2d(96, 4, kernel_size=(1, 1), stride=(1, 1))
          (_se_reduce_padding): Identity()
          (_se_expand): Conv2d(4, 96, kernel_size=(1, 1), stride=(1, 1))
          (_se_expand_padding): Identity()
          (_project_conv): Conv2d(96, 24, kernel_size=(1, 1), stride=(1, 1), bias=False)
          (_project_conv_padding): Identity()
          (_bn2): BatchNorm2d(24, eps=0.001, momentum=0.01, affine=True, track_running_stats=True)
          (_swish): MemoryEfficientSwish()
        )
        (2): MBConvBlock(
          (_expand_conv): Conv2d(24, 144, kernel_size=(1, 1), stride=(1, 1), bias=False)
          (_expand_conv_padding): Identity()
          (_bn0): BatchNorm2d(144, eps=0.001, momentum=0.01, affine=True, track_running_stats=True)
          (_depthwise_conv): Conv2d(144, 144, kernel_size=(3, 3), stride=(1, 1), groups=144, bias=False)
          (_depthwise_conv_padding): ConstantPad2d(padding=(1, 1, 1, 1), value=0.0)
          (_bn1): BatchNorm2d(144, eps=0.001, momentum=0.01, affine=True, track_running_stats=True)
          (_se_adaptpool): AdaptiveAvgPool2d(output_size=1)
          (_se_reduce): Conv2d(144, 6, kernel_size=(1, 1), stride=(1, 1))
          (_se_reduce_padding): Identity()
          (_se_expand): Conv2d(6, 144, kernel_size=(1, 1), stride=(1, 1))
          (_se_expand_padding): Identity()
          (_project_conv): Conv2d(144, 24, kernel_size=(1, 1), stride=(1, 1), bias=False)
          (_project_conv_padding): Identity()
          (_bn2): BatchNorm2d(24, eps=0.001, momentum=0.01, affine=True, track_running_stats=True)
          (_swish): MemoryEfficientSwish()
        )
      )
      (2): Sequential(
        (3): MBConvBlock(
          (_expand_conv): Conv2d(24, 144, kernel_size=(1, 1), stride=(1, 1), bias=False)
          (_expand_conv_padding): Identity()
          (_bn0): BatchNorm2d(144, eps=0.001, momentum=0.01, affine=True, track_running_stats=True)
          (_depthwise_conv): Conv2d(144, 144, kernel_size=(5, 5), stride=(2, 2), groups=144, bias=False)
          (_depthwise_conv_padding): ConstantPad2d(padding=(1, 2, 1, 2), value=0.0)
          (_bn1): BatchNorm2d(144, eps=0.001, momentum=0.01, affine=True, track_running_stats=True)
          (_se_adaptpool): AdaptiveAvgPool2d(output_size=1)
          (_se_reduce): Conv2d(144, 6, kernel_size=(1, 1), stride=(1, 1))
          (_se_reduce_padding): Identity()
          (_se_expand): Conv2d(6, 144, kernel_size=(1, 1), stride=(1, 1))
          (_se_expand_padding): Identity()
          (_project_conv): Conv2d(144, 40, kernel_size=(1, 1), stride=(1, 1), bias=False)
          (_project_conv_padding): Identity()
          (_bn2): BatchNorm2d(40, eps=0.001, momentum=0.01, affine=True, track_running_stats=True)
          (_swish): MemoryEfficientSwish()
        )
        (4): MBConvBlock(
          (_expand_conv): Conv2d(40, 240, kernel_size=(1, 1), stride=(1, 1), bias=False)
          (_expand_conv_padding): Identity()
          (_bn0): BatchNorm2d(240, eps=0.001, momentum=0.01, affine=True, track_running_stats=True)
          (_depthwise_conv): Conv2d(240, 240, kernel_size=(5, 5), stride=(1, 1), groups=240, bias=False)
          (_depthwise_conv_padding): ConstantPad2d(padding=(2, 2, 2, 2), value=0.0)
          (_bn1): BatchNorm2d(240, eps=0.001, momentum=0.01, affine=True, track_running_stats=True)
          (_se_adaptpool): AdaptiveAvgPool2d(output_size=1)
          (_se_reduce): Conv2d(240, 10, kernel_size=(1, 1), stride=(1, 1))
          (_se_reduce_padding): Identity()
          (_se_expand): Conv2d(10, 240, kernel_size=(1, 1), stride=(1, 1))
          (_se_expand_padding): Identity()
          (_project_conv): Conv2d(240, 40, kernel_size=(1, 1), stride=(1, 1), bias=False)
          (_project_conv_padding): Identity()
          (_bn2): BatchNorm2d(40, eps=0.001, momentum=0.01, affine=True, track_running_stats=True)
          (_swish): MemoryEfficientSwish()
        )
      )
      (3): Sequential(
        (5): MBConvBlock(
          (_expand_conv): Conv2d(40, 240, kernel_size=(1, 1), stride=(1, 1), bias=False)
          (_expand_conv_padding): Identity()
          (_bn0): BatchNorm2d(240, eps=0.001, momentum=0.01, affine=True, track_running_stats=True)
          (_depthwise_conv): Conv2d(240, 240, kernel_size=(3, 3), stride=(2, 2), groups=240, bias=False)
          (_depthwise_conv_padding): ConstantPad2d(padding=(0, 1, 0, 1), value=0.0)
          (_bn1): BatchNorm2d(240, eps=0.001, momentum=0.01, affine=True, track_running_stats=True)
          (_se_adaptpool): AdaptiveAvgPool2d(output_size=1)
          (_se_reduce): Conv2d(240, 10, kernel_size=(1, 1), stride=(1, 1))
          (_se_reduce_padding): Identity()
          (_se_expand): Conv2d(10, 240, kernel_size=(1, 1), stride=(1, 1))
          (_se_expand_padding): Identity()
          (_project_conv): Conv2d(240, 80, kernel_size=(1, 1), stride=(1, 1), bias=False)
          (_project_conv_padding): Identity()
          (_bn2): BatchNorm2d(80, eps=0.001, momentum=0.01, affine=True, track_running_stats=True)
          (_swish): MemoryEfficientSwish()
        )
        (6): MBConvBlock(
          (_expand_conv): Conv2d(80, 480, kernel_size=(1, 1), stride=(1, 1), bias=False)
          (_expand_conv_padding): Identity()
          (_bn0): BatchNorm2d(480, eps=0.001, momentum=0.01, affine=True, track_running_stats=True)
          (_depthwise_conv): Conv2d(480, 480, kernel_size=(3, 3), stride=(1, 1), groups=480, bias=False)
          (_depthwise_conv_padding): ConstantPad2d(padding=(1, 1, 1, 1), value=0.0)
          (_bn1): BatchNorm2d(480, eps=0.001, momentum=0.01, affine=True, track_running_stats=True)
          (_se_adaptpool): AdaptiveAvgPool2d(output_size=1)
          (_se_reduce): Conv2d(480, 20, kernel_size=(1, 1), stride=(1, 1))
          (_se_reduce_padding): Identity()
          (_se_expand): Conv2d(20, 480, kernel_size=(1, 1), stride=(1, 1))
          (_se_expand_padding): Identity()
          (_project_conv): Conv2d(480, 80, kernel_size=(1, 1), stride=(1, 1), bias=False)
          (_project_conv_padding): Identity()
          (_bn2): BatchNorm2d(80, eps=0.001, momentum=0.01, affine=True, track_running_stats=True)
          (_swish): MemoryEfficientSwish()
        )
        (7): MBConvBlock(
          (_expand_conv): Conv2d(80, 480, kernel_size=(1, 1), stride=(1, 1), bias=False)
          (_expand_conv_padding): Identity()
          (_bn0): BatchNorm2d(480, eps=0.001, momentum=0.01, affine=True, track_running_stats=True)
          (_depthwise_conv): Conv2d(480, 480, kernel_size=(3, 3), stride=(1, 1), groups=480, bias=False)
          (_depthwise_conv_padding): ConstantPad2d(padding=(1, 1, 1, 1), value=0.0)
          (_bn1): BatchNorm2d(480, eps=0.001, momentum=0.01, affine=True, track_running_stats=True)
          (_se_adaptpool): AdaptiveAvgPool2d(output_size=1)
          (_se_reduce): Conv2d(480, 20, kernel_size=(1, 1), stride=(1, 1))
          (_se_reduce_padding): Identity()
          (_se_expand): Conv2d(20, 480, kernel_size=(1, 1), stride=(1, 1))
          (_se_expand_padding): Identity()
          (_project_conv): Conv2d(480, 80, kernel_size=(1, 1), stride=(1, 1), bias=False)
          (_project_conv_padding): Identity()
          (_bn2): BatchNorm2d(80, eps=0.001, momentum=0.01, affine=True, track_running_stats=True)
          (_swish): MemoryEfficientSwish()
        )
      )
      (4): Sequential(
        (8): MBConvBlock(
          (_expand_conv): Conv2d(80, 480, kernel_size=(1, 1), stride=(1, 1), bias=False)
          (_expand_conv_padding): Identity()
          (_bn0): BatchNorm2d(480, eps=0.001, momentum=0.01, affine=True, track_running_stats=True)
          (_depthwise_conv): Conv2d(480, 480, kernel_size=(5, 5), stride=(1, 1), groups=480, bias=False)
          (_depthwise_conv_padding): ConstantPad2d(padding=(2, 2, 2, 2), value=0.0)
          (_bn1): BatchNorm2d(480, eps=0.001, momentum=0.01, affine=True, track_running_stats=True)
          (_se_adaptpool): AdaptiveAvgPool2d(output_size=1)
          (_se_reduce): Conv2d(480, 20, kernel_size=(1, 1), stride=(1, 1))
          (_se_reduce_padding): Identity()
          (_se_expand): Conv2d(20, 480, kernel_size=(1, 1), stride=(1, 1))
          (_se_expand_padding): Identity()
          (_project_conv): Conv2d(480, 112, kernel_size=(1, 1), stride=(1, 1), bias=False)
          (_project_conv_padding): Identity()
          (_bn2): BatchNorm2d(112, eps=0.001, momentum=0.01, affine=True, track_running_stats=True)
          (_swish): MemoryEfficientSwish()
        )
        (9): MBConvBlock(
          (_expand_conv): Conv2d(112, 672, kernel_size=(1, 1), stride=(1, 1), bias=False)
          (_expand_conv_padding): Identity()
          (_bn0): BatchNorm2d(672, eps=0.001, momentum=0.01, affine=True, track_running_stats=True)
          (_depthwise_conv): Conv2d(672, 672, kernel_size=(5, 5), stride=(1, 1), groups=672, bias=False)
          (_depthwise_conv_padding): ConstantPad2d(padding=(2, 2, 2, 2), value=0.0)
          (_bn1): BatchNorm2d(672, eps=0.001, momentum=0.01, affine=True, track_running_stats=True)
          (_se_adaptpool): AdaptiveAvgPool2d(output_size=1)
          (_se_reduce): Conv2d(672, 28, kernel_size=(1, 1), stride=(1, 1))
          (_se_reduce_padding): Identity()
          (_se_expand): Conv2d(28, 672, kernel_size=(1, 1), stride=(1, 1))
          (_se_expand_padding): Identity()
          (_project_conv): Conv2d(672, 112, kernel_size=(1, 1), stride=(1, 1), bias=False)
          (_project_conv_padding): Identity()
          (_bn2): BatchNorm2d(112, eps=0.001, momentum=0.01, affine=True, track_running_stats=True)
          (_swish): MemoryEfficientSwish()
        )
        (10): MBConvBlock(
          (_expand_conv): Conv2d(112, 672, kernel_size=(1, 1), stride=(1, 1), bias=False)
          (_expand_conv_padding): Identity()
          (_bn0): BatchNorm2d(672, eps=0.001, momentum=0.01, affine=True, track_running_stats=True)
          (_depthwise_conv): Conv2d(672, 672, kernel_size=(5, 5), stride=(1, 1), groups=672, bias=False)
          (_depthwise_conv_padding): ConstantPad2d(padding=(2, 2, 2, 2), value=0.0)
          (_bn1): BatchNorm2d(672, eps=0.001, momentum=0.01, affine=True, track_running_stats=True)
          (_se_adaptpool): AdaptiveAvgPool2d(output_size=1)
          (_se_reduce): Conv2d(672, 28, kernel_size=(1, 1), stride=(1, 1))
          (_se_reduce_padding): Identity()
          (_se_expand): Conv2d(28, 672, kernel_size=(1, 1), stride=(1, 1))
          (_se_expand_padding): Identity()
          (_project_conv): Conv2d(672, 112, kernel_size=(1, 1), stride=(1, 1), bias=False)
          (_project_conv_padding): Identity()
          (_bn2): BatchNorm2d(112, eps=0.001, momentum=0.01, affine=True, track_running_stats=True)
          (_swish): MemoryEfficientSwish()
        )
      )
      (5): Sequential(
        (11): MBConvBlock(
          (_expand_conv): Conv2d(112, 672, kernel_size=(1, 1), stride=(1, 1), bias=False)
          (_expand_conv_padding): Identity()
          (_bn0): BatchNorm2d(672, eps=0.001, momentum=0.01, affine=True, track_running_stats=True)
          (_depthwise_conv): Conv2d(672, 672, kernel_size=(5, 5), stride=(2, 2), groups=672, bias=False)
          (_depthwise_conv_padding): ConstantPad2d(padding=(1, 2, 1, 2), value=0.0)
          (_bn1): BatchNorm2d(672, eps=0.001, momentum=0.01, affine=True, track_running_stats=True)
          (_se_adaptpool): AdaptiveAvgPool2d(output_size=1)
          (_se_reduce): Conv2d(672, 28, kernel_size=(1, 1), stride=(1, 1))
          (_se_reduce_padding): Identity()
          (_se_expand): Conv2d(28, 672, kernel_size=(1, 1), stride=(1, 1))
          (_se_expand_padding): Identity()
          (_project_conv): Conv2d(672, 192, kernel_size=(1, 1), stride=(1, 1), bias=False)
          (_project_conv_padding): Identity()
          (_bn2): BatchNorm2d(192, eps=0.001, momentum=0.01, affine=True, track_running_stats=True)
          (_swish): MemoryEfficientSwish()
        )
        (12): MBConvBlock(
          (_expand_conv): Conv2d(192, 1152, kernel_size=(1, 1), stride=(1, 1), bias=False)
          (_expand_conv_padding): Identity()
          (_bn0): BatchNorm2d(1152, eps=0.001, momentum=0.01, affine=True, track_running_stats=True)
          (_depthwise_conv): Conv2d(1152, 1152, kernel_size=(5, 5), stride=(1, 1), groups=1152, bias=False)
          (_depthwise_conv_padding): ConstantPad2d(padding=(2, 2, 2, 2), value=0.0)
          (_bn1): BatchNorm2d(1152, eps=0.001, momentum=0.01, affine=True, track_running_stats=True)
          (_se_adaptpool): AdaptiveAvgPool2d(output_size=1)
          (_se_reduce): Conv2d(1152, 48, kernel_size=(1, 1), stride=(1, 1))
          (_se_reduce_padding): Identity()
          (_se_expand): Conv2d(48, 1152, kernel_size=(1, 1), stride=(1, 1))
          (_se_expand_padding): Identity()
          (_project_conv): Conv2d(1152, 192, kernel_size=(1, 1), stride=(1, 1), bias=False)
          (_project_conv_padding): Identity()
          (_bn2): BatchNorm2d(192, eps=0.001, momentum=0.01, affine=True, track_running_stats=True)
          (_swish): MemoryEfficientSwish()
        )
        (13): MBConvBlock(
          (_expand_conv): Conv2d(192, 1152, kernel_size=(1, 1), stride=(1, 1), bias=False)
          (_expand_conv_padding): Identity()
          (_bn0): BatchNorm2d(1152, eps=0.001, momentum=0.01, affine=True, track_running_stats=True)
          (_depthwise_conv): Conv2d(1152, 1152, kernel_size=(5, 5), stride=(1, 1), groups=1152, bias=False)
          (_depthwise_conv_padding): ConstantPad2d(padding=(2, 2, 2, 2), value=0.0)
          (_bn1): BatchNorm2d(1152, eps=0.001, momentum=0.01, affine=True, track_running_stats=True)
          (_se_adaptpool): AdaptiveAvgPool2d(output_size=1)
          (_se_reduce): Conv2d(1152, 48, kernel_size=(1, 1), stride=(1, 1))
          (_se_reduce_padding): Identity()
          (_se_expand): Conv2d(48, 1152, kernel_size=(1, 1), stride=(1, 1))
          (_se_expand_padding): Identity()
          (_project_conv): Conv2d(1152, 192, kernel_size=(1, 1), stride=(1, 1), bias=False)
          (_project_conv_padding): Identity()
          (_bn2): BatchNorm2d(192, eps=0.001, momentum=0.01, affine=True, track_running_stats=True)
          (_swish): MemoryEfficientSwish()
        )
        (14): MBConvBlock(
          (_expand_conv): Conv2d(192, 1152, kernel_size=(1, 1), stride=(1, 1), bias=False)
          (_expand_conv_padding): Identity()
          (_bn0): BatchNorm2d(1152, eps=0.001, momentum=0.01, affine=True, track_running_stats=True)
          (_depthwise_conv): Conv2d(1152, 1152, kernel_size=(5, 5), stride=(1, 1), groups=1152, bias=False)
          (_depthwise_conv_padding): ConstantPad2d(padding=(2, 2, 2, 2), value=0.0)
          (_bn1): BatchNorm2d(1152, eps=0.001, momentum=0.01, affine=True, track_running_stats=True)
          (_se_adaptpool): AdaptiveAvgPool2d(output_size=1)
          (_se_reduce): Conv2d(1152, 48, kernel_size=(1, 1), stride=(1, 1))
          (_se_reduce_padding): Identity()
          (_se_expand): Conv2d(48, 1152, kernel_size=(1, 1), stride=(1, 1))
          (_se_expand_padding): Identity()
          (_project_conv): Conv2d(1152, 192, kernel_size=(1, 1), stride=(1, 1), bias=False)
          (_project_conv_padding): Identity()
          (_bn2): BatchNorm2d(192, eps=0.001, momentum=0.01, affine=True, track_running_stats=True)
          (_swish): MemoryEfficientSwish()
        )
      )
      (6): Sequential(
        (15): MBConvBlock(
          (_expand_conv): Conv2d(192, 1152, kernel_size=(1, 1), stride=(1, 1), bias=False)
          (_expand_conv_padding): Identity()
          (_bn0): BatchNorm2d(1152, eps=0.001, momentum=0.01, affine=True, track_running_stats=True)
          (_depthwise_conv): Conv2d(1152, 1152, kernel_size=(3, 3), stride=(1, 1), groups=1152, bias=False)
          (_depthwise_conv_padding): ConstantPad2d(padding=(1, 1, 1, 1), value=0.0)
          (_bn1): BatchNorm2d(1152, eps=0.001, momentum=0.01, affine=True, track_running_stats=True)
          (_se_adaptpool): AdaptiveAvgPool2d(output_size=1)
          (_se_reduce): Conv2d(1152, 48, kernel_size=(1, 1), stride=(1, 1))
          (_se_reduce_padding): Identity()
          (_se_expand): Conv2d(48, 1152, kernel_size=(1, 1), stride=(1, 1))
          (_se_expand_padding): Identity()
          (_project_conv): Conv2d(1152, 320, kernel_size=(1, 1), stride=(1, 1), bias=False)
          (_project_conv_padding): Identity()
          (_bn2): BatchNorm2d(320, eps=0.001, momentum=0.01, affine=True, track_running_stats=True)
          (_swish): MemoryEfficientSwish()
        )
      )
    )
    (_conv_head): Conv2d(320, 1280, kernel_size=(1, 1), stride=(1, 1), bias=False)
    (_conv_head_padding): Identity()
    (_bn1): BatchNorm2d(1280, eps=0.001, momentum=0.01, affine=True, track_running_stats=True)
    (_avg_pooling): AdaptiveAvgPool2d(output_size=1)
    (_dropout): Dropout(p=0.2, inplace=False)
    (_fc): Linear(in_features=1280, out_features=1000, bias=True)
    (_swish): MemoryEfficientSwish()
  )
  (decoder): UNetDecoder(
    (blocks): ModuleList(
      (0): UpCat(
        (upsample): UpSample(
          (upsample_non_trainable): Upsample(scale_factor=(2.0, 2.0), mode=nearest)
        )
        (convs): TwoConv(
          (conv_0): Convolution(
            (conv): Conv2d(432, 256, kernel_size=(3, 3), stride=(1, 1), padding=(1, 1), bias=False)
            (adn): ADN(
              (N): BatchNorm2d(256, eps=0.001, momentum=0.1, affine=True, track_running_stats=True)
              (D): Dropout(p=0.0, inplace=False)
              (A): ReLU(inplace=True)
            )
          )
          (conv_1): Convolution(
            (conv): Conv2d(256, 256, kernel_size=(3, 3), stride=(1, 1), padding=(1, 1), bias=False)
            (adn): ADN(
              (N): BatchNorm2d(256, eps=0.001, momentum=0.1, affine=True, track_running_stats=True)
              (D): Dropout(p=0.0, inplace=False)
              (A): ReLU(inplace=True)
            )
          )
        )
      )
      (1): UpCat(
        (upsample): UpSample(
          (upsample_non_trainable): Upsample(scale_factor=(2.0, 2.0), mode=nearest)
        )
        (convs): TwoConv(
          (conv_0): Convolution(
            (conv): Conv2d(296, 128, kernel_size=(3, 3), stride=(1, 1), padding=(1, 1), bias=False)
            (adn): ADN(
              (N): BatchNorm2d(128, eps=0.001, momentum=0.1, affine=True, track_running_stats=True)
              (D): Dropout(p=0.0, inplace=False)
              (A): ReLU(inplace=True)
            )
          )
          (conv_1): Convolution(
            (conv): Conv2d(128, 128, kernel_size=(3, 3), stride=(1, 1), padding=(1, 1), bias=False)
            (adn): ADN(
              (N): BatchNorm2d(128, eps=0.001, momentum=0.1, affine=True, track_running_stats=True)
              (D): Dropout(p=0.0, inplace=False)
              (A): ReLU(inplace=True)
            )
          )
        )
      )
      (2): UpCat(
        (upsample): UpSample(
          (upsample_non_trainable): Upsample(scale_factor=(2.0, 2.0), mode=nearest)
        )
        (convs): TwoConv(
          (conv_0): Convolution(
            (conv): Conv2d(152, 64, kernel_size=(3, 3), stride=(1, 1), padding=(1, 1), bias=False)
            (adn): ADN(
              (N): BatchNorm2d(64, eps=0.001, momentum=0.1, affine=True, track_running_stats=True)
              (D): Dropout(p=0.0, inplace=False)
              (A): ReLU(inplace=True)
            )
          )
          (conv_1): Convolution(
            (conv): Conv2d(64, 64, kernel_size=(3, 3), stride=(1, 1), padding=(1, 1), bias=False)
            (adn): ADN(
              (N): BatchNorm2d(64, eps=0.001, momentum=0.1, affine=True, track_running_stats=True)
              (D): Dropout(p=0.0, inplace=False)
              (A): ReLU(inplace=True)
            )
          )
        )
      )
      (3): UpCat(
        (upsample): UpSample(
          (upsample_non_trainable): Upsample(scale_factor=(2.0, 2.0), mode=nearest)
        )
        (convs): TwoConv(
          (conv_0): Convolution(
            (conv): Conv2d(80, 32, kernel_size=(3, 3), stride=(1, 1), padding=(1, 1), bias=False)
            (adn): ADN(
              (N): BatchNorm2d(32, eps=0.001, momentum=0.1, affine=True, track_running_stats=True)
              (D): Dropout(p=0.0, inplace=False)
              (A): ReLU(inplace=True)
            )
          )
          (conv_1): Convolution(
            (conv): Conv2d(32, 32, kernel_size=(3, 3), stride=(1, 1), padding=(1, 1), bias=False)
            (adn): ADN(
              (N): BatchNorm2d(32, eps=0.001, momentum=0.1, affine=True, track_running_stats=True)
              (D): Dropout(p=0.0, inplace=False)
              (A): ReLU(inplace=True)
            )
          )
        )
      )
      (4): UpCat(
        (upsample): UpSample(
          (upsample_non_trainable): Upsample(scale_factor=(2.0, 2.0), mode=nearest)
        )
        (convs): TwoConv(
          (conv_0): Convolution(
            (conv): Conv2d(32, 16, kernel_size=(3, 3), stride=(1, 1), padding=(1, 1), bias=False)
            (adn): ADN(
              (N): BatchNorm2d(16, eps=0.001, momentum=0.1, affine=True, track_running_stats=True)
              (D): Dropout(p=0.0, inplace=False)
              (A): ReLU(inplace=True)
            )
          )
          (conv_1): Convolution(
            (conv): Conv2d(16, 16, kernel_size=(3, 3), stride=(1, 1), padding=(1, 1), bias=False)
            (adn): ADN(
              (N): BatchNorm2d(16, eps=0.001, momentum=0.1, affine=True, track_running_stats=True)
              (D): Dropout(p=0.0, inplace=False)
              (A): ReLU(inplace=True)
            )
          )
        )
      )
    )
  )
  (segmentation_head): SegmentationHead(
    (0): Conv2d(16, 1, kernel_size=(3, 3), stride=(1, 1), padding=(1, 1))
    (1): Identity()
    (2): Identity()
  )
)
----------------------------------------------------------------------------------------------------

2024-03-17 22:52:36,318 Brain Segmentation INFO: FlexibleUNet(
  (encoder): EfficientNetEncoder(
    (_conv_stem): Conv2d(1, 32, kernel_size=(3, 3), stride=(2, 2), bias=False)
    (_conv_stem_padding): ConstantPad2d(padding=(0, 1, 0, 1), value=0.0)
    (_bn0): BatchNorm2d(32, eps=0.001, momentum=0.01, affine=True, track_running_stats=True)
    (_blocks): Sequential(
      (0): Sequential(
        (0): MBConvBlock(
          (_expand_conv): Identity()
          (_expand_conv_padding): Identity()
          (_bn0): Identity()
          (_depthwise_conv): Conv2d(32, 32, kernel_size=(3, 3), stride=(1, 1), groups=32, bias=False)
          (_depthwise_conv_padding): ConstantPad2d(padding=(1, 1, 1, 1), value=0.0)
          (_bn1): BatchNorm2d(32, eps=0.001, momentum=0.01, affine=True, track_running_stats=True)
          (_se_adaptpool): AdaptiveAvgPool2d(output_size=1)
          (_se_reduce): Conv2d(32, 8, kernel_size=(1, 1), stride=(1, 1))
          (_se_reduce_padding): Identity()
          (_se_expand): Conv2d(8, 32, kernel_size=(1, 1), stride=(1, 1))
          (_se_expand_padding): Identity()
          (_project_conv): Conv2d(32, 16, kernel_size=(1, 1), stride=(1, 1), bias=False)
          (_project_conv_padding): Identity()
          (_bn2): BatchNorm2d(16, eps=0.001, momentum=0.01, affine=True, track_running_stats=True)
          (_swish): MemoryEfficientSwish()
        )
      )
      (1): Sequential(
        (1): MBConvBlock(
          (_expand_conv): Conv2d(16, 96, kernel_size=(1, 1), stride=(1, 1), bias=False)
          (_expand_conv_padding): Identity()
          (_bn0): BatchNorm2d(96, eps=0.001, momentum=0.01, affine=True, track_running_stats=True)
          (_depthwise_conv): Conv2d(96, 96, kernel_size=(3, 3), stride=(2, 2), groups=96, bias=False)
          (_depthwise_conv_padding): ConstantPad2d(padding=(0, 1, 0, 1), value=0.0)
          (_bn1): BatchNorm2d(96, eps=0.001, momentum=0.01, affine=True, track_running_stats=True)
          (_se_adaptpool): AdaptiveAvgPool2d(output_size=1)
          (_se_reduce): Conv2d(96, 4, kernel_size=(1, 1), stride=(1, 1))
          (_se_reduce_padding): Identity()
          (_se_expand): Conv2d(4, 96, kernel_size=(1, 1), stride=(1, 1))
          (_se_expand_padding): Identity()
          (_project_conv): Conv2d(96, 24, kernel_size=(1, 1), stride=(1, 1), bias=False)
          (_project_conv_padding): Identity()
          (_bn2): BatchNorm2d(24, eps=0.001, momentum=0.01, affine=True, track_running_stats=True)
          (_swish): MemoryEfficientSwish()
        )
        (2): MBConvBlock(
          (_expand_conv): Conv2d(24, 144, kernel_size=(1, 1), stride=(1, 1), bias=False)
          (_expand_conv_padding): Identity()
          (_bn0): BatchNorm2d(144, eps=0.001, momentum=0.01, affine=True, track_running_stats=True)
          (_depthwise_conv): Conv2d(144, 144, kernel_size=(3, 3), stride=(1, 1), groups=144, bias=False)
          (_depthwise_conv_padding): ConstantPad2d(padding=(1, 1, 1, 1), value=0.0)
          (_bn1): BatchNorm2d(144, eps=0.001, momentum=0.01, affine=True, track_running_stats=True)
          (_se_adaptpool): AdaptiveAvgPool2d(output_size=1)
          (_se_reduce): Conv2d(144, 6, kernel_size=(1, 1), stride=(1, 1))
          (_se_reduce_padding): Identity()
          (_se_expand): Conv2d(6, 144, kernel_size=(1, 1), stride=(1, 1))
          (_se_expand_padding): Identity()
          (_project_conv): Conv2d(144, 24, kernel_size=(1, 1), stride=(1, 1), bias=False)
          (_project_conv_padding): Identity()
          (_bn2): BatchNorm2d(24, eps=0.001, momentum=0.01, affine=True, track_running_stats=True)
          (_swish): MemoryEfficientSwish()
        )
      )
      (2): Sequential(
        (3): MBConvBlock(
          (_expand_conv): Conv2d(24, 144, kernel_size=(1, 1), stride=(1, 1), bias=False)
          (_expand_conv_padding): Identity()
          (_bn0): BatchNorm2d(144, eps=0.001, momentum=0.01, affine=True, track_running_stats=True)
          (_depthwise_conv): Conv2d(144, 144, kernel_size=(5, 5), stride=(2, 2), groups=144, bias=False)
          (_depthwise_conv_padding): ConstantPad2d(padding=(1, 2, 1, 2), value=0.0)
          (_bn1): BatchNorm2d(144, eps=0.001, momentum=0.01, affine=True, track_running_stats=True)
          (_se_adaptpool): AdaptiveAvgPool2d(output_size=1)
          (_se_reduce): Conv2d(144, 6, kernel_size=(1, 1), stride=(1, 1))
          (_se_reduce_padding): Identity()
          (_se_expand): Conv2d(6, 144, kernel_size=(1, 1), stride=(1, 1))
          (_se_expand_padding): Identity()
          (_project_conv): Conv2d(144, 40, kernel_size=(1, 1), stride=(1, 1), bias=False)
          (_project_conv_padding): Identity()
          (_bn2): BatchNorm2d(40, eps=0.001, momentum=0.01, affine=True, track_running_stats=True)
          (_swish): MemoryEfficientSwish()
        )
        (4): MBConvBlock(
          (_expand_conv): Conv2d(40, 240, kernel_size=(1, 1), stride=(1, 1), bias=False)
          (_expand_conv_padding): Identity()
          (_bn0): BatchNorm2d(240, eps=0.001, momentum=0.01, affine=True, track_running_stats=True)
          (_depthwise_conv): Conv2d(240, 240, kernel_size=(5, 5), stride=(1, 1), groups=240, bias=False)
          (_depthwise_conv_padding): ConstantPad2d(padding=(2, 2, 2, 2), value=0.0)
          (_bn1): BatchNorm2d(240, eps=0.001, momentum=0.01, affine=True, track_running_stats=True)
          (_se_adaptpool): AdaptiveAvgPool2d(output_size=1)
          (_se_reduce): Conv2d(240, 10, kernel_size=(1, 1), stride=(1, 1))
          (_se_reduce_padding): Identity()
          (_se_expand): Conv2d(10, 240, kernel_size=(1, 1), stride=(1, 1))
          (_se_expand_padding): Identity()
          (_project_conv): Conv2d(240, 40, kernel_size=(1, 1), stride=(1, 1), bias=False)
          (_project_conv_padding): Identity()
          (_bn2): BatchNorm2d(40, eps=0.001, momentum=0.01, affine=True, track_running_stats=True)
          (_swish): MemoryEfficientSwish()
        )
      )
      (3): Sequential(
        (5): MBConvBlock(
          (_expand_conv): Conv2d(40, 240, kernel_size=(1, 1), stride=(1, 1), bias=False)
          (_expand_conv_padding): Identity()
          (_bn0): BatchNorm2d(240, eps=0.001, momentum=0.01, affine=True, track_running_stats=True)
          (_depthwise_conv): Conv2d(240, 240, kernel_size=(3, 3), stride=(2, 2), groups=240, bias=False)
          (_depthwise_conv_padding): ConstantPad2d(padding=(0, 1, 0, 1), value=0.0)
          (_bn1): BatchNorm2d(240, eps=0.001, momentum=0.01, affine=True, track_running_stats=True)
          (_se_adaptpool): AdaptiveAvgPool2d(output_size=1)
          (_se_reduce): Conv2d(240, 10, kernel_size=(1, 1), stride=(1, 1))
          (_se_reduce_padding): Identity()
          (_se_expand): Conv2d(10, 240, kernel_size=(1, 1), stride=(1, 1))
          (_se_expand_padding): Identity()
          (_project_conv): Conv2d(240, 80, kernel_size=(1, 1), stride=(1, 1), bias=False)
          (_project_conv_padding): Identity()
          (_bn2): BatchNorm2d(80, eps=0.001, momentum=0.01, affine=True, track_running_stats=True)
          (_swish): MemoryEfficientSwish()
        )
        (6): MBConvBlock(
          (_expand_conv): Conv2d(80, 480, kernel_size=(1, 1), stride=(1, 1), bias=False)
          (_expand_conv_padding): Identity()
          (_bn0): BatchNorm2d(480, eps=0.001, momentum=0.01, affine=True, track_running_stats=True)
          (_depthwise_conv): Conv2d(480, 480, kernel_size=(3, 3), stride=(1, 1), groups=480, bias=False)
          (_depthwise_conv_padding): ConstantPad2d(padding=(1, 1, 1, 1), value=0.0)
          (_bn1): BatchNorm2d(480, eps=0.001, momentum=0.01, affine=True, track_running_stats=True)
          (_se_adaptpool): AdaptiveAvgPool2d(output_size=1)
          (_se_reduce): Conv2d(480, 20, kernel_size=(1, 1), stride=(1, 1))
          (_se_reduce_padding): Identity()
          (_se_expand): Conv2d(20, 480, kernel_size=(1, 1), stride=(1, 1))
          (_se_expand_padding): Identity()
          (_project_conv): Conv2d(480, 80, kernel_size=(1, 1), stride=(1, 1), bias=False)
          (_project_conv_padding): Identity()
          (_bn2): BatchNorm2d(80, eps=0.001, momentum=0.01, affine=True, track_running_stats=True)
          (_swish): MemoryEfficientSwish()
        )
        (7): MBConvBlock(
          (_expand_conv): Conv2d(80, 480, kernel_size=(1, 1), stride=(1, 1), bias=False)
          (_expand_conv_padding): Identity()
          (_bn0): BatchNorm2d(480, eps=0.001, momentum=0.01, affine=True, track_running_stats=True)
          (_depthwise_conv): Conv2d(480, 480, kernel_size=(3, 3), stride=(1, 1), groups=480, bias=False)
          (_depthwise_conv_padding): ConstantPad2d(padding=(1, 1, 1, 1), value=0.0)
          (_bn1): BatchNorm2d(480, eps=0.001, momentum=0.01, affine=True, track_running_stats=True)
          (_se_adaptpool): AdaptiveAvgPool2d(output_size=1)
          (_se_reduce): Conv2d(480, 20, kernel_size=(1, 1), stride=(1, 1))
          (_se_reduce_padding): Identity()
          (_se_expand): Conv2d(20, 480, kernel_size=(1, 1), stride=(1, 1))
          (_se_expand_padding): Identity()
          (_project_conv): Conv2d(480, 80, kernel_size=(1, 1), stride=(1, 1), bias=False)
          (_project_conv_padding): Identity()
          (_bn2): BatchNorm2d(80, eps=0.001, momentum=0.01, affine=True, track_running_stats=True)
          (_swish): MemoryEfficientSwish()
        )
      )
      (4): Sequential(
        (8): MBConvBlock(
          (_expand_conv): Conv2d(80, 480, kernel_size=(1, 1), stride=(1, 1), bias=False)
          (_expand_conv_padding): Identity()
          (_bn0): BatchNorm2d(480, eps=0.001, momentum=0.01, affine=True, track_running_stats=True)
          (_depthwise_conv): Conv2d(480, 480, kernel_size=(5, 5), stride=(1, 1), groups=480, bias=False)
          (_depthwise_conv_padding): ConstantPad2d(padding=(2, 2, 2, 2), value=0.0)
          (_bn1): BatchNorm2d(480, eps=0.001, momentum=0.01, affine=True, track_running_stats=True)
          (_se_adaptpool): AdaptiveAvgPool2d(output_size=1)
          (_se_reduce): Conv2d(480, 20, kernel_size=(1, 1), stride=(1, 1))
          (_se_reduce_padding): Identity()
          (_se_expand): Conv2d(20, 480, kernel_size=(1, 1), stride=(1, 1))
          (_se_expand_padding): Identity()
          (_project_conv): Conv2d(480, 112, kernel_size=(1, 1), stride=(1, 1), bias=False)
          (_project_conv_padding): Identity()
          (_bn2): BatchNorm2d(112, eps=0.001, momentum=0.01, affine=True, track_running_stats=True)
          (_swish): MemoryEfficientSwish()
        )
        (9): MBConvBlock(
          (_expand_conv): Conv2d(112, 672, kernel_size=(1, 1), stride=(1, 1), bias=False)
          (_expand_conv_padding): Identity()
          (_bn0): BatchNorm2d(672, eps=0.001, momentum=0.01, affine=True, track_running_stats=True)
          (_depthwise_conv): Conv2d(672, 672, kernel_size=(5, 5), stride=(1, 1), groups=672, bias=False)
          (_depthwise_conv_padding): ConstantPad2d(padding=(2, 2, 2, 2), value=0.0)
          (_bn1): BatchNorm2d(672, eps=0.001, momentum=0.01, affine=True, track_running_stats=True)
          (_se_adaptpool): AdaptiveAvgPool2d(output_size=1)
          (_se_reduce): Conv2d(672, 28, kernel_size=(1, 1), stride=(1, 1))
          (_se_reduce_padding): Identity()
          (_se_expand): Conv2d(28, 672, kernel_size=(1, 1), stride=(1, 1))
          (_se_expand_padding): Identity()
          (_project_conv): Conv2d(672, 112, kernel_size=(1, 1), stride=(1, 1), bias=False)
          (_project_conv_padding): Identity()
          (_bn2): BatchNorm2d(112, eps=0.001, momentum=0.01, affine=True, track_running_stats=True)
          (_swish): MemoryEfficientSwish()
        )
        (10): MBConvBlock(
          (_expand_conv): Conv2d(112, 672, kernel_size=(1, 1), stride=(1, 1), bias=False)
          (_expand_conv_padding): Identity()
          (_bn0): BatchNorm2d(672, eps=0.001, momentum=0.01, affine=True, track_running_stats=True)
          (_depthwise_conv): Conv2d(672, 672, kernel_size=(5, 5), stride=(1, 1), groups=672, bias=False)
          (_depthwise_conv_padding): ConstantPad2d(padding=(2, 2, 2, 2), value=0.0)
          (_bn1): BatchNorm2d(672, eps=0.001, momentum=0.01, affine=True, track_running_stats=True)
          (_se_adaptpool): AdaptiveAvgPool2d(output_size=1)
          (_se_reduce): Conv2d(672, 28, kernel_size=(1, 1), stride=(1, 1))
          (_se_reduce_padding): Identity()
          (_se_expand): Conv2d(28, 672, kernel_size=(1, 1), stride=(1, 1))
          (_se_expand_padding): Identity()
          (_project_conv): Conv2d(672, 112, kernel_size=(1, 1), stride=(1, 1), bias=False)
          (_project_conv_padding): Identity()
          (_bn2): BatchNorm2d(112, eps=0.001, momentum=0.01, affine=True, track_running_stats=True)
          (_swish): MemoryEfficientSwish()
        )
      )
      (5): Sequential(
        (11): MBConvBlock(
          (_expand_conv): Conv2d(112, 672, kernel_size=(1, 1), stride=(1, 1), bias=False)
          (_expand_conv_padding): Identity()
          (_bn0): BatchNorm2d(672, eps=0.001, momentum=0.01, affine=True, track_running_stats=True)
          (_depthwise_conv): Conv2d(672, 672, kernel_size=(5, 5), stride=(2, 2), groups=672, bias=False)
          (_depthwise_conv_padding): ConstantPad2d(padding=(1, 2, 1, 2), value=0.0)
          (_bn1): BatchNorm2d(672, eps=0.001, momentum=0.01, affine=True, track_running_stats=True)
          (_se_adaptpool): AdaptiveAvgPool2d(output_size=1)
          (_se_reduce): Conv2d(672, 28, kernel_size=(1, 1), stride=(1, 1))
          (_se_reduce_padding): Identity()
          (_se_expand): Conv2d(28, 672, kernel_size=(1, 1), stride=(1, 1))
          (_se_expand_padding): Identity()
          (_project_conv): Conv2d(672, 192, kernel_size=(1, 1), stride=(1, 1), bias=False)
          (_project_conv_padding): Identity()
          (_bn2): BatchNorm2d(192, eps=0.001, momentum=0.01, affine=True, track_running_stats=True)
          (_swish): MemoryEfficientSwish()
        )
        (12): MBConvBlock(
          (_expand_conv): Conv2d(192, 1152, kernel_size=(1, 1), stride=(1, 1), bias=False)
          (_expand_conv_padding): Identity()
          (_bn0): BatchNorm2d(1152, eps=0.001, momentum=0.01, affine=True, track_running_stats=True)
          (_depthwise_conv): Conv2d(1152, 1152, kernel_size=(5, 5), stride=(1, 1), groups=1152, bias=False)
          (_depthwise_conv_padding): ConstantPad2d(padding=(2, 2, 2, 2), value=0.0)
          (_bn1): BatchNorm2d(1152, eps=0.001, momentum=0.01, affine=True, track_running_stats=True)
          (_se_adaptpool): AdaptiveAvgPool2d(output_size=1)
          (_se_reduce): Conv2d(1152, 48, kernel_size=(1, 1), stride=(1, 1))
          (_se_reduce_padding): Identity()
          (_se_expand): Conv2d(48, 1152, kernel_size=(1, 1), stride=(1, 1))
          (_se_expand_padding): Identity()
          (_project_conv): Conv2d(1152, 192, kernel_size=(1, 1), stride=(1, 1), bias=False)
          (_project_conv_padding): Identity()
          (_bn2): BatchNorm2d(192, eps=0.001, momentum=0.01, affine=True, track_running_stats=True)
          (_swish): MemoryEfficientSwish()
        )
        (13): MBConvBlock(
          (_expand_conv): Conv2d(192, 1152, kernel_size=(1, 1), stride=(1, 1), bias=False)
          (_expand_conv_padding): Identity()
          (_bn0): BatchNorm2d(1152, eps=0.001, momentum=0.01, affine=True, track_running_stats=True)
          (_depthwise_conv): Conv2d(1152, 1152, kernel_size=(5, 5), stride=(1, 1), groups=1152, bias=False)
          (_depthwise_conv_padding): ConstantPad2d(padding=(2, 2, 2, 2), value=0.0)
          (_bn1): BatchNorm2d(1152, eps=0.001, momentum=0.01, affine=True, track_running_stats=True)
          (_se_adaptpool): AdaptiveAvgPool2d(output_size=1)
          (_se_reduce): Conv2d(1152, 48, kernel_size=(1, 1), stride=(1, 1))
          (_se_reduce_padding): Identity()
          (_se_expand): Conv2d(48, 1152, kernel_size=(1, 1), stride=(1, 1))
          (_se_expand_padding): Identity()
          (_project_conv): Conv2d(1152, 192, kernel_size=(1, 1), stride=(1, 1), bias=False)
          (_project_conv_padding): Identity()
          (_bn2): BatchNorm2d(192, eps=0.001, momentum=0.01, affine=True, track_running_stats=True)
          (_swish): MemoryEfficientSwish()
        )
        (14): MBConvBlock(
          (_expand_conv): Conv2d(192, 1152, kernel_size=(1, 1), stride=(1, 1), bias=False)
          (_expand_conv_padding): Identity()
          (_bn0): BatchNorm2d(1152, eps=0.001, momentum=0.01, affine=True, track_running_stats=True)
          (_depthwise_conv): Conv2d(1152, 1152, kernel_size=(5, 5), stride=(1, 1), groups=1152, bias=False)
          (_depthwise_conv_padding): ConstantPad2d(padding=(2, 2, 2, 2), value=0.0)
          (_bn1): BatchNorm2d(1152, eps=0.001, momentum=0.01, affine=True, track_running_stats=True)
          (_se_adaptpool): AdaptiveAvgPool2d(output_size=1)
          (_se_reduce): Conv2d(1152, 48, kernel_size=(1, 1), stride=(1, 1))
          (_se_reduce_padding): Identity()
          (_se_expand): Conv2d(48, 1152, kernel_size=(1, 1), stride=(1, 1))
          (_se_expand_padding): Identity()
          (_project_conv): Conv2d(1152, 192, kernel_size=(1, 1), stride=(1, 1), bias=False)
          (_project_conv_padding): Identity()
          (_bn2): BatchNorm2d(192, eps=0.001, momentum=0.01, affine=True, track_running_stats=True)
          (_swish): MemoryEfficientSwish()
        )
      )
      (6): Sequential(
        (15): MBConvBlock(
          (_expand_conv): Conv2d(192, 1152, kernel_size=(1, 1), stride=(1, 1), bias=False)
          (_expand_conv_padding): Identity()
          (_bn0): BatchNorm2d(1152, eps=0.001, momentum=0.01, affine=True, track_running_stats=True)
          (_depthwise_conv): Conv2d(1152, 1152, kernel_size=(3, 3), stride=(1, 1), groups=1152, bias=False)
          (_depthwise_conv_padding): ConstantPad2d(padding=(1, 1, 1, 1), value=0.0)
          (_bn1): BatchNorm2d(1152, eps=0.001, momentum=0.01, affine=True, track_running_stats=True)
          (_se_adaptpool): AdaptiveAvgPool2d(output_size=1)
          (_se_reduce): Conv2d(1152, 48, kernel_size=(1, 1), stride=(1, 1))
          (_se_reduce_padding): Identity()
          (_se_expand): Conv2d(48, 1152, kernel_size=(1, 1), stride=(1, 1))
          (_se_expand_padding): Identity()
          (_project_conv): Conv2d(1152, 320, kernel_size=(1, 1), stride=(1, 1), bias=False)
          (_project_conv_padding): Identity()
          (_bn2): BatchNorm2d(320, eps=0.001, momentum=0.01, affine=True, track_running_stats=True)
          (_swish): MemoryEfficientSwish()
        )
      )
    )
    (_conv_head): Conv2d(320, 1280, kernel_size=(1, 1), stride=(1, 1), bias=False)
    (_conv_head_padding): Identity()
    (_bn1): BatchNorm2d(1280, eps=0.001, momentum=0.01, affine=True, track_running_stats=True)
    (_avg_pooling): AdaptiveAvgPool2d(output_size=1)
    (_dropout): Dropout(p=0.2, inplace=False)
    (_fc): Linear(in_features=1280, out_features=1000, bias=True)
    (_swish): MemoryEfficientSwish()
  )
  (decoder): UNetDecoder(
    (blocks): ModuleList(
      (0): UpCat(
        (upsample): UpSample(
          (upsample_non_trainable): Upsample(scale_factor=(2.0, 2.0), mode=nearest)
        )
        (convs): TwoConv(
          (conv_0): Convolution(
            (conv): Conv2d(432, 256, kernel_size=(3, 3), stride=(1, 1), padding=(1, 1), bias=False)
            (adn): ADN(
              (N): BatchNorm2d(256, eps=0.001, momentum=0.1, affine=True, track_running_stats=True)
              (D): Dropout(p=0.0, inplace=False)
              (A): ReLU(inplace=True)
            )
          )
          (conv_1): Convolution(
            (conv): Conv2d(256, 256, kernel_size=(3, 3), stride=(1, 1), padding=(1, 1), bias=False)
            (adn): ADN(
              (N): BatchNorm2d(256, eps=0.001, momentum=0.1, affine=True, track_running_stats=True)
              (D): Dropout(p=0.0, inplace=False)
              (A): ReLU(inplace=True)
            )
          )
        )
      )
      (1): UpCat(
        (upsample): UpSample(
          (upsample_non_trainable): Upsample(scale_factor=(2.0, 2.0), mode=nearest)
        )
        (convs): TwoConv(
          (conv_0): Convolution(
            (conv): Conv2d(296, 128, kernel_size=(3, 3), stride=(1, 1), padding=(1, 1), bias=False)
            (adn): ADN(
              (N): BatchNorm2d(128, eps=0.001, momentum=0.1, affine=True, track_running_stats=True)
              (D): Dropout(p=0.0, inplace=False)
              (A): ReLU(inplace=True)
            )
          )
          (conv_1): Convolution(
            (conv): Conv2d(128, 128, kernel_size=(3, 3), stride=(1, 1), padding=(1, 1), bias=False)
            (adn): ADN(
              (N): BatchNorm2d(128, eps=0.001, momentum=0.1, affine=True, track_running_stats=True)
              (D): Dropout(p=0.0, inplace=False)
              (A): ReLU(inplace=True)
            )
          )
        )
      )
      (2): UpCat(
        (upsample): UpSample(
          (upsample_non_trainable): Upsample(scale_factor=(2.0, 2.0), mode=nearest)
        )
        (convs): TwoConv(
          (conv_0): Convolution(
            (conv): Conv2d(152, 64, kernel_size=(3, 3), stride=(1, 1), padding=(1, 1), bias=False)
            (adn): ADN(
              (N): BatchNorm2d(64, eps=0.001, momentum=0.1, affine=True, track_running_stats=True)
              (D): Dropout(p=0.0, inplace=False)
              (A): ReLU(inplace=True)
            )
          )
          (conv_1): Convolution(
            (conv): Conv2d(64, 64, kernel_size=(3, 3), stride=(1, 1), padding=(1, 1), bias=False)
            (adn): ADN(
              (N): BatchNorm2d(64, eps=0.001, momentum=0.1, affine=True, track_running_stats=True)
              (D): Dropout(p=0.0, inplace=False)
              (A): ReLU(inplace=True)
            )
          )
        )
      )
      (3): UpCat(
        (upsample): UpSample(
          (upsample_non_trainable): Upsample(scale_factor=(2.0, 2.0), mode=nearest)
        )
        (convs): TwoConv(
          (conv_0): Convolution(
            (conv): Conv2d(80, 32, kernel_size=(3, 3), stride=(1, 1), padding=(1, 1), bias=False)
            (adn): ADN(
              (N): BatchNorm2d(32, eps=0.001, momentum=0.1, affine=True, track_running_stats=True)
              (D): Dropout(p=0.0, inplace=False)
              (A): ReLU(inplace=True)
            )
          )
          (conv_1): Convolution(
            (conv): Conv2d(32, 32, kernel_size=(3, 3), stride=(1, 1), padding=(1, 1), bias=False)
            (adn): ADN(
              (N): BatchNorm2d(32, eps=0.001, momentum=0.1, affine=True, track_running_stats=True)
              (D): Dropout(p=0.0, inplace=False)
              (A): ReLU(inplace=True)
            )
          )
        )
      )
      (4): UpCat(
        (upsample): UpSample(
          (upsample_non_trainable): Upsample(scale_factor=(2.0, 2.0), mode=nearest)
        )
        (convs): TwoConv(
          (conv_0): Convolution(
            (conv): Conv2d(32, 16, kernel_size=(3, 3), stride=(1, 1), padding=(1, 1), bias=False)
            (adn): ADN(
              (N): BatchNorm2d(16, eps=0.001, momentum=0.1, affine=True, track_running_stats=True)
              (D): Dropout(p=0.0, inplace=False)
              (A): ReLU(inplace=True)
            )
          )
          (conv_1): Convolution(
            (conv): Conv2d(16, 16, kernel_size=(3, 3), stride=(1, 1), padding=(1, 1), bias=False)
            (adn): ADN(
              (N): BatchNorm2d(16, eps=0.001, momentum=0.1, affine=True, track_running_stats=True)
              (D): Dropout(p=0.0, inplace=False)
              (A): ReLU(inplace=True)
            )
          )
        )
      )
    )
  )
  (segmentation_head): SegmentationHead(
    (0): Conv2d(16, 1, kernel_size=(3, 3), stride=(1, 1), padding=(1, 1))
    (1): Identity()
    (2): Identity()
  )
)
2024-03-17 22:52:36,365 Brain Segmentation INFO: ----------------------------------------------------------------------------------------------------
2024-03-17 22:53:42,392 Brain Segmentation INFO: model was saved, epoch 0 is the best.
2024-03-17 22:53:42,393 Brain Segmentation INFO: 
====================
…
