…
3,989 Brain Segmentation INFO: Namespace(dataset_dir='/mnt/strokeapp/Datasets/apis'
 device='cuda'
 epochs=100
 eval_batch_size=1
 lr=0.0001
 mask_dir='dir/to/mask/dir'
 model_name='segresnet'
 name='segresnet'
 output_dir='output/segresnet'
 roi=(128
 128
 96)
 seed=123
 spatial_size=(96
 96
 96)
 sw_batch=2
 test_batch_size=4
 train_batch_size=1
 weight_decay=1e-05)
2024-02-25 21:01:22,005 Brain Segmentation INFO: ----------------------------------------------------------------------------------------------------
SegResNet(
  (act_mod): ReLU(inplace=True)
  (convInit): Convolution(
    (conv): Conv3d(1, 8, kernel_size=(3, 3, 3), stride=(1, 1, 1), padding=(1, 1, 1), bias=False)
  )
  (down_layers): ModuleList(
    (0): Sequential(
      (0): Identity()
      (1): ResBlock(
        (norm1): GroupNorm(8, 8, eps=1e-05, affine=True)
        (norm2): GroupNorm(8, 8, eps=1e-05, affine=True)
        (act): ReLU(inplace=True)
        (conv1): Convolution(
          (conv): Conv3d(8, 8, kernel_size=(3, 3, 3), stride=(1, 1, 1), padding=(1, 1, 1), bias=False)
        )
        (conv2): Convolution(
          (conv): Conv3d(8, 8, kernel_size=(3, 3, 3), stride=(1, 1, 1), padding=(1, 1, 1), bias=False)
        )
      )
    )
    (1): Sequential(
      (0): Convolution(
        (conv): Conv3d(8, 16, kernel_size=(3, 3, 3), stride=(2, 2, 2), padding=(1, 1, 1), bias=False)
      )
      (1): ResBlock(
        (norm1): GroupNorm(8, 16, eps=1e-05, affine=True)
        (norm2): GroupNorm(8, 16, eps=1e-05, affine=True)
        (act): ReLU(inplace=True)
        (conv1): Convolution(
          (conv): Conv3d(16, 16, kernel_size=(3, 3, 3), stride=(1, 1, 1), padding=(1, 1, 1), bias=False)
        )
        (conv2): Convolution(
          (conv): Conv3d(16, 16, kernel_size=(3, 3, 3), stride=(1, 1, 1), padding=(1, 1, 1), bias=False)
        )
      )
      (2): ResBlock(
        (norm1): GroupNorm(8, 16, eps=1e-05, affine=True)
        (norm2): GroupNorm(8, 16, eps=1e-05, affine=True)
        (act): ReLU(inplace=True)
        (conv1): Convolution(
          (conv): Conv3d(16, 16, kernel_size=(3, 3, 3), stride=(1, 1, 1), padding=(1, 1, 1), bias=False)
        )
        (conv2): Convolution(
          (conv): Conv3d(16, 16, kernel_size=(3, 3, 3), stride=(1, 1, 1), padding=(1, 1, 1), bias=False)
        )
      )
    )
    (2): Sequential(
      (0): Convolution(
        (conv): Conv3d(16, 32, kernel_size=(3, 3, 3), stride=(2, 2, 2), padding=(1, 1, 1), bias=False)
      )
      (1): ResBlock(
        (norm1): GroupNorm(8, 32, eps=1e-05, affine=True)
        (norm2): GroupNorm(8, 32, eps=1e-05, affine=True)
        (act): ReLU(inplace=True)
        (conv1): Convolution(
          (conv): Conv3d(32, 32, kernel_size=(3, 3, 3), stride=(1, 1, 1), padding=(1, 1, 1), bias=False)
        )
        (conv2): Convolution(
          (conv): Conv3d(32, 32, kernel_size=(3, 3, 3), stride=(1, 1, 1), padding=(1, 1, 1), bias=False)
        )
      )
      (2): ResBlock(
        (norm1): GroupNorm(8, 32, eps=1e-05, affine=True)
        (norm2): GroupNorm(8, 32, eps=1e-05, affine=True)
        (act): ReLU(inplace=True)
        (conv1): Convolution(
          (conv): Conv3d(32, 32, kernel_size=(3, 3, 3), stride=(1, 1, 1), padding=(1, 1, 1), bias=False)
        )
        (conv2): Convolution(
          (conv): Conv3d(32, 32, kernel_size=(3, 3, 3), stride=(1, 1, 1), padding=(1, 1, 1), bias=False)
        )
      )
    )
    (3): Sequential(
      (0): Convolution(
        (conv): Conv3d(32, 64, kernel_size=(3, 3, 3), stride=(2, 2, 2), padding=(1, 1, 1), bias=False)
      )
      (1): ResBlock(
        (norm1): GroupNorm(8, 64, eps=1e-05, affine=True)
        (norm2): GroupNorm(8, 64, eps=1e-05, affine=True)
        (act): ReLU(inplace=True)
        (conv1): Convolution(
          (conv): Conv3d(64, 64, kernel_size=(3, 3, 3), stride=(1, 1, 1), padding=(1, 1, 1), bias=False)
        )
        (conv2): Convolution(
          (conv): Conv3d(64, 64, kernel_size=(3, 3, 3), stride=(1, 1, 1), padding=(1, 1, 1), bias=False)
        )
      )
      (2): ResBlock(
        (norm1): GroupNorm(8, 64, eps=1e-05, affine=True)
        (norm2): GroupNorm(8, 64, eps=1e-05, affine=True)
        (act): ReLU(inplace=True)
        (conv1): Convolution(
          (conv): Conv3d(64, 64, kernel_size=(3, 3, 3), stride=(1, 1, 1), padding=(1, 1, 1), bias=False)
        )
        (conv2): Convolution(
          (conv): Conv3d(64, 64, kernel_size=(3, 3, 3), stride=(1, 1, 1), padding=(1, 1, 1), bias=False)
        )
      )
      (3): ResBlock(
        (norm1): GroupNorm(8, 64, eps=1e-05, affine=True)
        (norm2): GroupNorm(8, 64, eps=1e-05, affine=True)
        (act): ReLU(inplace=True)
        (conv1): Convolution(
          (conv): Conv3d(64, 64, kernel_size=(3, 3, 3), stride=(1, 1, 1), padding=(1, 1, 1), bias=False)
        )
        (conv2): Convolution(
          (conv): Conv3d(64, 64, kernel_size=(3, 3, 3), stride=(1, 1, 1), padding=(1, 1, 1), bias=False)
        )
      )
      (4): ResBlock(
        (norm1): GroupNorm(8, 64, eps=1e-05, affine=True)
        (norm2): GroupNorm(8, 64, eps=1e-05, affine=True)
        (act): ReLU(inplace=True)
        (conv1): Convolution(
          (conv): Conv3d(64, 64, kernel_size=(3, 3, 3), stride=(1, 1, 1), padding=(1, 1, 1), bias=False)
        )
        (conv2): Convolution(
          (conv): Conv3d(64, 64, kernel_size=(3, 3, 3), stride=(1, 1, 1), padding=(1, 1, 1), bias=False)
        )
      )
    )
  )
  (up_layers): ModuleList(
    (0): Sequential(
      (0): ResBlock(
        (norm1): GroupNorm(8, 32, eps=1e-05, affine=True)
        (norm2): GroupNorm(8, 32, eps=1e-05, affine=True)
        (act): ReLU(inplace=True)
        (conv1): Convolution(
          (conv): Conv3d(32, 32, kernel_size=(3, 3, 3), stride=(1, 1, 1), padding=(1, 1, 1), bias=False)
        )
        (conv2): Convolution(
          (conv): Conv3d(32, 32, kernel_size=(3, 3, 3), stride=(1, 1, 1), padding=(1, 1, 1), bias=False)
        )
      )
    )
    (1): Sequential(
      (0): ResBlock(
        (norm1): GroupNorm(8, 16, eps=1e-05, affine=True)
        (norm2): GroupNorm(8, 16, eps=1e-05, affine=True)
        (act): ReLU(inplace=True)
        (conv1): Convolution(
          (conv): Conv3d(16, 16, kernel_size=(3, 3, 3), stride=(1, 1, 1), padding=(1, 1, 1), bias=False)
        )
        (conv2): Convolution(
          (conv): Conv3d(16, 16, kernel_size=(3, 3, 3), stride=(1, 1, 1), padding=(1, 1, 1), bias=False)
        )
      )
    )
    (2): Sequential(
      (0): ResBlock(
        (norm1): GroupNorm(8, 8, eps=1e-05, affine=True)
        (norm2): GroupNorm(8, 8, eps=1e-05, affine=True)
        (act): ReLU(inplace=True)
        (conv1): Convolution(
          (conv): Conv3d(8, 8, kernel_size=(3, 3, 3), stride=(1, 1, 1), padding=(1, 1, 1), bias=False)
        )
        (conv2): Convolution(
          (conv): Conv3d(8, 8, kernel_size=(3, 3, 3), stride=(1, 1, 1), padding=(1, 1, 1), bias=False)
        )
      )
    )
  )
  (up_samples): ModuleList(
    (0): Sequential(
      (0): Convolution(
        (conv): Conv3d(64, 32, kernel_size=(1, 1, 1), stride=(1, 1, 1), bias=False)
      )
      (1): UpSample(
        (upsample_non_trainable): Upsample(scale_factor=(2.0, 2.0, 2.0), mode=trilinear)
      )
    )
    (1): Sequential(
      (0): Convolution(
        (conv): Conv3d(32, 16, kernel_size=(1, 1, 1), stride=(1, 1, 1), bias=False)
      )
      (1): UpSample(
        (upsample_non_trainable): Upsample(scale_factor=(2.0, 2.0, 2.0), mode=trilinear)
      )
    )
    (2): Sequential(
      (0): Convolution(
        (conv): Conv3d(16, 8, kernel_size=(1, 1, 1), stride=(1, 1, 1), bias=False)
      )
      (1): UpSample(
        (upsample_non_trainable): Upsample(scale_factor=(2.0, 2.0, 2.0), mode=trilinear)
      )
    )
  )
  (conv_final): Sequential(
    (0): GroupNorm(8, 8, eps=1e-05, affine=True)
    (1): ReLU(inplace=True)
    (2): Convolution(
      (conv): Conv3d(8, 2, kernel_size=(1, 1, 1), stride=(1, 1, 1))
    )
  )
)
----------------------------------------------------------------------------------------------------

2024-02-25 21:01:22,006 Brain Segmentation INFO: SegResNet(
  (act_mod): ReLU(inplace=True)
  (convInit): Convolution(
    (conv): Conv3d(1, 8, kernel_size=(3, 3, 3), stride=(1, 1, 1), padding=(1, 1, 1), bias=False)
  )
  (down_layers): ModuleList(
    (0): Sequential(
      (0): Identity()
      (1): ResBlock(
        (norm1): GroupNorm(8, 8, eps=1e-05, affine=True)
        (norm2): GroupNorm(8, 8, eps=1e-05, affine=True)
        (act): ReLU(inplace=True)
        (conv1): Convolution(
          (conv): Conv3d(8, 8, kernel_size=(3, 3, 3), stride=(1, 1, 1), padding=(1, 1, 1), bias=False)
        )
        (conv2): Convolution(
          (conv): Conv3d(8, 8, kernel_size=(3, 3, 3), stride=(1, 1, 1), padding=(1, 1, 1), bias=False)
        )
      )
    )
    (1): Sequential(
      (0): Convolution(
        (conv): Conv3d(8, 16, kernel_size=(3, 3, 3), stride=(2, 2, 2), padding=(1, 1, 1), bias=False)
      )
      (1): ResBlock(
        (norm1): GroupNorm(8, 16, eps=1e-05, affine=True)
        (norm2): GroupNorm(8, 16, eps=1e-05, affine=True)
        (act): ReLU(inplace=True)
        (conv1): Convolution(
          (conv): Conv3d(16, 16, kernel_size=(3, 3, 3), stride=(1, 1, 1), padding=(1, 1, 1), bias=False)
        )
        (conv2): Convolution(
          (conv): Conv3d(16, 16, kernel_size=(3, 3, 3), stride=(1, 1, 1), padding=(1, 1, 1), bias=False)
        )
      )
      (2): ResBlock(
        (norm1): GroupNorm(8, 16, eps=1e-05, affine=True)
        (norm2): GroupNorm(8, 16, eps=1e-05, affine=True)
        (act): ReLU(inplace=True)
        (conv1): Convolution(
          (conv): Conv3d(16, 16, kernel_size=(3, 3, 3), stride=(1, 1, 1), padding=(1, 1, 1), bias=False)
        )
        (conv2): Convolution(
          (conv): Conv3d(16, 16, kernel_size=(3, 3, 3), stride=(1, 1, 1), padding=(1, 1, 1), bias=False)
        )
      )
    )
    (2): Sequential(
      (0): Convolution(
        (conv): Conv3d(16, 32, kernel_size=(3, 3, 3), stride=(2, 2, 2), padding=(1, 1, 1), bias=False)
      )
      (1): ResBlock(
        (norm1): GroupNorm(8, 32, eps=1e-05, affine=True)
        (norm2): GroupNorm(8, 32, eps=1e-05, affine=True)
        (act): ReLU(inplace=True)
        (conv1): Convolution(
          (conv): Conv3d(32, 32, kernel_size=(3, 3, 3), stride=(1, 1, 1), padding=(1, 1, 1), bias=False)
        )
        (conv2): Convolution(
          (conv): Conv3d(32, 32, kernel_size=(3, 3, 3), stride=(1, 1, 1), padding=(1, 1, 1), bias=False)
        )
      )
      (2): ResBlock(
        (norm1): GroupNorm(8, 32, eps=1e-05, affine=True)
        (norm2): GroupNorm(8, 32, eps=1e-05, affine=True)
        (act): ReLU(inplace=True)
        (conv1): Convolution(
          (conv): Conv3d(32, 32, kernel_size=(3, 3, 3), stride=(1, 1, 1), padding=(1, 1, 1), bias=False)
        )
        (conv2): Convolution(
          (conv): Conv3d(32, 32, kernel_size=(3, 3, 3), stride=(1, 1, 1), padding=(1, 1, 1), bias=False)
        )
      )
    )
    (3): Sequential(
      (0): Convolution(
        (conv): Conv3d(32, 64, kernel_size=(3, 3, 3), stride=(2, 2, 2), padding=(1, 1, 1), bias=False)
      )
      (1): ResBlock(
        (norm1): GroupNorm(8, 64, eps=1e-05, affine=True)
        (norm2): GroupNorm(8, 64, eps=1e-05, affine=True)
        (act): ReLU(inplace=True)
        (conv1): Convolution(
          (conv): Conv3d(64, 64, kernel_size=(3, 3, 3), stride=(1, 1, 1), padding=(1, 1, 1), bias=False)
        )
        (conv2): Convolution(
          (conv): Conv3d(64, 64, kernel_size=(3, 3, 3), stride=(1, 1, 1), padding=(1, 1, 1), bias=False)
        )
      )
      (2): ResBlock(
        (norm1): GroupNorm(8, 64, eps=1e-05, affine=True)
        (norm2): GroupNorm(8, 64, eps=1e-05, affine=True)
        (act): ReLU(inplace=True)
        (conv1): Convolution(
          (conv): Conv3d(64, 64, kernel_size=(3, 3, 3), stride=(1, 1, 1), padding=(1, 1, 1), bias=False)
        )
        (conv2): Convolution(
          (conv): Conv3d(64, 64, kernel_size=(3, 3, 3), stride=(1, 1, 1), padding=(1, 1, 1), bias=False)
        )
      )
      (3): ResBlock(
        (norm1): GroupNorm(8, 64, eps=1e-05, affine=True)
        (norm2): GroupNorm(8, 64, eps=1e-05, affine=True)
        (act): ReLU(inplace=True)
        (conv1): Convolution(
          (conv): Conv3d(64, 64, kernel_size=(3, 3, 3), stride=(1, 1, 1), padding=(1, 1, 1), bias=False)
        )
        (conv2): Convolution(
          (conv): Conv3d(64, 64, kernel_size=(3, 3, 3), stride=(1, 1, 1), padding=(1, 1, 1), bias=False)
        )
      )
      (4): ResBlock(
        (norm1): GroupNorm(8, 64, eps=1e-05, affine=True)
        (norm2): GroupNorm(8, 64, eps=1e-05, affine=True)
        (act): ReLU(inplace=True)
        (conv1): Convolution(
          (conv): Conv3d(64, 64, kernel_size=(3, 3, 3), stride=(1, 1, 1), padding=(1, 1, 1), bias=False)
        )
        (conv2): Convolution(
          (conv): Conv3d(64, 64, kernel_size=(3, 3, 3), stride=(1, 1, 1), padding=(1, 1, 1), bias=False)
        )
      )
    )
  )
  (up_layers): ModuleList(
    (0): Sequential(
      (0): ResBlock(
        (norm1): GroupNorm(8, 32, eps=1e-05, affine=True)
        (norm2): GroupNorm(8, 32, eps=1e-05, affine=True)
        (act): ReLU(inplace=True)
        (conv1): Convolution(
          (conv): Conv3d(32, 32, kernel_size=(3, 3, 3), stride=(1, 1, 1), padding=(1, 1, 1), bias=False)
        )
        (conv2): Convolution(
          (conv): Conv3d(32, 32, kernel_size=(3, 3, 3), stride=(1, 1, 1), padding=(1, 1, 1), bias=False)
        )
      )
    )
    (1): Sequential(
      (0): ResBlock(
        (norm1): GroupNorm(8, 16, eps=1e-05, affine=True)
        (norm2): GroupNorm(8, 16, eps=1e-05, affine=True)
        (act): ReLU(inplace=True)
        (conv1): Convolution(
          (conv): Conv3d(16, 16, kernel_size=(3, 3, 3), stride=(1, 1, 1), padding=(1, 1, 1), bias=False)
        )
        (conv2): Convolution(
          (conv): Conv3d(16, 16, kernel_size=(3, 3, 3), stride=(1, 1, 1), padding=(1, 1, 1), bias=False)
        )
      )
    )
    (2): Sequential(
      (0): ResBlock(
        (norm1): GroupNorm(8, 8, eps=1e-05, affine=True)
        (norm2): GroupNorm(8, 8, eps=1e-05, affine=True)
        (act): ReLU(inplace=True)
        (conv1): Convolution(
          (conv): Conv3d(8, 8, kernel_size=(3, 3, 3), stride=(1, 1, 1), padding=(1, 1, 1), bias=False)
        )
        (conv2): Convolution(
          (conv): Conv3d(8, 8, kernel_size=(3, 3, 3), stride=(1, 1, 1), padding=(1, 1, 1), bias=False)
        )
      )
    )
  )
  (up_samples): ModuleList(
    (0): Sequential(
      (0): Convolution(
        (conv): Conv3d(64, 32, kernel_size=(1, 1, 1), stride=(1, 1, 1), bias=False)
      )
      (1): UpSample(
        (upsample_non_trainable): Upsample(scale_factor=(2.0, 2.0, 2.0), mode=trilinear)
      )
    )
    (1): Sequential(
      (0): Convolution(
        (conv): Conv3d(32, 16, kernel_size=(1, 1, 1), stride=(1, 1, 1), bias=False)
      )
      (1): UpSample(
        (upsample_non_trainable): Upsample(scale_factor=(2.0, 2.0, 2.0), mode=trilinear)
      )
    )
    (2): Sequential(
      (0): Convolution(
        (conv): Conv3d(16, 8, kernel_size=(1, 1, 1), stride=(1, 1, 1), bias=False)
      )
      (1): UpSample(
        (upsample_non_trainable): Upsample(scale_factor=(2.0, 2.0, 2.0), mode=trilinear)
      )
    )
  )
  (conv_final): Sequential(
    (0): GroupNorm(8, 8, eps=1e-05, affine=True)
    (1): ReLU(inplace=True)
    (2): Convolution(
      (conv): Conv3d(8, 2, kernel_size=(1, 1, 1), stride=(1, 1, 1))
    )
  )
)
2024-02-25 21:01:22,009 Brain Segmentation INFO: ----------------------------------------------------------------------------------------------------
2024-02-25 21:02:32,003 Brain Segmentation INFO: model was saved, epoch 0 is the best.
2024-02-25 21:02:32,004 Brain Segmentation INFO: ----------------------------------------------------------------------------------------------------
…
