…
 fig_dir='fig'
 image_dir='/mnt/strokeapp/Datasets/Seg_ctmri_2d'
 input='real_ct'
 lr=0.001
 mask_dir='/mnt/strokeapp/Datasets/Seg_mask_2d'
 model_name='segresnet'
 name='segresnet_real_ct'
 output_dir='output/segresnet_real_ct'
 roi=(128
 128)
 seed=123
 spatial_size=(96
 96
 96)
 sw_batch=4
 synthesize_model='resvit'
 test_batch_size=4
 train_batch_size=16
 weight_decay=0.0001)
2024-03-17 22:40:26,423 Brain Segmentation INFO: ----------------------------------------------------------------------------------------------------
SegResNet(
  (act_mod): ReLU(inplace=True)
  (convInit): Convolution(
    (conv): Conv2d(1, 8, kernel_size=(3, 3), stride=(1, 1), padding=(1, 1), bias=False)
  )
  (down_layers): ModuleList(
    (0): Sequential(
      (0): Identity()
      (1): ResBlock(
        (norm1): GroupNorm(8, 8, eps=1e-05, affine=True)
        (norm2): GroupNorm(8, 8, eps=1e-05, affine=True)
        (act): ReLU(inplace=True)
        (conv1): Convolution(
          (conv): Conv2d(8, 8, kernel_size=(3, 3), stride=(1, 1), padding=(1, 1), bias=False)
        )
        (conv2): Convolution(
          (conv): Conv2d(8, 8, kernel_size=(3, 3), stride=(1, 1), padding=(1, 1), bias=False)
        )
      )
    )
    (1): Sequential(
      (0): Convolution(
        (conv): Conv2d(8, 16, kernel_size=(3, 3), stride=(2, 2), padding=(1, 1), bias=False)
      )
      (1): ResBlock(
        (norm1): GroupNorm(8, 16, eps=1e-05, affine=True)
        (norm2): GroupNorm(8, 16, eps=1e-05, affine=True)
        (act): ReLU(inplace=True)
        (conv1): Convolution(
          (conv): Conv2d(16, 16, kernel_size=(3, 3), stride=(1, 1), padding=(1, 1), bias=False)
        )
        (conv2): Convolution(
          (conv): Conv2d(16, 16, kernel_size=(3, 3), stride=(1, 1), padding=(1, 1), bias=False)
        )
      )
      (2): ResBlock(
        (norm1): GroupNorm(8, 16, eps=1e-05, affine=True)
        (norm2): GroupNorm(8, 16, eps=1e-05, affine=True)
        (act): ReLU(inplace=True)
        (conv1): Convolution(
          (conv): Conv2d(16, 16, kernel_size=(3, 3), stride=(1, 1), padding=(1, 1), bias=False)
        )
        (conv2): Convolution(
          (conv): Conv2d(16, 16, kernel_size=(3, 3), stride=(1, 1), padding=(1, 1), bias=False)
        )
      )
    )
    (2): Sequential(
      (0): Convolution(
        (conv): Conv2d(16, 32, kernel_size=(3, 3), stride=(2, 2), padding=(1, 1), bias=False)
      )
      (1): ResBlock(
        (norm1): GroupNorm(8, 32, eps=1e-05, affine=True)
        (norm2): GroupNorm(8, 32, eps=1e-05, affine=True)
        (act): ReLU(inplace=True)
        (conv1): Convolution(
          (conv): Conv2d(32, 32, kernel_size=(3, 3), stride=(1, 1), padding=(1, 1), bias=False)
        )
        (conv2): Convolution(
          (conv): Conv2d(32, 32, kernel_size=(3, 3), stride=(1, 1), padding=(1, 1), bias=False)
        )
      )
      (2): ResBlock(
        (norm1): GroupNorm(8, 32, eps=1e-05, affine=True)
        (norm2): GroupNorm(8, 32, eps=1e-05, affine=True)
        (act): ReLU(inplace=True)
        (conv1): Convolution(
          (conv): Conv2d(32, 32, kernel_size=(3, 3), stride=(1, 1), padding=(1, 1), bias=False)
        )
        (conv2): Convolution(
          (conv): Conv2d(32, 32, kernel_size=(3, 3), stride=(1, 1), padding=(1, 1), bias=False)
        )
      )
    )
    (3): Sequential(
      (0): Convolution(
        (conv): Conv2d(32, 64, kernel_size=(3, 3), stride=(2, 2), padding=(1, 1), bias=False)
      )
      (1): ResBlock(
        (norm1): GroupNorm(8, 64, eps=1e-05, affine=True)
        (norm2): GroupNorm(8, 64, eps=1e-05, affine=True)
        (act): ReLU(inplace=True)
        (conv1): Convolution(
          (conv): Conv2d(64, 64, kernel_size=(3, 3), stride=(1, 1), padding=(1, 1), bias=False)
        )
        (conv2): Convolution(
          (conv): Conv2d(64, 64, kernel_size=(3, 3), stride=(1, 1), padding=(1, 1), bias=False)
        )
      )
      (2): ResBlock(
        (norm1): GroupNorm(8, 64, eps=1e-05, affine=True)
        (norm2): GroupNorm(8, 64, eps=1e-05, affine=True)
        (act): ReLU(inplace=True)
        (conv1): Convolution(
          (conv): Conv2d(64, 64, kernel_size=(3, 3), stride=(1, 1), padding=(1, 1), bias=False)
        )
        (conv2): Convolution(
          (conv): Conv2d(64, 64, kernel_size=(3, 3), stride=(1, 1), padding=(1, 1), bias=False)
        )
      )
      (3): ResBlock(
        (norm1): GroupNorm(8, 64, eps=1e-05, affine=True)
        (norm2): GroupNorm(8, 64, eps=1e-05, affine=True)
        (act): ReLU(inplace=True)
        (conv1): Convolution(
          (conv): Conv2d(64, 64, kernel_size=(3, 3), stride=(1, 1), padding=(1, 1), bias=False)
        )
        (conv2): Convolution(
          (conv): Conv2d(64, 64, kernel_size=(3, 3), stride=(1, 1), padding=(1, 1), bias=False)
        )
      )
      (4): ResBlock(
        (norm1): GroupNorm(8, 64, eps=1e-05, affine=True)
        (norm2): GroupNorm(8, 64, eps=1e-05, affine=True)
        (act): ReLU(inplace=True)
        (conv1): Convolution(
          (conv): Conv2d(64, 64, kernel_size=(3, 3), stride=(1, 1), padding=(1, 1), bias=False)
        )
        (conv2): Convolution(
          (conv): Conv2d(64, 64, kernel_size=(3, 3), stride=(1, 1), padding=(1, 1), bias=False)
        )
      )
    )
  )
  (up_layers): ModuleList(
    (0): Sequential(
      (0): ResBlock(
        (norm1): GroupNorm(8, 32, eps=1e-05, affine=True)
        (norm2): GroupNorm(8, 32, eps=1e-05, affine=True)
        (act): ReLU(inplace=True)
        (conv1): Convolution(
          (conv): Conv2d(32, 32, kernel_size=(3, 3), stride=(1, 1), padding=(1, 1), bias=False)
        )
        (conv2): Convolution(
          (conv): Conv2d(32, 32, kernel_size=(3, 3), stride=(1, 1), padding=(1, 1), bias=False)
        )
      )
    )
    (1): Sequential(
      (0): ResBlock(
        (norm1): GroupNorm(8, 16, eps=1e-05, affine=True)
        (norm2): GroupNorm(8, 16, eps=1e-05, affine=True)
        (act): ReLU(inplace=True)
        (conv1): Convolution(
          (conv): Conv2d(16, 16, kernel_size=(3, 3), stride=(1, 1), padding=(1, 1), bias=False)
        )
        (conv2): Convolution(
          (conv): Conv2d(16, 16, kernel_size=(3, 3), stride=(1, 1), padding=(1, 1), bias=False)
        )
      )
    )
    (2): Sequential(
      (0): ResBlock(
        (norm1): GroupNorm(8, 8, eps=1e-05, affine=True)
        (norm2): GroupNorm(8, 8, eps=1e-05, affine=True)
        (act): ReLU(inplace=True)
        (conv1): Convolution(
          (conv): Conv2d(8, 8, kernel_size=(3, 3), stride=(1, 1), padding=(1, 1), bias=False)
        )
        (conv2): Convolution(
          (conv): Conv2d(8, 8, kernel_size=(3, 3), stride=(1, 1), padding=(1, 1), bias=False)
        )
      )
    )
  )
  (up_samples): ModuleList(
    (0): Sequential(
      (0): Convolution(
        (conv): Conv2d(64, 32, kernel_size=(1, 1), stride=(1, 1), bias=False)
      )
      (1): UpSample(
        (upsample_non_trainable): Upsample(scale_factor=(2.0, 2.0), mode=bilinear)
      )
    )
    (1): Sequential(
      (0): Convolution(
        (conv): Conv2d(32, 16, kernel_size=(1, 1), stride=(1, 1), bias=False)
      )
      (1): UpSample(
        (upsample_non_trainable): Upsample(scale_factor=(2.0, 2.0), mode=bilinear)
      )
    )
    (2): Sequential(
      (0): Convolution(
        (conv): Conv2d(16, 8, kernel_size=(1, 1), stride=(1, 1), bias=False)
      )
      (1): UpSample(
        (upsample_non_trainable): Upsample(scale_factor=(2.0, 2.0), mode=bilinear)
      )
    )
  )
  (conv_final): Sequential(
    (0): GroupNorm(8, 8, eps=1e-05, affine=True)
    (1): ReLU(inplace=True)
    (2): Convolution(
      (conv): Conv2d(8, 1, kernel_size=(1, 1), stride=(1, 1))
    )
  )
)
----------------------------------------------------------------------------------------------------

2024-03-17 22:40:26,424 Brain Segmentation INFO: SegResNet(
  (act_mod): ReLU(inplace=True)
  (convInit): Convolution(
    (conv): Conv2d(1, 8, kernel_size=(3, 3), stride=(1, 1), padding=(1, 1), bias=False)
  )
  (down_layers): ModuleList(
    (0): Sequential(
      (0): Identity()
      (1): ResBlock(
        (norm1): GroupNorm(8, 8, eps=1e-05, affine=True)
        (norm2): GroupNorm(8, 8, eps=1e-05, affine=True)
        (act): ReLU(inplace=True)
        (conv1): Convolution(
          (conv): Conv2d(8, 8, kernel_size=(3, 3), stride=(1, 1), padding=(1, 1), bias=False)
        )
        (conv2): Convolution(
          (conv): Conv2d(8, 8, kernel_size=(3, 3), stride=(1, 1), padding=(1, 1), bias=False)
        )
      )
    )
    (1): Sequential(
      (0): Convolution(
        (conv): Conv2d(8, 16, kernel_size=(3, 3), stride=(2, 2), padding=(1, 1), bias=False)
      )
      (1): ResBlock(
        (norm1): GroupNorm(8, 16, eps=1e-05, affine=True)
        (norm2): GroupNorm(8, 16, eps=1e-05, affine=True)
        (act): ReLU(inplace=True)
        (conv1): Convolution(
          (conv): Conv2d(16, 16, kernel_size=(3, 3), stride=(1, 1), padding=(1, 1), bias=False)
        )
        (conv2): Convolution(
          (conv): Conv2d(16, 16, kernel_size=(3, 3), stride=(1, 1), padding=(1, 1), bias=False)
        )
      )
      (2): ResBlock(
        (norm1): GroupNorm(8, 16, eps=1e-05, affine=True)
        (norm2): GroupNorm(8, 16, eps=1e-05, affine=True)
        (act): ReLU(inplace=True)
        (conv1): Convolution(
          (conv): Conv2d(16, 16, kernel_size=(3, 3), stride=(1, 1), padding=(1, 1), bias=False)
        )
        (conv2): Convolution(
          (conv): Conv2d(16, 16, kernel_size=(3, 3), stride=(1, 1), padding=(1, 1), bias=False)
        )
      )
    )
    (2): Sequential(
      (0): Convolution(
        (conv): Conv2d(16, 32, kernel_size=(3, 3), stride=(2, 2), padding=(1, 1), bias=False)
      )
      (1): ResBlock(
        (norm1): GroupNorm(8, 32, eps=1e-05, affine=True)
        (norm2): GroupNorm(8, 32, eps=1e-05, affine=True)
        (act): ReLU(inplace=True)
        (conv1): Convolution(
          (conv): Conv2d(32, 32, kernel_size=(3, 3), stride=(1, 1), padding=(1, 1), bias=False)
        )
        (conv2): Convolution(
          (conv): Conv2d(32, 32, kernel_size=(3, 3), stride=(1, 1), padding=(1, 1), bias=False)
        )
      )
      (2): ResBlock(
        (norm1): GroupNorm(8, 32, eps=1e-05, affine=True)
        (norm2): GroupNorm(8, 32, eps=1e-05, affine=True)
        (act): ReLU(inplace=True)
        (conv1): Convolution(
          (conv): Conv2d(32, 32, kernel_size=(3, 3), stride=(1, 1), padding=(1, 1), bias=False)
        )
        (conv2): Convolution(
          (conv): Conv2d(32, 32, kernel_size=(3, 3), stride=(1, 1), padding=(1, 1), bias=False)
        )
      )
    )
    (3): Sequential(
      (0): Convolution(
        (conv): Conv2d(32, 64, kernel_size=(3, 3), stride=(2, 2), padding=(1, 1), bias=False)
      )
      (1): ResBlock(
        (norm1): GroupNorm(8, 64, eps=1e-05, affine=True)
        (norm2): GroupNorm(8, 64, eps=1e-05, affine=True)
        (act): ReLU(inplace=True)
        (conv1): Convolution(
          (conv): Conv2d(64, 64, kernel_size=(3, 3), stride=(1, 1), padding=(1, 1), bias=False)
        )
        (conv2): Convolution(
          (conv): Conv2d(64, 64, kernel_size=(3, 3), stride=(1, 1), padding=(1, 1), bias=False)
        )
      )
      (2): ResBlock(
        (norm1): GroupNorm(8, 64, eps=1e-05, affine=True)
        (norm2): GroupNorm(8, 64, eps=1e-05, affine=True)
        (act): ReLU(inplace=True)
        (conv1): Convolution(
          (conv): Conv2d(64, 64, kernel_size=(3, 3), stride=(1, 1), padding=(1, 1), bias=False)
        )
        (conv2): Convolution(
          (conv): Conv2d(64, 64, kernel_size=(3, 3), stride=(1, 1), padding=(1, 1), bias=False)
        )
      )
      (3): ResBlock(
        (norm1): GroupNorm(8, 64, eps=1e-05, affine=True)
        (norm2): GroupNorm(8, 64, eps=1e-05, affine=True)
        (act): ReLU(inplace=True)
        (conv1): Convolution(
          (conv): Conv2d(64, 64, kernel_size=(3, 3), stride=(1, 1), padding=(1, 1), bias=False)
        )
        (conv2): Convolution(
          (conv): Conv2d(64, 64, kernel_size=(3, 3), stride=(1, 1), padding=(1, 1), bias=False)
        )
      )
      (4): ResBlock(
        (norm1): GroupNorm(8, 64, eps=1e-05, affine=True)
        (norm2): GroupNorm(8, 64, eps=1e-05, affine=True)
        (act): ReLU(inplace=True)
        (conv1): Convolution(
          (conv): Conv2d(64, 64, kernel_size=(3, 3), stride=(1, 1), padding=(1, 1), bias=False)
        )
        (conv2): Convolution(
          (conv): Conv2d(64, 64, kernel_size=(3, 3), stride=(1, 1), padding=(1, 1), bias=False)
        )
      )
    )
  )
  (up_layers): ModuleList(
    (0): Sequential(
      (0): ResBlock(
        (norm1): GroupNorm(8, 32, eps=1e-05, affine=True)
        (norm2): GroupNorm(8, 32, eps=1e-05, affine=True)
        (act): ReLU(inplace=True)
        (conv1): Convolution(
          (conv): Conv2d(32, 32, kernel_size=(3, 3), stride=(1, 1), padding=(1, 1), bias=False)
        )
        (conv2): Convolution(
          (conv): Conv2d(32, 32, kernel_size=(3, 3), stride=(1, 1), padding=(1, 1), bias=False)
        )
      )
    )
    (1): Sequential(
      (0): ResBlock(
        (norm1): GroupNorm(8, 16, eps=1e-05, affine=True)
        (norm2): GroupNorm(8, 16, eps=1e-05, affine=True)
        (act): ReLU(inplace=True)
        (conv1): Convolution(
          (conv): Conv2d(16, 16, kernel_size=(3, 3), stride=(1, 1), padding=(1, 1), bias=False)
        )
        (conv2): Convolution(
          (conv): Conv2d(16, 16, kernel_size=(3, 3), stride=(1, 1), padding=(1, 1), bias=False)
        )
      )
    )
    (2): Sequential(
      (0): ResBlock(
        (norm1): GroupNorm(8, 8, eps=1e-05, affine=True)
        (norm2): GroupNorm(8, 8, eps=1e-05, affine=True)
        (act): ReLU(inplace=True)
        (conv1): Convolution(
          (conv): Conv2d(8, 8, kernel_size=(3, 3), stride=(1, 1), padding=(1, 1), bias=False)
        )
        (conv2): Convolution(
          (conv): Conv2d(8, 8, kernel_size=(3, 3), stride=(1, 1), padding=(1, 1), bias=False)
        )
      )
    )
  )
  (up_samples): ModuleList(
    (0): Sequential(
      (0): Convolution(
        (conv): Conv2d(64, 32, kernel_size=(1, 1), stride=(1, 1), bias=False)
      )
      (1): UpSample(
        (upsample_non_trainable): Upsample(scale_factor=(2.0, 2.0), mode=bilinear)
      )
    )
    (1): Sequential(
      (0): Convolution(
        (conv): Conv2d(32, 16, kernel_size=(1, 1), stride=(1, 1), bias=False)
      )
      (1): UpSample(
        (upsample_non_trainable): Upsample(scale_factor=(2.0, 2.0), mode=bilinear)
      )
    )
    (2): Sequential(
      (0): Convolution(
        (conv): Conv2d(16, 8, kernel_size=(1, 1), stride=(1, 1), bias=False)
      )
      (1): UpSample(
        (upsample_non_trainable): Upsample(scale_factor=(2.0, 2.0), mode=bilinear)
      )
    )
  )
  (conv_final): Sequential(
    (0): GroupNorm(8, 8, eps=1e-05, affine=True)
    (1): ReLU(inplace=True)
    (2): Convolution(
      (conv): Conv2d(8, 1, kernel_size=(1, 1), stride=(1, 1))
    )
  )
)
2024-03-17 22:40:26,426 Brain Segmentation INFO: ----------------------------------------------------------------------------------------------------
2024-03-17 22:40:56,268 Brain Segmentation INFO: model was saved, epoch 0 is the best.
2024-03-17 22:40:56,268 Brain Segmentation INFO: 
====================
Epoch: 0
train loss: 0.9846405092106071
…
